CNN_LSTM_model_weight/sCNNLSTM_CE_epoch60_normal_data.pt (torch, 76581 bytes, 12 tensors)

weight f4 [32, 2, 5]
000000 3d 96 a8 be a1 29 a9 be 5a fb 06 3e b2 98 2c 3e
       -0.32927123 -0.33039573 0.1318182 0.16855124
000010 7a 4f 68 3d 10 e2 94 3e 0c d3 8c 3f 2b 23 8a 3e
       0.05671642 0.29078722 1.1001906 0.26979956
000020 d5 16 c0 be 37 4c 12 3e cb 76 77 3e 73 20 39 be
       -0.3751742 0.14286886 0.2416641 -0.18078785
000030 d6 d5 a2 3d 39 c9 17 3e e5 9a 65 be 06 5b c4 bd
       0.07950942 0.14822854 -0.22422369 -0.09587674
000040 ac d7 60 3e a5 95 3d be 1c ee 2e 3f f8 29 1e 3f
       0.21957272 -0.18514116 0.68332076 0.6178279
000050 8a 96 b6 3d 1e 6a ac 3d 1c 0b 73 3d b6 8b f1 bc
       0.08915432 0.08418678 0.059336767 -0.029485565
000060 db 7c b8 be 8a 47 74 3c ea f6 82 3f 70 8c c3 3d
       -0.36032757 0.014909634 1.0231602 0.09548271
000070 c0 f8 f9 3b 73 5e 4b 3c b7 8b 38 bc eb 0a 4a 3e
       0.0076285303 0.012412655 -0.011263779 0.19730727
000080 7e a1 18 be 5e 68 85 3e 29 84 40 be 25 66 3d 3d
       -0.14905354 0.26056188 -0.18800415 0.04623999
000090 84 06 6c 3f b0 96 18 3e 0a 72 07 3d 20 bc 87 3c
       0.9219744 0.14901233 0.03306774 0.016569197
0000a0 c8 34 27 bd 32 fc 1a be ad b9 77 3e 4c 8c 95 bd
       -0.04082182 -0.15135267 0.24191923 -0.0730215
0000b0 f7 db 29 3e 4b 88 20 3f 79 27 16 3f 42 48 0e 3f
       0.16587816 0.62707967 0.5865398 0.55579007
0000c0 63 e4 e5 3d 3c 5b b2 3c 81 ee 67 be e3 54 31 3c
       0.11225202 0.02177202 -0.22649576 0.010823461
0000d0 b1 41 8a 3d c3 64 6c 3e ef 10 cb bd ed ce 63 3e
       0.06750811 0.23085313 -0.09915339 0.22246905
0000e0 c8 58 3a 3f 37 1a ef 3c 93 58 89 bd 88 b3 2e be
       0.7279172 0.029187305 -0.06706347 -0.17060673
0000f0 8c b9 90 3e 72 d0 38 be b0 3f 1a be 5f ce 2d 3d
       0.2826656 -0.18048266 -0.15063357 0.04243314
000100 41 71 3d 3d b5 3e 47 3f c9 8c e1 bb 74 bc c3 be
       0.046250585 0.7783006 -0.006883238 -0.38229716
000110 a4 56 a0 bd dd bf 06 3f 9e 9f f3 3c c9 8d 24 3e
       -0.078290254 0.5263651 0.029739197 0.16069712
000120 40 e0 1b 3e c8 1f 88 3d ba 16 0c be 65 c6 ab be
       0.15222263 0.06646687 -0.13680544 -0.335498
000130 29 74 1e 3e 84 49 f5 be 92 ec 3d 3e cc 94 fc be
       0.15473999 -0.4790765 0.18547276 -0.49332273
000140 8b a2 b2 3d fc 27 f6 bd b2 0e 82 3e 45 f8 80 bd
       0.08722409 -0.12019345 0.25401837 -0.06297354
000150 8d 28 87 3c ba 6a aa bd c5 ab 4b 3f 89 f7 a1 bc
       0.016498828 -0.08321138 0.79558975 -0.019771354
000160 8c 1d 17 3f 96 4c 10 3f 99 00 1e 3e 1d cf c8 be
       0.5902946 0.5636686 0.15429915 -0.39220515
000170 02 52 0c be 33 9d fd b9 91 40 7d 3d b6 83 eb bd
       -0.13703158 -0.00048373043 0.061829153 -0.11499731
000180 25 03 16 be 30 06 22 be d2 67 cc bd c3 dc b0 bd
       -0.14649637 -0.15822673 -0.0998074 -0.08635857
000190 68 dd 5e 3d 19 01 c8 3c ef 6c 05 be 95 ff 69 3e
       0.05441037 0.024414586 -0.13029836 0.22851403
0001a0 ce d9 de bd 3d 44 02 3f 56 e8 cc be bb ef 1b 3f
       -0.10881387 0.50885373 -0.40021008 0.60912675
0001b0 79 4b a3 be d5 55 26 3f 26 81 18 bd 90 e2 61 bd
       -0.3189352 0.6497472 -0.03723254 -0.055147707
0001c0 46 ae 71 3e 4e 64 15 bd 79 c5 6a be c3 94 10 3f
       0.23601636 -0.03647261 -0.22926892 0.5647699
0001d0 f3 a4 05 bf 24 8a 0b bf d6 0b 50 3f fc a9 89 3e
       -0.5220482 -0.5450766 0.8126806 0.268875
0001e0 d0 53 82 be 8f 52 15 be cc 02 c4 3d 2a bb 72 3d
       -0.2545457 -0.14582275 0.09570846 0.059260525
0001f0 9b b2 46 3e 42 7c 16 3f 6d 58 35 bd 8a 55 14 3f
       0.1940407 0.5878335 -0.044273783 0.5794302
000200 d2 71 1e 3f 31 de 93 3d 7d c3 7c bd 4c 46 1b 3e
       0.61892426 0.07220114 -0.06170987 0.15163535
000210 83 cc 02 be c4 2d 39 be 03 e4 e9 3d 7f 13 90 3e
       -0.12773328 -0.18083864 0.11420443 0.28139874
000220 1c 1c f7 3e 1c 7c ea be 6c c7 ce 3e 10 3a 08 bf
       0.48263633 -0.45797813 0.40386522 -0.53213596
000230 a5 0e 86 be 64 44 88 bb d7 f3 46 bd 60 85 99 3e
       -0.26183048 -0.0041585434 -0.048572388 0.2998457
000240 4d 3b 97 bd 55 51 78 be de 1d 81 be 99 67 a6 be
       -0.073843576 -0.24249776 -0.252181 -0.32500914
000250 b0 da 87 be 52 01 07 3e 66 04 2c 3e 17 97 11 3e
       -0.26534033 0.13184097 0.16798553 0.14217792
000260 9c 86 a3 be 76 cb e7 ba e5 24 98 3e db 1d 72 be
       -0.31938636 -0.0017684537 0.29715648 -0.23644201
000270 82 b8 a8 be 5f a1 9f be ac b1 74 be 32 06 2d 3e
       -0.32953268 -0.31177804 -0.23895901 0.16896895
000280 01 55 03 be f1 8d f2 3c 05 1c 7f bd 47 4f 6e 3e
       -0.12825395 0.029608699 -0.06228258 0.2327243
000290 45 33 e6 bc 50 94 23 be 7b 2e e1 bd 1f 6e 93 3f
       -0.02810062 -0.15974545 -0.109951936 1.1517981
0002a0 5c 48 b8 bd 35 67 52 be 06 6e be 3e 29 87 66 be
       -0.089981765 -0.20547183 0.37193316 -0.22512497
0002b0 63 33 40 be d4 02 61 3e b9 6e 9d 3e ce 44 20 be
       -0.18769602 0.21973735 0.30748537 -0.15651247
0002c0 1b 00 93 be 61 77 7a be 17 3d 8d 3d b8 d6 ef bd
       -0.28711018 -0.24459602 0.068964176 -0.11710876
0002d0 36 c0 c9 3e d3 e2 35 bd dc 2a f3 bc b0 86 ea be
       0.39404458 -0.04440577 -0.029683523 -0.45805883
0002e0 51 f3 cf be b4 46 02 3d d4 a1 f4 3e d1 d6 ad 3d
       -0.40615323 0.03180571 0.47779715 0.084882386
0002f0 f4 30 42 be 34 a1 00 bd 2f 25 1f 3e 37 bf d4 be
       -0.18963987 -0.031403735 0.15541528 -0.41552135
000300 c8 14 8b 3d fd 57 c2 be ef 6b 76 3c 77 e5 7a be
       0.06791073 -0.37957755 0.015040382 -0.24501596
000310 d3 e6 86 be 39 aa 89 be e3 26 7e 3d 86 fe 37 be
       -0.2634798 -0.26887682 0.062048804 -0.17968187
000320 66 62 07 3e 46 09 1d 3b 28 84 87 be 42 a1 38 b9
       0.1322113 0.0023961826 -0.26468015 -0.0001760768
000330 fd fb b8 3c 59 e9 25 3f ac da 45 be f5 af b9 be
       0.022581095 0.64809185 -0.19321698 -0.36267057
000340 ce bd 63 be 95 aa 70 be d0 35 21 3e 25 a1 9a be
       -0.22240373 -0.23502572 0.15743184 -0.3020107
000350 63 e0 bb bd 99 be 12 be e5 b0 18 be 28 9f 79 be
       -0.09173658 -0.1433052 -0.1491123 -0.2437712
000360 89 06 85 3e 77 08 98 be 0c 33 6f be da 21 52 be
       0.25981548 -0.29693958 -0.23359317 -0.20520726
000370 7e 50 45 3c 1b 98 3d be 54 16 1b bb b0 49 92 bd
       0.012043117 -0.18515055 -0.0023664432 -0.07142961
000380 22 c0 99 3d 51 b5 33 3f 7c 8c 54 bd f4 e1 06 3f
       0.075073496 0.7019854 -0.05189179 0.5268853
000390 7e 47 e3 bd 19 35 80 3e 1f fb bb 3d ff 50 93 be
       -0.110976204 0.2504051 0.09178757 -0.28772733
0003a0 5c e8 9e bd 36 50 8e bd 02 7a 24 bd 9b a3 d5 bc
       -0.07759163 -0.06948893 -0.04015542 -0.02607899
0003b0 25 0e 32 3f 5b 98 50 bd 08 55 4c bd e1 1c f1 bd
       0.6955283 -0.050926547 -0.04988578 -0.11773086
0003c0 3b 2c 5d 3d e6 d3 e9 bd d3 bd c0 bb 31 43 83 3e
       0.05399726 -0.114173695 -0.005882004 0.256372
0003d0 42 76 fa bd 4d 9f 4c 3e f6 ef 4c 3f c4 5a d6 3e
       -0.12229587 0.19982643 0.8005365 0.41866124
0003e0 2d 13 d2 bc fa 58 1d 3f 7a 1d 02 be f1 b8 e0 bd
       -0.02564391 0.6146389 -0.12706557 -0.10972775
0003f0 0e 1d 2f 3c 89 dd 32 be d0 74 d2 3e f5 3f 3b be
       0.0106880795 -0.17467321 0.41104746 -0.18286116

bias f4 [32]
000000 d6 59 8e be de ad e7 be d4 3b b2 be c6 05 c9 be
       -0.27802914 -0.45249838 -0.3481127 -0.39262217
000010 c2 49 a3 be 5f 2f a3 be 6f ec c6 be 80 46 58 be
       -0.3189221 -0.3187208 -0.3885226 -0.21120644
000020 1c ff e9 be 63 9a 14 be e6 67 d1 be a2 9b 99 be
       -0.45702446 -0.14512019 -0.4089958 -0.3000155
000030 c8 21 55 be 61 fe 4a be cc 84 91 3e 91 0d 0c be
       -0.20813668 -0.198236 0.28421628 -0.1367705
000040 12 72 11 bf 7f c6 c2 be 4c d4 65 be e0 86 49 3e
       -0.5681468 -0.38042066 -0.22444266 0.19680357
000050 b5 c2 55 be b7 fc 85 3e 2b d5 6f 3d 3d ae c1 3d
       -0.20875056 0.2616937 0.058552902 0.094570614
000060 ff ef b4 be 87 d1 99 be e6 c2 30 be ab 0d 8d bc
       -0.35339352 -0.3004267 -0.17261848 -0.017218431
000070 06 29 27 be c7 a4 5b 3d 7d bd d7 3c 95 c1 f0 be
       -0.16324243 0.05362394 0.026335472 -0.4702269

weight_ih_l0 f4 [128, 32]
000000 75 8e 6c bd 18 6e 84 3e 41 90 dd 3d 42 92 01 3e
       -0.057753045 0.25865245 0.1081853 0.12653449
000010 e3 3c 25 be 6d c0 a8 3d dd 72 ab bd d8 cb bf 3d
       -0.16136508 0.08239827 -0.08371518 0.09365052
000020 39 2b 3a 3e 36 ed b2 3e 9d a5 6e be f1 7e f9 bd
       0.1818055 0.34946603 -0.23305364 -0.12182415
000030 db 0f c6 3c df 69 05 bc c4 91 94 bd dc df 93 3d
       0.024177482 -0.008142917 -0.07254365 0.07220432
000040 dd ad cc bd 6d 9d 06 3e 6b 6b aa 3e df c2 9a 3e
       -0.09994099 0.1314599 0.33285078 0.302268
000050 2b 7a 12 bd 63 14 cd bd 18 4f f9 3d 89 a3 c1 3c
       -0.03576104 -0.10013654 0.12173289 0.02363755
000060 df 9b 12 bd 99 28 ed 3e ca ff 9d 3d 3f 92 17 be
       -0.03579318 0.46320036 0.077148035 -0.14801882
000070 30 70 e4 3d 1b ef c2 bd c7 8b 19 3e 79 70 e2 bd
       0.111542106 -0.09518262 0.14994727 -0.11056609
000080 b1 5a ae be 93 44 43 bd 14 00 d4 be 77 09 3c be
       -0.34053567 -0.04767282 -0.4140631 -0.18362986
000090 72 df 23 be 2f c2 3b be e5 e3 d3 be 4d b7 8c bd
       -0.16003206 -0.18335794 -0.41384807 -0.06870899
0000a0 60 48 b1 bb de d2 de bd df 90 b4 be 16 f4 f8 be
       -0.005410239 -0.108800635 -0.35266778 -0.48623723
0000b0 e2 ed 27 be a4 81 c7 be 90 d7 4d be 1a d1 04 be
       -0.16399339 -0.38966095 -0.20101762 -0.12970391
0000c0 c0 94 90 be f0 d0 01 be 79 0b 96 bc cc 41 c4 bd
       -0.28238487 -0.1267736 -0.018316017 -0.09582862
0000d0 3d 01 94 3d 9b aa 81 bc fa db 82 be 06 c8 99 3c
       0.07226799 -0.015828421 -0.25558454 0.018772136
0000e0 bb d4 4e bd 52 cd d3 3e 20 01 65 bd cb 44 78 3e
       -0.050495844 0.41367584 -0.055909276 0.24244992
0000f0 63 27 f8 bd e6 3e aa 3d e9 fc 35 be e6 bc bd be
       -0.121168874 0.08312778 -0.17772259 -0.3705818
000100 71 3f 84 be e1 d5 e0 3d 3d 23 99 be 78 33 98 be
       -0.25829652 0.10978294 -0.29909697 -0.29726768
000110 18 c8 d4 be 55 42 92 be a0 24 81 be 44 ee d0 3d
       -0.4155891 -0.28566232 -0.25223255 0.102016956
000120 41 1f cb 3c a6 3f c0 bd 80 d5 7d b8 57 99 9e be
       0.024795176 -0.0938714 -6.0518738e-05 -0.30976364
000130 04 da c0 be 7b cd 7c 3e bc c9 22 bd 94 09 49 bc
       -0.37666333 0.2468776 -0.03974317 -0.01227035
000140 fa 15 b7 be 6f 5a f3 bd 13 73 f8 be ed 60 b1 be
       -0.35758954 -0.11882483 -0.48525295 -0.3464426
000150 8a db e5 bd 06 41 a4 be 94 90 bb be 04 34 e7 bd
       -0.112235144 -0.3208086 -0.36633742 -0.11289218
000160 82 d1 54 bd 3c 2e ce be f4 da 14 3e 1e 33 9e be
       -0.051957615 -0.4026965 0.14536649 -0.30898374
000170 bd cf 32 3e f3 19 25 be 17 bb 89 be a4 2f 88 be
       0.17462058 -0.1612318 -0.2690055 -0.26598847
000180 13 a8 ba 3d 14 0d 6d be 7b 06 9c be 56 73 8d be
       0.09114089 -0.2314952 -0.30473694 -0.27627057
000190 b2 5c ee be bd 2f 1b bd bc 2b 75 3d ac 9b 31 be
       -0.46555096 -0.037887324 0.05985616 -0.1734454
0001a0 6a 25 50 be 29 56 91 be 1b e6 b9 bd 96 21 c5 3d
       -0.20326772 -0.28386047 -0.09077092 0.09625547
0001b0 dd 9f 21 bd 2a 2c 6b 3d 8e aa db 3d d4 ad 09 3d
       -0.039459098 0.057415165 0.1072589 0.03361304
0001c0 85 1b e2 be 3d b0 80 3d 98 c3 2b bf 36 1f 85 3e
       -0.4416162 0.06283615 -0.6709533 0.26000375
0001d0 33 c6 0b be 78 73 c7 3c c2 75 66 bd c1 c4 be bd
       -0.13649826 0.024347052 -0.056264646 -0.093148716
0001e0 38 6e 80 be 84 11 15 3e 7c a6 60 be bd 33 92 be
       -0.2508409 0.14557463 -0.21938509 -0.28555098
0001f0 53 99 64 be 86 51 e4 bd 9a 06 2c be 44 d0 06 be
       -0.22324114 -0.11148362 -0.16799393 -0.13165385
000200 43 28 c9 bc 21 4a ef 3e 01 62 98 3e 24 f6 86 3e
       -0.024555331 0.46736243 0.2976227 0.26359665
000210 b6 1a ca bd ed 2d 86 3d 49 5e 22 3e 26 e5 72 bd
       -0.09868376 0.065517284 0.1585628 -0.059300564
000220 17 63 ed 3e 82 e0 cd bd 9b 65 bc bd 36 c5 a5 3e
       0.46364662 -0.10052587 -0.09199067 0.32377023
000230 44 b5 6b bd d1 42 10 3d 58 e7 89 bd 40 19 0b be
       -0.057545915 0.03521997 -0.067335784 -0.13583851
000240 bd 08 06 3f d6 62 a5 3d 17 70 37 3f 25 70 90 3b
       0.52357084 0.08075492 0.7165541 0.0044079
000250 15 c5 a0 3d ae 35 1c be d9 c3 12 bd 4e ef dc 3e
       0.078500904 -0.15254852 -0.035831306 0.43151325
000260 c4 d2 02 bb 35 b9 1e 3b 34 91 b6 3d 48 3d a1 3c
       -0.0019962052 0.0024219279 0.08914414 0.019682541
000270 14 ff 55 3e a5 74 22 3e be 5c 55 be b1 9f 14 3f
       0.20898086 0.15864809 -0.2083616 0.5805617
000280 08 92 8f be 34 a1 2d be dc 3b 61 be a4 a2 8d be
       -0.280411 -0.16956025 -0.21995491 -0.27663147
000290 b4 36 0e be e6 62 88 bd 84 dc 17 be f9 d8 93 be
       -0.13888055 -0.066594884 -0.14830214 -0.28876474
0002a0 d7 99 0e bf bd 5d 67 3e 0f 68 7c 3c 9f 16 78 3e
       -0.5570349 0.22594352 0.015405669 0.2422738
0002b0 f7 14 0f 3e 84 cd 5e 3e ef e3 c5 bd 56 31 3f be
       0.13972841 0.21758085 -0.096626155 -0.18671164
0002c0 2e 6d 82 be 80 8d 55 bd 76 4e b3 bd e7 af a6 3e
       -0.25473922 -0.052136898 -0.087551996 0.32556078
0002d0 55 11 bd bd 93 57 ef 3e 36 d3 4c 3d d8 e0 04 be
       -0.092318214 0.467465 0.050006114 -0.12976396
0002e0 81 01 55 be e0 69 48 bc 02 3e 8f be 0a 44 40 3e
       -0.20801355 -0.012232274 -0.27976996 0.18775955
0002f0 e9 21 b0 be a9 03 33 bd 9e cf d6 bd e1 e9 e7 be
       -0.3440087 -0.043704662 -0.104888186 -0.45295623
000300 15 38 09 3e 39 53 8d 3e d2 b1 24 3e ad 60 1d 3e
       0.134003 0.27602556 0.16083458 0.1536891
000310 19 e8 4d 3d 14 d9 37 3e 36 44 91 bd 71 77 9a 3e
       0.050270174 0.17953902 -0.07093088 0.30169252
000320 2b f1 5b 3e 0f 3a 16 3e c6 b1 e0 3d 2f 4e 7f 3e
       0.21478717 0.14670585 0.109714076 0.24932168
000330 ca 1e 8b 3e 61 fb 76 3e c3 99 96 3e be cf 64 3e
       0.27171928 0.24119331 0.29414186 0.22344872
000340 30 8b b5 3d 97 da 64 3e fc 89 7e 3e ca 2d 4b 3e
       0.088644385 0.2234901 0.24857324 0.19841686
000350 40 35 82 3e 1b 95 46 3d dd 43 7e 3c ae db ff 3d
       0.25431252 0.04848204 0.01551911 0.124930725
000360 47 31 73 3e 8c f7 18 bd b6 c5 d0 3d 29 a3 2c 3d
       0.23749267 -0.037345454 0.1019396 0.04214779
000370 f2 45 35 3e 1f e5 ee 3e a0 cb ff 3d a9 c3 05 3e
       0.17702463 0.4665918 0.1249001 0.1306292
000380 77 4c 5c bd 61 9e 3f 3b 46 2c 06 3e 73 11 52 be
       -0.05378386 0.0029238688 0.13102826 -0.20514469
000390 28 29 4e be 19 08 ea bd 10 53 2a be 13 3e b8 bc
       -0.20132887 -0.11427326 -0.16633248 -0.022490537
0003a0 76 1d 8f be e1 89 e9 3c 26 fa 25 be 4c 04 34 be
       -0.27952164 0.028508129 -0.16208705 -0.17579764
0003b0 58 f8 4a be 31 f8 47 be f6 04 4e 3e 2f 57 8d 3e
       -0.19821298 -0.19528271 0.2011908 0.27605578
0003c0 43 7d d7 3d bd 77 00 bd 0a a3 8e 3e 54 51 3a 3e
       0.10521939 -0.03136419 0.27858764 0.18195087
0003d0 b6 f0 57 bd 66 83 b1 3d c8 2e 61 bd 4d b1 5e 3c
       -0.052719794 0.086676404 -0.054976255 0.0135920765
0003e0 1b 35 5c be 23 a5 7e be fe 87 bf bd be bd a4 3e
       -0.21504633 -0.24867682 -0.0935211 0.32176012
0003f0 c7 25 94 bd a6 75 c2 3e af e1 24 3e d6 cc 97 bd
       -0.07233768 0.37980384 0.16101716 -0.07412116

weight_hh_l0 f4 [128, 32]
000000 b3 ea e4 bc 32 70 8f 3c ab 26 d2 bc 19 88 15 3e
       -0.027943945 0.017509554 -0.025653204 0.14602698
000010 c0 04 db 3d 59 20 54 bd 56 10 df bc a3 86 83 be
       0.10694265 -0.05178866 -0.02722947 -0.25688657
000020 6c f0 99 3e 4b 64 8d 3d 34 d3 52 be 92 d6 d3 be
       0.3006624 0.06903895 -0.2058838 -0.41374642
000030 d0 6d 44 bd 16 e0 89 be 12 2d 1d be 99 13 94 3e
       -0.047956288 -0.26928777 -0.15349224 0.28921202
000040 58 90 d8 3e 1c ea 88 be 27 61 d0 be cf c6 26 bd
       0.42297626 -0.2674111 -0.4069912 -0.040716942
000050 69 5b a5 3c 74 a5 03 bf 31 f4 a8 be ab ba 8e 3d
       0.02018519 -0.51424336 -0.32998803 0.06969198
000060 4c 3b e1 3d f0 a9 5a 3e 59 ae a5 3e d9 96 18 bf
       0.10997638 0.21353889 0.3235958 -0.59605175
000070 20 66 ee 3e 0e d1 d5 be 51 b4 e9 be 1a b0 57 bd
       0.4656229 -0.4176106 -0.45645383 -0.052658178
000080 93 9f 79 bd bb 27 86 bd e6 79 da bd 2b 9e 09 3e
       -0.060943197 -0.06550547 -0.106677815 0.13439243
000090 65 fb 8c bb 40 2a e5 bd 6a b7 15 bd b5 c0 c2 bd
       -0.0043024295 -0.11189699 -0.03655187 -0.09509412
0000a0 30 0b eb 3c e3 d8 a4 be ca d4 06 be c9 b0 16 3f
       0.028691858 -0.3219672 -0.1316711 0.588635
0000b0 fd a4 1e be 16 9c cb bd 00 a9 cc 3e d5 db 09 3e
       -0.15492626 -0.099418804 0.39972687 0.13462766
0000c0 17 a3 f7 bd 7c 6d 98 3d 7b 72 ac be 4f 1f c2 bd
       -0.12091654 0.074427575 -0.33681092 -0.09478628
0000d0 30 f2 31 3e d8 67 cf 3e 7f e5 3b bb a4 da 8d 3c
       0.17377543 0.40508914 -0.0028670726 0.01731617
0000e0 61 81 ae bd 93 9c 93 bd fb 52 3b bb 73 82 2e 3e
       -0.08520771 -0.072075985 -0.0028583396 0.1704195
0000f0 70 dd f3 bd 97 e9 07 be 00 a3 1c bd 7c fa 8b be
       -0.1190747 -0.13272701 -0.038241386 -0.27339542
000100 fc cf 83 be f0 33 17 3f eb ed e5 3d 05 cf c4 bc
       -0.25744617 0.59063625 0.1122702 -0.024024496
000110 b9 6c 9e 3e 34 f8 a6 bb 50 76 2e 3d c6 bd fa 3d
       0.30942324 -0.005095506 0.0425933 0.12243228
000120 a0 7c 25 be 93 be 16 be e9 4d 6f be 3b 0d 54 be
       -0.16160822 -0.14721136 -0.23369564 -0.20708172
000130 58 e3 f2 bd 15 86 34 be 10 75 65 3e c2 3f 07 3d
       -0.11859769 -0.17629273 0.22407937 0.03301979
000140 d6 d9 aa ba 10 17 bf 3b 31 59 3a be bd f2 c7 bc
       -0.0013034891 0.0058316067 -0.18198086 -0.024407739
000150 22 b5 f0 bc c1 f2 fb 3d c9 d0 23 3d 1d 0a ca 3e
       -0.029383246 0.12302161 0.039994035 0.3946084
000160 26 20 24 bd 10 ee 5d 3e 1f 2a c8 3d d3 eb 86 bd
       -0.04006972 0.21672845 0.09773659 -0.06587949
000170 04 09 18 be 65 67 f1 3d 5a fc 1f bc ea 30 83 bf
       -0.14847189 0.11787299 -0.009764755 -1.0249302
000180 95 47 e6 bd ed 2f 00 3f 49 f4 7c 3c ee ee a2 3e
       -0.11244122 0.5007313 0.0154391015 0.31822914
000190 95 07 32 3d 68 e7 b3 bd 95 ae 4f be 4a 88 0a bd
       0.043464262 -0.087843716 -0.20281442 -0.03382138
0001a0 ab c0 04 b9 2f b5 18 bf 34 34 6e bd 8c f8 93 3e
       -0.00012660275 -0.59651464 -0.058155254 0.28900564
0001b0 1a d0 eb bd e8 e4 2a bf d6 a3 32 3e 2e 36 f6 bd
       -0.115143016 -0.66755533 0.17445311 -0.12022053
0001c0 73 03 79 3e e5 68 81 be 56 20 29 be 81 ef 58 be
       0.24317722 -0.2527534 -0.16516241 -0.21185113
0001d0 e6 38 7d bd 19 fd da bc 34 c3 a3 3b 7a f3 b7 3e
       -0.06182184 -0.026732014 0.0049976353 0.35927945
0001e0 79 e9 81 3e 4b ff 95 3e bd 25 1a 3e 3c d0 9d bd
       0.25373438 0.29296336 0.15053459 -0.07705733
0001f0 c3 f7 7c 3d 56 73 bf 3e ef 8d 8f 3d 40 62 90 3c
       0.06175972 0.37392682 0.070094936 0.017624974
000200 79 98 09 bf 6c c1 b7 bd 47 db 4c 3d 69 3d 2c be
       -0.5374828 -0.08972439 0.050013807 -0.16820301
000210 0e 7d f9 3e 99 49 ac bd 69 48 76 bd b9 c1 44 3e
       0.48728222 -0.08412475 -0.06012765 0.19214524
000220 bc 41 39 be 56 39 00 bf 5d 6e 29 3e 40 ca 27 3c
       -0.18091482 -0.5008749 0.16546007 0.010241091
000230 5a d7 2d be 8f ae b1 be d1 e2 43 be bb 0f 3b 3e
       -0.16976681 -0.3470349 -0.19129492 0.1826772
000240 ce 5f 66 be 96 82 de 3d 69 3f f8 3e 07 a1 a0 3d
       -0.22497484 0.10864751 0.48485878 0.078432135
000250 73 af 15 3e f9 6e 64 bd 7d 5a 07 3e c6 7d f1 bc
       0.1461771 -0.055769894 0.13218112 -0.029478919
000260 39 91 25 3d f9 a0 aa bd ba 8b 93 bd 15 80 13 3e
       0.0404217 -0.08331484 -0.07204385 0.14404328
000270 30 8e 0c 3d 02 8d 13 3e 59 d7 f9 3d e7 e9 95 3c
       0.034315288 0.14409259 0.121992774 0.01830001
000280 c8 f4 ed bd ab fd 1d bd 22 c9 48 be 0f ad ea 3b
       -0.11618954 -0.038571995 -0.19607976 0.0071617435
000290 e4 f8 59 bd 72 6f 0b 3d 71 c8 b0 bd 02 84 89 3c
       -0.053215876 0.03404183 -0.08631981 0.016786579
0002a0 6b b4 1d be 90 5b 2c be ae b8 a4 3e d4 4e 5e 3e
       -0.15400855 -0.16831803 0.3217215 0.21709758
0002b0 0e 8e 5b bd 5f 27 4a be 89 79 5f be ea 46 c6 3e
       -0.05360227 -0.19741581 -0.21823706 0.38725978
0002c0 4f 39 05 be 32 cf 07 3d d2 ec d3 3e eb 12 72 be
       -0.13010143 0.03315658 0.41391617 -0.23640029
0002d0 be 51 15 3e 43 3d 58 bd 49 7b 2d 3e 88 e8 ac bb
       0.14581963 -0.0527928 0.16941561 -0.0052767433
0002e0 ad e3 83 bd e6 68 dd bc cf c4 0d be 87 dd bb 3d
       -0.0643991 -0.027027559 -0.13844608 0.09173112
0002f0 27 64 ba 3d 06 a6 70 be 49 52 15 be d5 34 df 3d
       0.09101134 -0.23500833 -0.1458217 0.10898749
000300 b2 00 86 bc 48 ef 1b bc 64 5c e2 3d e5 14 0c be
       -0.016357753 -0.009517498 0.11052778 -0.13679846
000310 35 50 f2 3d 21 24 86 bd 3f ff 7d be 9b c8 2c bd
       0.118317045 -0.0654986 -0.248044 -0.0421835
000320 bf 81 db 3d 2d 38 bf bd e3 02 96 3e a7 88 46 be
       0.107181065 -0.093368866 0.29299077 -0.19388066
000330 55 0a ec bd c2 e8 7f bd c2 bc f5 bd c0 15 e4 3d
       -0.11525408 -0.062477835 -0.11998893 0.11136961
000340 24 13 d0 3c 27 2d 52 be 9d 7f 9c bd 05 f7 08 3e
       0.025399752 -0.20525037 -0.07641528 0.1337548
000350 5e 8d 9b bd 25 f7 4f 3d e8 a3 a7 3d 8b 9b f5 3d
       -0.07595323 0.050772805 0.081855595 0.11992558
000360 92 fc d0 3e e7 be 80 3e 60 8e ad 3e 5a 27 41 bd
       0.40817696 0.25145647 0.33897686 -0.04715667
000370 9c e0 4c be 18 0a 11 bc 7d fe a1 be 37 5f 01 3e
       -0.20007557 -0.008852504 -0.31639472 0.12633978
000380 ce 81 82 bd 3b b5 12 3e 16 10 b7 3d 41 94 aa bd
       -0.063724145 0.14326946 0.08938615 -0.083290584
000390 d7 2d 66 3e 5e 70 2d bd e3 df 6e bd 32 55 bb be
       0.22478424 -0.04234349 -0.058318984 -0.36588436
0003a0 83 6d f4 3c 1c 0b 36 3d 59 95 7f 3e 8b 2f 4e bd
       0.029837376 0.04444419 0.24959315 -0.05033831
0003b0 11 f0 d5 3c eb 49 ac bd 9b 3e 8c be c9 fd 69 3e
       0.02611545 -0.08412536 -0.27391514 0.22850718
0003c0 b8 bb 09 3e b6 55 7a bd d0 14 29 be 80 bd 67 bd
       0.13450515 -0.061116897 -0.16511846 -0.056577206
0003d0 ff 3f 5d be 66 3f 94 bd 67 89 64 3e dc 04 ad 3d
       -0.21606444 -0.07238655 0.2231804 0.084481925
0003e0 ba e1 94 3d cb 4b be 3e 5e 96 a7 3e fd b1 be bd
       0.072696164 0.371672 0.3273191 -0.09311292
0003f0 b7 4a 94 3e f5 44 8f 3d dc 10 c0 be b4 7c 85 3c
       0.28963253 0.069955744 -0.37512863 0.016294815

bias_ih_l0 f4 [128]
000000 dc 59 d1 3e 6c 90 c2 bd ce c9 db bd f9 70 12 3e
       0.4088887 -0.095002025 -0.107318506 0.14300908
000010 d0 82 79 3d 7a be dc bd 7d f1 a0 3e 3c 2f aa 3c
       0.06091577 -0.10778518 0.3143424 0.020774476
000020 6f 9e c6 3b 73 3f 95 be bc ae 3b 3e be 55 d4 be
       0.006061367 -0.2914997 0.18328375 -0.41471666
000030 1e 4f 75 be c2 45 d3 3b 36 66 97 bd ce bb 1d bc
       -0.23955962 0.0064475248 -0.07392542 -0.009627296
000040 a3 d6 68 3d f9 c4 b9 3d 9a 71 f2 bd 9f ff e2 3d
       0.05684532 0.09070773 -0.11838074 0.11083912
000050 07 cd 98 3e de ba 56 bd 3e c2 b1 3d f0 7a 38 be
       0.29843923 -0.052424304 0.08679627 -0.18015647
000060 3b 0a cb 3e 06 38 db bd 35 d8 b3 3d 75 e4 8c bc
       0.39656243 -0.10704045 0.087814726 -0.01719878
000070 2c bc 0f be eb cf 20 bc 4e af e0 3d 68 08 01 bf
       -0.14036626 -0.0098151965 0.10970937 -0.5040345
000080 93 46 a2 3d b1 ac 86 b9 5e 76 0a 3e 55 ae 57 3e
       0.07923617 -0.00025687137 0.13521716 0.21062596
000090 fd 4a 4a 3e ec 3a 41 3d cf 44 94 3e d0 01 26 3e
       0.19755168 0.047175333 0.28958747 0.16211629
0000a0 12 e0 72 3e 2c b8 c3 3e a6 72 36 3d c7 0e 21 3e
       0.23718289 0.3822645 0.04454293 0.15728293
0000b0 67 53 05 3e f2 1a a8 bd 0e 97 45 3e 53 be f7 3c
       0.13020097 -0.082082644 0.19295904 0.03024212
0000c0 d1 5d 44 3e 66 21 73 3e 14 a9 28 bd 21 a7 9d bd
       0.19176413 0.23743209 -0.04117687 -0.07697893
0000d0 d0 31 30 3e 35 a3 50 3e 6b 16 f0 3d a7 ce 31 3e
       0.17206502 0.20374759 0.11723026 0.17363988
0000e0 32 82 9d 3e e5 00 3e 3d c6 02 28 3e 92 7b 83 bd
       0.30763394 0.04638757 0.16407308 -0.064200535
0000f0 5b d7 49 3d ef 01 12 3d 03 e1 bd 3e 7e 73 a4 3e
       0.049277645 0.035646375 0.37085733 0.32119364
000100 1f 9a 4b 3e 82 ec 7d bc 55 59 92 3d b5 2f 7b 3d
       0.19883011 -0.015498282 0.07145945 0.061324794
000110 74 91 5d 3e b2 a4 2c be e6 6d 73 be b0 13 2a be
       0.21637517 -0.16859701 -0.23772392 -0.16609073
000120 52 a4 18 3d 24 8b 5d 39 17 ab 15 3e 26 87 10 bd
       0.037266083 0.00021128036 0.14616047 -0.035285138
000130 06 ac 5c be c9 39 83 bd 70 4c a9 3d 74 23 18 3e
       -0.21549997 -0.06407506 0.082665324 0.14857274
000140 a5 ec 9d bd 16 70 15 be 05 f5 e4 3c 36 fe ba 3d
       -0.07711152 -0.14593539 0.027948866 0.09130518
000150 44 35 90 be da e0 81 3e 3c 72 49 3e d6 83 f7 3d
       -0.28165638 0.2536686 0.19672483 0.120856926
000160 92 17 2a 3e 74 25 7e 3c c6 ed 87 3e 46 0e 2c 3e
       0.16610554 0.015511859 0.26548594 0.1680232
000170 7f df 64 bd c2 58 4a 3e 6f 47 9e be 27 7c b7 3d
       -0.055877205 0.19760421 -0.30913875 0.08959227
000180 7e 28 06 be ae 71 58 be 7b 0a 2f 3e fe 6e 95 3e
       -0.13101384 -0.21137115 0.17093842 0.29186243
000190 ab 71 54 3e b5 7c 74 3d fd 1d c1 3d c0 0c ec 3d
       0.20746486 0.059689242 0.09429548 0.11525869
0001a0 93 45 c0 3c 23 93 a2 3c af 46 a3 3e 84 e2 d1 3d
       0.023470676 0.01984555 0.31889865 0.102482826
0001b0 d0 2d 03 3d 91 7a 34 3e d3 5e ca 3e df 9a 88 3d
       0.032026112 0.1762488 0.3952547 0.06670164
0001c0 10 ee 0d 3e 11 18 eb 3d 35 44 e2 3d b9 a3 5b 3e
       0.13860345 0.114792 0.11048166 0.21449174
0001d0 21 27 9d bd 23 b1 c2 3e 3a c5 ac 3e f3 c5 90 3d
       -0.07673479 0.3802577 0.33744222 0.07069006
0001e0 d3 cd 3c bd 1d 76 94 bd 00 3d e0 3d 57 9a 04 3e
       -0.046094727 -0.07249091 0.10949135 0.12949501
0001f0 02 b2 71 3e 84 28 92 3e cb 4a 7a 3e c0 29 03 3f
       0.23603061 0.28546536 0.24442594 0.5123558

bias_hh_l0 f4 [128]
000000 f6 4e c0 3e 1c a0 c8 3c ff bf 8c bd 3b 65 7e 3e
       0.37560242 0.024490409 -0.06872558 0.24843304
000010 9f 56 09 3c 73 90 46 be 38 ed ab 3e af 3d 9a 3e
       0.0083824685 -0.1939104 0.3357942 0.30125186
000020 f8 d7 08 3c 0e 1b a4 be 20 9a f3 3d 86 2f 02 bf
       0.008352272 -0.3205189 0.118946314 -0.50853765
000030 39 00 ec bb d8 87 08 be 0d b4 7e be 60 02 8e 3c
       -0.007202175 -0.1333307 -0.24873371 0.017335117
000040 8a 7b 0d be e5 10 7e 3e 09 1a 30 be ce 56 f1 3d
       -0.13816658 0.24811132 -0.17197432 0.11784135
000050 b0 79 92 3e 2f e2 7a be 2c d8 20 3d 0c d8 bf bd
       0.28608465 -0.24500345 0.039268658 -0.093673795
000060 cf 92 58 3e 00 c7 bc bd 4b d9 41 3e b2 58 9e 3c
       0.21149753 -0.09217644 0.18930547 0.019329403
000070 0f 08 d3 3d 01 16 ca 39 05 96 80 3e 7e c7 04 bf
       0.103042714 0.00038544837 0.25114456 -0.518669
000080 e9 dd 05 3d 16 92 04 be ab 4f 0c 3e 23 1e 10 3e
       0.032682333 -0.12946352 0.13702266 0.14073996
000090 38 7c 75 3e 02 2c 91 3e d1 3b 76 3d 0f d1 a1 3d
       0.23973167 0.28353888 0.06011564 0.07901203
0000a0 80 f7 ae 3d 0e 2c 13 3f f0 48 a9 3b a1 ce 5e 3e
       0.08543301 0.574891 0.0051661655 0.2175851
0000b0 32 87 4d 3e e1 16 4d 3b 7c ff 1c 3e 4e e8 04 3e
       0.20071104 0.0031294154 0.15331835 0.12979242
0000c0 74 b6 30 3e bf 3f 90 3d 1c 09 2b 3d c3 5f 87 bd
       0.172571 0.070434086 0.041756734 -0.06610062
0000d0 11 5e 5d 3e 33 10 7e 3e 42 0b 7e 3e f0 22 4e 3e
       0.21617915 0.24810867 0.24808982 0.20130515
0000e0 ee d0 c6 3d db ac 7c 3e 14 6d 0d 3e d9 e4 04 3d
       0.09707819 0.24675314 0.13811141 0.03244481
0000f0 36 02 84 3e 0c a5 16 bd 7d 01 c8 3e 5b 6e 79 3e
       0.25782937 -0.036778495 0.39063635 0.24358504
000100 ce bd bc 3d 1c e4 f6 bd b2 a2 3c 3e 95 df 81 bd
       0.0921589 -0.12055227 0.18421438 -0.06341473
000110 91 d2 8e 3e 24 95 59 be 64 46 83 be 60 af 1f be
       0.27895024 -0.21248299 -0.2563964 -0.15594244
000120 a9 e3 84 bd 7a 2e 3b be 18 8f 8b 3e 18 4f 8c bd
       -0.06488735 -0.18279448 0.2725761 -0.068510234
000130 94 a6 ff bd e0 b6 0d be 15 2a a6 bd e1 9d 41 bd
       -0.12482944 -0.13839293 -0.08113495 -0.047269706
000140 7e 73 8f bd 31 5e d9 bd 15 3c 90 bd 33 79 74 3d
       -0.0700445 -0.10613669 -0.0704271 0.059685897
000150 1f 7e 81 bc d6 f6 a1 3d c6 25 03 3e c1 01 3f 3d
       -0.01580721 0.07908408 0.12807378 0.046632532
000160 65 4e 8d 3d 14 fb 40 3e 6b f0 39 3e 45 19 cb bd
       0.06899718 0.18845779 0.18158118 -0.09916929
000170 52 92 cc bd c9 65 05 be f9 13 7a be 63 6a 8f bd
       -0.09988846 -0.13027109 -0.24421681 -0.070027135
000180 04 ef 6d bd f0 1e 14 3d f7 fc 8c 3e 72 08 32 3e
       -0.05808927 0.036162317 0.27536747 0.17386034
000190 1e 48 8e 3c eb 2f d0 3d 27 7a 57 3e a0 4f 4a 3e
       0.017368373 0.101653896 0.21042691 0.19756937
0001a0 25 75 9c bd 5d aa fa bc ff 83 e6 3d 24 fe 68 3e
       -0.07639531 -0.030598814 0.11255645 0.22753197
0001b0 f8 2a e6 3d da 1a 52 3e 56 88 76 3e 89 bb 62 3d
       0.112386644 0.20518056 0.24075446 0.05535463
0001c0 c5 2e 54 bd 59 3d 69 3d 55 70 83 3e 88 9a 88 3e
       -0.051802415 0.05694327 0.2567164 0.26680398
0001d0 08 15 90 3c 48 08 dd 3e 9e 7f 85 3e d9 29 2d 3e
       0.017588153 0.4317038 0.26073927 0.16910495
0001e0 07 72 08 3d 56 78 50 bd 51 4e 1f 3e c7 42 2b 3d
       0.03331187 -0.05089601 0.15557219 0.04181173
0001f0 4f 60 3a 3d cc 56 81 3e 8b 09 2a 3e 74 a6 58 3e
       0.045502003 0.25261533 0.16605203 0.21157247

weight_ih_l0_reverse f4 [128, 32]
000000 84 4d 25 3d 85 ef c1 bd b5 51 ec bd 48 7f c6 bd
       0.040357128 -0.09469513 -0.11539022 -0.09692246
000010 39 6b b6 bd 30 b0 2d be 50 b4 e4 bd 24 35 92 be
       -0.0890717 -0.16961741 -0.111672044 -0.28556168
000020 08 e2 11 3c 45 11 d9 bb 21 21 5d 3c 5d b7 fb 3c
       0.008903988 -0.006624373 0.013496668 0.030727083
000030 e4 b4 9e bd 30 84 c8 bd 7f bc c6 be a8 21 96 be
       -0.07749346 -0.09790838 -0.38815686 -0.29322553
000040 c3 f8 4b 3f d0 7e 0b be 16 37 d2 3b 72 68 80 be
       0.79676455 -0.13622594 0.006415258 -0.25079685
000050 b4 34 36 bd ba 97 fe bd 30 c5 16 be 90 04 cc bc
       -0.044483855 -0.12431283 -0.14723659 -0.02490452
000060 b7 92 33 bd fd ad 36 3d 63 26 16 be 57 16 dc 3e
       -0.04384109 0.044599522 -0.14663081 0.42985794
000070 d8 b3 73 be 9f ee fc be 08 ce 87 3b 7c 1a 00 be
       -0.23799074 -0.49400803 0.004144434 -0.12510103
000080 0d 65 20 be 50 1c d2 be 42 03 98 bd c1 a8 90 bd
       -0.15663548 -0.41037226 -0.074224964 -0.07063437
000090 0e 92 4a 3c 5f 05 a4 bd 69 87 46 bd 2d 36 b9 3d
       0.012363924 -0.08008837 -0.04846898 0.09043536
0000a0 1d 83 b0 be 6d d6 35 3e dc 60 1f 3c aa 8f 2c 3e
       -0.34475031 0.17757578 0.009727683 0.16851678
0000b0 58 34 61 be d2 57 e8 be e8 35 1f 3e 11 fc 5d 3e
       -0.21992624 -0.45379502 0.15547907 0.21678187
0000c0 22 1c 7a bf 63 5e 0d 3e dc a7 f3 be fd 34 37 3e
       -0.9769918 0.13805537 -0.47589004 0.17891307
0000d0 14 b7 ee 3e 7e 14 80 be 8a 41 aa 3d b6 5d 00 bf
       0.46624053 -0.25015634 0.08313282 -0.5014299
0000e0 94 4d 1a 3c 30 ad d2 3d fe 6c 19 bf 23 fe 1a 3d
       0.00941791 0.10286939 -0.59931934 0.03784002
0000f0 79 59 b7 3c dc 1e b2 3d 7e 7c 15 bd e9 e4 0b bf
       0.022381531 0.08697292 -0.036495678 -0.54646164
000100 da b9 a2 be a7 5e cf be 19 b9 18 bf 5b e0 3c bf
       -0.31782418 -0.40501902 -0.59657437 -0.7377984
000110 5e 95 0e be a4 0f b8 3c 8f 50 97 3e b1 ad 6e 3d
       -0.13924167 0.022468396 0.2955365 0.058271114
000120 b4 b0 f0 be 7e 67 88 3d 75 1f 81 be 28 3f 70 3e
       -0.47009814 0.066603646 -0.25219312 0.23461592
000130 51 70 98 3d 93 06 de be 1a ed 35 3e 26 36 e6 3e
       0.07443298 -0.4336439 0.17766228 0.44963187
000140 52 64 2b be 34 30 c2 3e db ef a1 bd 28 c0 b8 3e
       -0.16737488 0.379274 -0.07907077 0.36084104
000150 01 1c 8c 3e b5 ca 01 be ba f5 45 be 5b 8d ee bd
       0.27365115 -0.12674983 -0.19332018 -0.11648055
000160 aa 2c cd be d6 00 d7 3b 7e 7c 79 3d 18 f1 74 3e
       -0.40073138 0.006561379 0.06090974 0.23920095
000170 84 b8 99 bd d0 f2 6f 3e 56 ad c7 3d d5 ef eb be
       -0.07505897 0.2343247 0.09749858 -0.46081415
000180 8d c2 1f bc f1 b6 35 bd dc 8a 4a be 2a 81 11 3e
       -0.009750974 -0.04436392 -0.19779533 0.14209428
000190 6a 81 4d be 3c 97 a6 be 22 92 45 3c 28 b4 17 3e
       -0.20068899 -0.32537258 0.012058767 0.14814818
0001a0 af ab 9c bd 66 81 ba 3c 0e 53 d7 bd 27 58 a6 3b
       -0.076499335 0.02276678 -0.10513888 0.0050764265
0001b0 33 87 aa be 1b 7a 1d 3e 9c d9 50 3d fd f1 e8 3d
       -0.33306274 0.15378611 0.05098878 0.113742806
0001c0 ef 4d df bd ea 8e 93 be 01 e4 96 be c0 0e 91 bd
       -0.109035365 -0.28819972 -0.29470828 -0.070828915
0001d0 ef f8 35 bf 78 d5 c5 be f3 85 0d be 6e df 35 be
       -0.7108297 -0.38639426 -0.13820629 -0.17761013
0001e0 68 49 0a bd e2 8b 1c be 4c 18 8f 3d 2f 0b 48 3e
       -0.033761412 -0.15287736 0.06987056 0.19535516
0001f0 62 dd 36 bb de d0 3e be ec 35 08 bc 8e 17 52 be
       -0.002790295 -0.18634364 -0.008313637 -0.20516798
000200 e4 a9 14 bd a0 3c bf bd b8 10 10 bf 2b b8 75 bd
       -0.036294833 -0.09337735 -0.5627551 -0.05999009
000210 77 40 b2 3d ef 28 9b 3e a4 a9 d1 3e 41 b4 86 bd
       0.08703702 0.30304667 0.40949738 -0.065773495
000220 3d 68 12 be 67 95 06 3e 50 0e 48 be 66 95 24 3d
       -0.14297576 0.1314293 -0.1953671 0.04018154
000230 22 4b 84 bc 4a 86 46 3e 25 48 3c be 63 ef 06 3e
       -0.016149107 0.19387165 -0.18386896 0.13177256
000240 64 8a 99 3d c3 17 99 3e 87 6a 04 be 7a 38 4f 3e
       0.07497099 0.2990094 -0.12931262 0.20236388
000250 58 a2 fc 3e 82 00 cb 3d 0f 85 c7 3d d7 f5 ae 3d
       0.49342608 0.09912206 0.09742176 0.08542984
000260 f5 5a 07 3d 58 8d ee bd ed 59 0b be 32 78 e6 3e
       0.033045728 -0.11648053 -0.13608523 0.45013577
000270 fd 21 90 bd 62 41 3e 3e c1 ee 81 3e ca e5 73 be
       -0.07037733 0.18579629 0.25377467 -0.23818126
000280 16 e2 ab 3e 31 61 94 be 2f 27 01 bd 6f 3f 9b bd
       0.33570927 -0.289804 -0.03153151 -0.075804584
000290 80 d1 fa bd 95 4d 6d be d7 9d 9b be 86 9a 06 bf
       -0.1224699 -0.23174126 -0.3039386 -0.52579534
0002a0 46 51 84 be d0 2a e5 bd 58 f4 41 3e 78 5d 99 be
       -0.25843257 -0.111898065 0.18940866 -0.29954123
0002b0 88 d6 a1 3d da e8 ba bd 4b 06 e0 be f8 d7 e9 bd
       0.07902247 -0.09126444 -0.437548 -0.11418146
0002c0 1d f0 93 3e 66 4e 9c 3d 80 07 e3 bd b9 25 06 be
       0.2889413 0.07632141 -0.11085415 -0.13100328
0002d0 fd 65 19 3e bc 8e 9a bd 77 43 a7 bd 8c b2 17 be
       0.14980312 -0.07546756 -0.08167165 -0.14814204
0002e0 ea 1d 67 3d 7d 7c 10 bd d0 b3 f5 be 14 bd b3 bd
       0.056425013 -0.03527497 -0.4798875 -0.08776298
0002f0 3b cf fe be 2a 41 40 be 35 ba b1 bd 75 db 85 be
       -0.4976748 -0.18774858 -0.08678094 -0.26143995
000300 30 ee 6f be 3a 29 6c bd 01 97 51 be 53 f9 ad be
       -0.23430705 -0.057656504 -0.2046776 -0.33979282
000310 be 08 a9 bd eb 3c 11 bd 0c a7 fb bd 8a 87 b0 bd
       -0.082536206 -0.035458487 -0.12287721 -0.08619602
000320 57 2c 92 bc a4 77 76 3e 84 98 60 be 55 2d e0 bd
       -0.017843409 0.24069077 -0.2193318 -0.109461464
000330 c2 d4 e2 bc 30 65 c5 be e6 5d 5b 3e aa f5 15 3f
       -0.027689341 -0.38553762 0.21422538 0.5857798
000340 4f ce c4 3e e1 d0 ad 3e e5 e9 17 be 19 81 c8 3e
       0.3843865 0.33948424 -0.14835317 0.39160994
000350 94 26 3b 3d e7 0f 73 3e fc 3b 21 3d a1 c6 07 3e
       0.045691088 0.23736535 0.039363846 0.13259365
000360 88 dd 21 be 2d 2b 0b 3d 63 19 2a 3d 25 49 96 3e
       -0.15807164 0.033976723 0.041528117 0.2935268
000370 07 b6 6e 3e 56 58 c5 3e 59 07 1a 3f 12 dc ae be
       0.23311625 0.38543957 0.6016746 -0.34152275
000380 75 f9 ef bd 2b c7 b1 be 26 34 91 3d 1d 12 67 be
       -0.11717502 -0.34722266 0.07090025 -0.22565503
000390 8f 92 82 3e b2 bd 8f 3d b5 ac 98 3d de e7 84 be
       0.2550244 0.070186034 0.07454816 -0.2595815
0003a0 39 2c bd 3d a9 0f c9 bd 0f 9f a5 3e 29 5c e1 be
       0.092369504 -0.0981744 0.32347915 -0.44015625
0003b0 23 e7 6e 3e 35 f6 84 bd 18 f3 b2 bd 73 04 52 bd
       0.23330359 -0.06492273 -0.08737773 -0.051273774
0003c0 94 ce 91 3e 38 87 40 be da 4c 43 3e 85 7e e5 3d
       0.2847792 -0.18801582 0.19072285 0.11205772
0003d0 2e 04 c0 be 65 53 95 be e3 b8 9c 3d 32 08 b0 bd
       -0.3750319 -0.29165187 0.07652452 -0.08595313
0003e0 be 69 a8 3e be 33 01 be d2 1c d6 be f2 98 85 3d
       0.32893175 -0.12617394 -0.41818863 0.06523313
0003f0 5a df e1 be 45 ea 9f be ab 20 93 bd 02 98 97 be
       -0.44115716 -0.3123342 -0.07183965 -0.2960816

weight_hh_l0_reverse f4 [128, 32]
000000 00 cb 22 be 70 f0 f6 bd 06 4c 55 3c c0 55 e5 3c
       -0.15897751 -0.120575786 0.013018614 0.02799499
000010 53 96 2a be 6e 1e ac bd 17 d0 01 be 86 ed d2 bd
       -0.16658907 -0.084042415 -0.12677036 -0.1029921
000020 1c 5d 30 3e 24 e2 19 3e 09 c4 2b 3e bc f6 02 3e
       0.17223018 0.15027672 0.16774 0.12789434
000030 07 41 fb bd ad d2 91 3d 37 55 59 3d f2 d7 fe 3d
       -0.12268262 0.07120261 0.053059783 0.12443532
000040 ad 3f c5 bd 16 84 11 bd 21 a6 52 bd 8e ca b9 3d
       -0.09631286 -0.035526358 -0.051427964 0.09071837
000050 36 1a 8e 3c 7c b3 22 3d 2a 0d 94 bd 51 6f 1a 3e
       0.017346483 0.03972195 -0.07229073 0.15081526
000060 59 8d d8 bb 8e 9b 2e bd 80 5e ae bd 84 f7 0e 3d
       -0.006608647 -0.042628817 -0.08514118 0.034904018
000070 57 dc cc 3d 27 85 21 3d 8d 77 0a 3d db eb 80 bb
       0.10002964 0.039433625 0.03380542 -0.003934366
000080 0e 26 19 3e 29 58 7e 3c 48 f5 97 bd 81 b7 89 bc
       0.14955923 0.015523949 -0.074198306 -0.016811134
000090 3f 53 d1 3d 08 a8 24 be d6 d0 98 3d 2c 3c 06 3e
       0.10220956 -0.16079724 0.07461707 0.13108891
0000a0 59 71 f0 3d 02 dc 48 bd 83 d9 44 3d 1a f3 b5 3d
       0.11740369 -0.04903794 0.048058998 0.088842586
0000b0 b9 59 09 3d 7b 87 28 bd 63 d0 9e bc d8 87 27 3e
       0.03353283 -0.04114483 -0.019386476 0.16360414
0000c0 d6 ff 10 bc bf 8b 73 bd 02 6c 2b be 86 7c 66 3b
       -0.008850059 -0.059459444 -0.1674042 0.0035169437
0000d0 85 30 23 3e 5c d3 27 be db 92 32 3e 52 01 64 3d
       0.15936477 -0.16389221 0.17438833 0.05566532
0000e0 a3 dc ea bd 3b dc c4 3d 76 09 2c 3d fb 12 5f 3d
       -0.11467864 0.09612318 0.04200121 0.05446146
0000f0 74 f9 8b 3d 54 e9 0a 3e ed 30 b0 b9 06 b1 30 bd
       0.06834689 0.1356557 -0.00033605788 -0.043137573
000100 30 70 5b 3c b8 d8 22 bc b8 67 34 3e aa 42 9e 3d
       0.013393447 -0.009939365 0.1761769 0.07727559
000110 b1 29 ef 3d 19 c4 27 bd fd 94 09 ba 11 f1 9c 3d
       0.11677874 -0.040958498 -0.0005248336 0.07663167
000120 b5 6c 10 3e d8 3f c9 3c 5d fe de 3d 4f 25 d5 bb
       0.14103968 0.024566576 0.1088836 -0.0065046917
000130 60 e4 82 b9 b6 1e ab bd 18 7e 2b bd 9d bb 01 3d
       -0.00024965685 -0.08355467 -0.0418683 0.031673063
000140 b3 75 ea 3c 7e 51 c2 3b 23 5e d6 3d 44 07 e2 bd
       0.028620576 0.005930125 0.10467174 -0.11036542
000150 7a ec f1 bd 33 9a 88 3d 68 1d d3 bc f8 2d 01 3e
       -0.118126824 0.06670036 -0.025770858 0.12615192
000160 6a fe dd bd 37 f1 2f 3e 08 55 13 3d 8f 7a 12 be
       -0.10839541 0.1718186 0.035969764 -0.14304565
000170 7d d1 2c 3e 9d cb a6 3d 6b d7 21 be c0 19 51 3c
       0.16876788 0.08144305 -0.15804832 0.012762487
000180 47 8c 30 3d 38 80 aa 3d a3 7b 1d 3e 9a 38 26 be
       0.04310253 0.08325237 0.15379195 -0.1623253
000190 a5 57 81 bc 32 07 0a be b4 9b 2e 3e e6 2c 53 bd
       -0.015788862 -0.13479307 0.17051584 -0.05155649
0001a0 89 50 a6 3d 3c 7d 22 3c d1 48 c9 3d 03 78 6b 3d
       0.081208296 0.0099175535 0.09828342 0.0574875
0001b0 6b 37 6c bc c7 d4 cb bd 2e 4d 36 3d 99 ab 1d 3d
       -0.01441751 -0.099526934 0.044507198 0.038493726
0001c0 3e 9d e3 3d d3 37 1a be 08 65 6f bd 77 43 ce bc
       0.11113976 -0.15060358 -0.05844596 -0.025178654
0001d0 d5 33 a1 bd 2f 9d 4d 3d 45 10 16 bd 1d 1a 0a be
       -0.07871214 0.05019873 -0.03663661 -0.13486524
0001e0 09 63 04 3e c6 e2 05 be 8e cc 74 3d 91 c2 9b 3d
       0.12928404 -0.13074788 0.05976539 0.0760547
0001f0 15 98 06 be 7d 08 95 3d 64 7f 7c bd e9 45 c7 bd
       -0.13143952 0.0727701 -0.061644927 -0.09730131
000200 1f 8a a1 3d b3 25 fa 3d 4c 36 0a 3e 0f df ce 3d
       0.07887673 0.12214222 0.13497275 0.10101139
000210 a1 2c 2e be 72 ae 89 3c 93 d8 13 be fc 28 b6 bb
       -0.17009212 0.016806815 -0.14438085 -0.005559085
000220 27 06 c2 3d 34 6f 2f 3e 12 d0 38 3c 29 32 10 3e
       0.0947383 0.17132264 0.011280077 0.14081635
000230 8a ae c7 bd af 6a 08 be 77 59 e2 3d 1a 99 86 bd
       -0.097500876 -0.13321947 0.1105222 -0.065721706
000240 5f 66 ba bd c9 b4 05 3d 7e 2d 4f 3d e1 8b e9 3d
       -0.09101557 0.032643113 0.050580494 0.11403633
000250 09 44 03 3e 30 81 18 3e 16 2d a9 bd f8 2f 00 be
       0.12818922 0.14893031 -0.082605526 -0.12518299
000260 30 a9 2e 3c ad c9 7d bd b3 1b 0e 3e 56 93 1c 3e
       0.010660455 -0.06195991 0.13877754 0.15290579
000270 50 05 a0 3d e9 79 e7 3d d6 1f f9 3d c9 e5 2f be
       0.07813513 0.113025494 0.12164275 -0.171775
000280 58 2c b2 bd d2 c5 d3 bd 7f 01 25 3e 3b 5e 16 bd
       -0.08699864 -0.103404656 0.16113852 -0.03671096
000290 46 63 16 be 62 0c d1 3d 21 20 4e 3d 27 6d 33 be
       -0.14686307 0.1020744 0.05032361 -0.17522107
0002a0 b3 59 c4 bc 87 7c b9 bd 96 d4 d0 3c 4b ad 00 be
       -0.023968553 -0.09056955 0.025491994 -0.12566106
0002b0 69 05 1a be af 04 f4 3c 69 7f 35 bd 8e 08 1d be
       -0.15041126 0.02978739 -0.04431096 -0.15335295
0002c0 92 5b 91 bd 50 b2 01 be 20 02 b6 3d 28 29 54 bd
       -0.07097544 -0.12665677 0.08887124 -0.051797062
0002d0 b4 7f 1f 3d ad 49 49 3d 1f 82 2c 3e 8b c7 10 3e
       0.038940147 0.04914253 0.16846512 0.1413862
0002e0 dc 0e 7f bc 90 6f 0e 3e db 68 34 3c f6 8d 01 3c
       -0.015567508 0.13909745 0.011011328 0.007907381
0002f0 90 aa 4f 3d dc 67 2e 3e d5 a3 0a 3e a2 c6 30 be
       0.05069977 0.17031807 0.1353906 -0.17263272
000300 d4 66 2f bd e7 44 07 be 4a 03 f9 bd c5 33 fd 3a
       -0.042822674 -0.13209878 -0.121588305 0.0019317797
000310 8c 10 12 be 74 c2 d7 bd 42 79 15 3e db 08 ba 3d
       -0.14264125 -0.10535136 0.14597037 0.0908372
000320 c7 a3 cb 3d bf 71 b9 bd a9 85 a1 bd 69 b2 f4 3d
       0.099433474 -0.090548985 -0.07886822 0.119480915
000330 50 28 01 bc 50 38 89 3d 43 5c f9 bd 9e cf 84 bd
       -0.007883146 0.06700194 -0.12175801 -0.06484912
000340 8a 75 0f be b6 8e 59 bd 2a 4f b9 bd 91 b2 13 3d
       -0.14009681 -0.053114615 -0.090483025 0.036058966
000350 2d 15 23 3d f2 57 89 3d e9 54 d8 3d 3e 2e 2c be
       0.039815117 0.06706227 0.1056307 -0.16814515
000360 ad 6b 10 be bf 47 a7 bd d9 2d 68 3d 09 62 b7 3d
       -0.14103575 -0.08167981 0.05668435 0.089542456
000370 48 38 3d 3d 4a e3 18 3d 29 ab ec bc ca d0 ef 3d
       0.046196252 0.037326135 -0.02889021 0.11709745
000380 1e 34 c1 bd 35 27 1a 3e ad 9b 97 bc e8 dd 7f 3d
       -0.09433769 0.15054019 -0.01850685 0.062467486
000390 6d d3 93 bd c7 f9 34 3e 66 20 34 3e cf e3 d7 3d
       -0.07218061 0.17673407 0.17590484 0.10541498
0003a0 5c a6 e1 bd f3 93 2f ba 30 3c 12 be 22 64 6e bd
       -0.11018059 -0.00066977664 -0.14280772 -0.058200963
0003b0 60 a7 14 3e 8d 25 d9 bd 3e d0 f4 3d 9f 89 20 3e
       0.14516973 -0.10602865 0.119537815 0.15677498
0003c0 60 12 11 3d d4 46 2b be 74 1c 03 be b1 52 d4 bd
       0.035417914 -0.16726238 -0.12803823 -0.10367335
0003d0 a2 9c 2c 3e b2 5f 20 be 9b bd 00 bd a7 d4 8f 3d
       0.16856626 -0.15661505 -0.031430822 0.07022982
0003e0 37 71 e1 bd a1 f0 13 be 1e 08 16 be 74 bd 9d bc
       -0.11007922 -0.14447261 -0.14651534 -0.019255377
0003f0 cb 42 b0 bd 81 02 f3 bd 9c a9 43 bd 3a e2 64 3d
       -0.0860649 -0.11865712 -0.047769174 0.05587981

bias_ih_l0_reverse f4 [128]
000000 6b 5d 9e be dc b2 7e 3d 21 d0 8c bd 92 5b eb bd
       -0.30930647 0.062182292 -0.06875635 -0.11492075
000010 cc 6f a7 bd aa f0 9f be c5 21 89 bd 79 ae ac be
       -0.081756204 -0.312383 -0.06695894 -0.33726862
000020 c1 84 8c be 69 cc b6 3c fa 01 af be 08 f6 ff be
       -0.27445033 0.022314267 -0.34181195 -0.49992394
000030 e6 23 29 be 87 f7 ad be 8d a2 33 be c8 6e 9c be
       -0.165176 -0.3397791 -0.17542477 -0.3055327
000040 21 bd 9b 3d 81 44 a0 be 48 70 38 3d 96 94 a4 be
       0.07604433 -0.31302264 0.045028955 -0.32144612
000050 98 9f e7 bd b8 28 25 bd 7a ea 23 be c8 20 41 be
       -0.11309737 -0.040322036 -0.16007414 -0.18860161
000060 9f 30 b0 bd d9 e3 ec be 61 d8 7c bb 50 90 cd bd
       -0.08603024 -0.46267584 -0.003858112 -0.10037291
000070 77 bf 49 be 22 f0 0e bf c2 8f bd be 1a de 78 be
       -0.19701944 -0.55835164 -0.3702374 -0.24303475
000080 da 3a 23 be 32 04 f7 3d 08 a9 33 3e b9 ce c7 3d
       -0.15940419 0.12061347 0.17544949 0.09756226
000090 3a 13 26 be d7 b8 0b bd 03 d9 ff bd 00 5d 21 3c
       -0.16218272 -0.034111824 -0.124925636 0.009848833
0000a0 4e c2 24 3e 7f 87 81 3d 9c 93 bd 3c d2 f9 d0 3d
       0.16089746 0.06324672 0.023141675 0.102038994
0000b0 24 f3 a3 3d 04 01 c4 bd a6 c4 0b 3e 39 f5 f4 bd
       0.0800536 -0.09570506 0.13649234 -0.11960835
0000c0 e8 ff 87 bd 68 89 f5 3d d1 09 90 bd 94 14 90 3d
       -0.06640607 0.11989099 -0.07033122 0.07035175
0000d0 36 4f 06 be 0a 44 88 bd 56 03 a4 bd e9 1d a8 bd
       -0.13116154 -0.066536024 -0.08008449 -0.0820883
0000e0 a2 26 90 bd 72 21 0d be 41 70 13 be 32 02 4d bd
       -0.070386186 -0.1378229 -0.1439829 -0.05005092
0000f0 fa 33 c5 bd c3 82 76 bd db cf 2f be bb 23 5b bd
       -0.09629054 -0.060183298 -0.17169134 -0.053500872
000100 e0 fa 17 bb c6 9b ba bc f6 a3 f1 3d fd 96 db bc
       -0.0023190305 -0.022779357 0.11798851 -0.026805395
000110 17 8e 73 3d 87 ff 27 be ac ad e1 bd bb 17 81 3d
       0.05946168 -0.1640607 -0.110194534 0.06303354
000120 1d f3 be bc 20 81 6e be 33 60 1c 3e 96 f1 a6 bd
       -0.023309285 -0.23291445 0.15271072 -0.081515476
000130 df 7f fb bd 0c 3e fc 3d f3 fb 01 bd 18 9d c7 bc
       -0.12280249 0.12316522 -0.031734418 -0.0243669
000140 ef ad ba bd ed be c6 39 c5 39 23 be 00 c7 b8 3c
       -0.091152065 0.00037907754 -0.15940006 0.022555828
000150 59 d1 2e bc 15 7a 25 3d 00 2d 19 be 23 00 9c 3d
       -0.01067003 0.04039963 -0.14958572 0.076172136
000160 51 ff 22 be 63 5c 26 3e f7 f5 43 be 8d 34 2a 3d
       -0.15917708 0.1624618 -0.19136797 0.041554023
000170 69 70 18 be de c6 fb bd aa 75 7a 3e 71 b3 5f bd
       -0.14886631 -0.1229379 0.24458948 -0.054614488
000180 53 34 cb be 26 5b 2b be 48 56 aa 3d 16 9a 78 be
       -0.39688358 -0.16733989 0.08317238 -0.24277529
000190 8f ce 97 be 7e f3 f7 be ed 94 1b be 52 67 09 be
       -0.2964978 -0.48427957 -0.1519353 -0.1341832
0001a0 fc 9f 8f bd 0e a9 09 be 99 3d 3e 3c 3f 13 b3 be
       -0.070129365 -0.13443395 0.011611366 -0.3497562
0001b0 07 40 94 be ac ae 96 be 4f fa ef bd 5e d2 c6 be
       -0.289551 -0.2943014 -0.117176645 -0.38832372
0001c0 28 7b 1b bc 96 0b 80 be c8 e8 0b 3d f7 68 3b be
       -0.009489812 -0.2500884 0.034157544 -0.1830176
0001d0 cc bc b5 be f7 af 92 3d 0c 71 c6 bd d7 4e 6e be
       -0.35495603 0.07162469 -0.09689531 -0.23272263
0001e0 78 c0 f4 bd 28 14 d6 be 5d f4 81 3c 40 2c 91 3d
       -0.11950773 -0.41812253 0.015863592 0.07088518
0001f0 4a 4c ec bd 69 bf 35 bf 0f 13 d2 be d5 73 85 be
       -0.115379885 -0.70995194 -0.41030166 -0.26064935

bias_hh_l0_reverse f4 [128]
000000 cb 53 09 bf 0b d9 31 be 95 df 05 be 23 7d a6 be
       -0.5364348 -0.17367952 -0.13073571 -0.32517347
000010 1e e5 55 be 92 0a cc be 4d 53 d1 bc 19 ad d0 bd
       -0.20888183 -0.39851815 -0.025552416 -0.10189266
000020 98 c0 27 bd 02 b2 84 bd e8 44 eb bd b4 7a 58 be
       -0.040955156 -0.06479265 -0.11487752 -0.21140558
000030 3a 11 87 be 81 e5 72 be 09 a1 66 3d 3f 8c 71 be
       -0.2638033 -0.23720361 0.05630592 -0.23588656
000040 7d 04 25 be 60 20 82 be 27 46 b1 3e 86 2d c2 bd
       -0.16114993 -0.25415325 0.34623834 -0.09481339
000050 87 b5 af be 38 a2 07 be bb 5d aa be 64 16 04 be
       -0.34318182 -0.13245475 -0.33274636 -0.12899166
000060 2b be 0a be 24 33 5e be c9 0f df 3d 98 7d 16 3e
       -0.13549106 -0.21699196 0.10891683 0.14696348
000070 3b 58 0d be 10 39 18 bf 90 35 80 be 95 41 62 be
       -0.13803189 -0.5946207 -0.25040865 -0.2209533
000080 3c 88 00 be b9 69 ec bd 49 a0 21 be 20 3b 34 3e
       -0.1255197 -0.115436025 -0.157838 0.1760068
000090 4d 95 04 3e e2 52 c6 bd 4e 93 a9 bd a5 fe 96 bd
       0.12947579 -0.096837774 -0.08280049 -0.07372788
0000a0 53 d1 a4 bd f4 93 9b 3d ec 2e ff bd 3c df 33 3e
       -0.08047738 0.07596579 -0.124601215 0.17565626
0000b0 b7 31 03 be 35 c9 69 bd 08 7f 8e 3d c6 07 28 3e
       -0.12811933 -0.05707665 0.06957823 0.16409215
0000c0 ae 65 d9 3c 78 72 1f 3e f4 c5 d7 bd 95 ea af bd
       0.026537742 0.1557101 -0.105358034 -0.08589665
0000d0 c4 17 f6 3c 06 0c 0a be c6 af c3 bd 54 21 c7 bd
       0.03004063 -0.13481149 -0.095550105 -0.09723154
0000e0 81 ab cf 3d 00 17 42 bd 3d f3 1d 3d 71 3d 8b 3d
       0.10140134 -0.047385216 0.03856205 0.067988284
0000f0 1e a0 4e bd 4e 44 0a 3e 83 2e 0b 3e db 76 9f bd
       -0.05044567 0.13502619 0.13591962 -0.07786342
000100 7a 20 a5 bd 0f 9d a5 bd 35 8c 9d bd cd 03 22 3e
       -0.08062835 -0.08086597 -0.07692758 0.15821762
000110 5b b8 f2 3d 78 ae 21 3e 39 1d bd 3c 8c b3 07 be
       0.11851569 0.15789211 0.023085224 -0.13252085
000120 a2 2d a4 bd 2b 65 5e 3d 7c 9a 37 bd 0e 08 45 be
       -0.08016516 0.0542957 -0.044825062 -0.19241354
000130 b7 fd b5 bd 7f bc 0d be 26 c0 5a 3e e1 73 95 3e
       -0.08886283 -0.13841437 0.21362361 0.2918997
000140 67 a8 28 3e 32 43 87 3d 9c 2c d4 bc b6 65 35 3d
       0.1647049 0.06604613 -0.025900178 0.044286452
000150 55 0c 4d 3d f7 8e 45 be a8 12 12 3e ca b9 6c be
       0.05006059 -0.19292818 0.1426493 -0.23117748
000160 2c bf 24 bd a1 17 91 bd 33 47 05 3d 18 48 44 be
       -0.04022138 -0.07084585 0.032538604 -0.19168127
000170 bd 3d fc 3d 51 ee 53 3e 25 5e 1d bd a4 81 b5 3d
       0.12316463 0.20696379 -0.03841986 0.088626176
000180 46 84 0c bf 4d aa 82 be 2f 64 b4 bd 81 4d 93 be
       -0.54889333 -0.25520554 -0.08808171 -0.28770068
000190 1a dc 85 be 0f 06 b1 be 7f d8 91 bd 20 af 05 be
       -0.26144487 -0.34574935 -0.071213715 -0.13055086
0001a0 fd 1d 22 be be 65 1e be 4c db 16 be 85 a8 a2 be
       -0.15831752 -0.15468499 -0.14732093 -0.31769195
0001b0 5b ab 5f be cf da 7e be a4 5f 0a be 09 7a 26 be
       -0.2184271 -0.24888156 -0.13513047 -0.1625749
0001c0 90 24 a3 3d 4b dc 01 bf 5d 67 df 3b a3 c8 17 be
       0.07965958 -0.50726765 0.006817742 -0.1482263
0001d0 ea 14 98 be b6 65 0a 3e 25 83 be be c9 37 7a be
       -0.29703456 0.13515362 -0.3720943 -0.24435343
0001e0 41 81 68 be c3 7f 58 be 35 5e f7 3d 59 f1 36 3e
       -0.22705556 -0.21142487 0.120785154 0.17865504
0001f0 f0 00 04 be 24 39 36 bf 88 d6 c5 be 3d f1 13 be
       -0.12890983 -0.7118094 -0.38640237 -0.14447494
