CNN_LSTM_model_weight/sCNNLSTM_FL_epoch60_peak_data.pt (torch, 76004 bytes, 12 tensors)

weight f4 [32, 1, 5]
00000000: a8be 8d3e 531c 113e 9abd e0be 759f d73d
00000010: b98d 8cbe 3bb3 65bf d38e 47bf afee ffbe
00000020: dab4 9cbe a64a c13d cc66 e93d c27a adbe
00000030: c534 b63e f7fd b7bd 89bb d23d f125 93bd
00000040: adca 3f3d 9d57 2ebd 1430 afbc 2ac7 bbbe
00000050: 70e5 edbe 3884 5f3d c047 683e 5407 443e
00000060: 5e83 2db8 2d15 27bc a14d ebbe ed68 273c
00000070: 2f77 d73a 56af b83e 02df 39bf c37b 64bf
00000080: 1065 50bf 2925 803e ddea 18be 5f88 323e
00000090: 45c9 f53d 2303 013e 2ecc 9cbe 297c 1b3e
000000a0: 2b09 af3d 10da 0fbf d265 12bf 07ff dabe
000000b0: 870f 143e 7b7d 8abf de54 28bf 2686 4cbf
000000c0: 63ee d1be 98f1 f73d f1d4 833e acf1 a1be
000000d0: e304 0ebd 006f 663e 0aeb 413d 8ab6 6a3e
000000e0: e1c9 103d d3a2 293d 2f0c 3fbe c5d2 6e3e
000000f0: a75e 523e b2f2 e8be abc4 dbbe c1a5 01bf
00000100: 9741 a4be 0823 96bf b9e3 03bf 1175 32bf
00000110: 098f 3bbf a1d4 223e 83e3 9c3d 9382 8e3e
00000120: 5f3b aebc 66a9 603e a670 223e 05d9 b53e
00000130: 93da 5ebd 586a 083e 6528 2c3e 1173 b7be
00000140: 677e a0bf 24a8 94bf 5789 29bf f82d 31bf
00000150: 6279 193e eda0 973e e414 fe3d 35c2 323e
00000160: c5b1 9bba a208 fd3d f819 1b3f 81d5 ae3d
00000170: 9159 913e 940a c2bc 2b3d 78be 1dab 2ebf
00000180: bb37 44bf 2cad 8fbe 4b9d 1a3e bf9e 043e
00000190: 8091 2d3e 584e f5be df34 20be 39b7 05bd
000001a0: bc4b 813e 4a22 78be 8939 103c 9f63 cb3e
000001b0: 33c7 48be a4cc 36bc c6dd 803e 1432 183f
000001c0: b877 aa3d 8bb5 f6bd dde3 a3bc 9c46 863e
000001d0: 1f13 89bd 622a 9a3e 1792 9dbc ca1b 5dbe
000001e0: 92d3 bebe e5fd 32be 4536 a5be 302a 17be
000001f0: fc04 1ebd 9810 b63d 797b 48be bcfe efbe
00000200: 4f3b 743e 2326 80be 995e 0b3e a4e8 54bf
00000210: 6af6 f0be f177 0cbf 180d 693d 843d 3dbf
00000220: 8736 8cbe 92a5 21bf e181 ebbe 763f 8b3d
00000230: d5c9 07bf f3cf e6be cd8d d83d 7645 4b3e
00000240: f038 763e d354 5e3e fe91 e2be bb20 86be
00000250: fbb7 913e b1e5 793e 4bb4 883c 2ecf 313f
00000260: a629 983c 16e5 58bc acb2 21be c960 3bbe
00000270: a019 88be c882 bfbd 80a4 963d f0ac a6bc
0.27684522 0.14170961 -0.43894655 0.10528461 -0.27451876 -0.8972661 -0.7795231 -0.4998679
-0.3060673 0.09438066 0.1139656 -0.3388272 0.35587135 -0.08983987 0.10289676 -0.07184971
0.046824146 -0.042564023 -0.02138523 -0.36675388 -0.4646411 0.054569453 0.2268362 0.1914342
-4.136876e-05 -0.01019792 -0.45957664 0.010217887 0.0016438718 0.3607127 -0.7260591 -0.89251345
-0.8140421 0.2502835 -0.14933343 0.17434834 0.1200128 0.12598853 -0.30624527 0.15184082
0.085466705 -0.5619211 -0.57186615 -0.42772695 0.14459048 -1.0819544 -0.657545 -0.79892194
-0.41002187 0.12106627 0.257484 -0.31629694 -0.03467263 0.2250328 0.04734329 0.22921196
0.035348777 0.041415047 -0.18656991 0.2332259 0.2054392 -0.45497662 -0.42923483 -0.50643545
-0.3208129 -1.1729441 -0.5151935 -0.6970988 -0.7326513 0.15901424 0.07660582 0.27833995
-0.021268545 0.2193962 0.15863284 0.35517135 -0.054407667 0.13321817 0.16812284 -0.35829976
-1.2538575 -1.1613812 -0.6622519 -0.6921077 0.1498771 0.29614964 0.12406328 0.17456897
-0.0011878541 0.12355162 0.605865 0.085368164 0.28388646 -0.023686685 -0.24242084 -0.6822985
-0.7664754 -0.28061807 0.15099065 0.12951182 0.16950035 -0.47911334 -0.15645169 -0.032645438
0.25253093 -0.2423183 0.00880278 0.39724442 -0.19607238 -0.011157189 0.251692 0.59451413
0.08323616 -0.12046345 -0.020006115 0.26225746 -0.066931 0.3011046 -0.0192347 -0.21592632
-0.3727079 -0.17479666 -0.32267967 -0.14762187 -0.038578972 0.08889884 -0.19578351 -0.46874034
0.2385075 -0.25029096 0.13610305 -0.8316748 -0.47063 -0.54870516 0.056897253 -0.7392199
-0.2738535 -0.63143265 -0.45997527 0.067992136 -0.53042346 -0.45080528 0.10573921 0.19850716
0.24045157 0.21712045 -0.44252008 -0.26196846 0.28460678 0.24404027 0.016687533 0.69456756
0.018574547 -0.013238212 -0.15790814 -0.1829864 -0.2658205 -0.093511164 0.07355595 -0.020346135

bias f4 [32]
00000000: ca1c 41be c36e dcbe 9195 cdbe 0686 a5be
00000010: 68cc b4be a859 1cbf 55ab 2dbf ab22 40bf
00000020: 5fbb a83c 24d5 efbe affc 6abf 6670 7ebf
00000030: 5280 f93e 1cd3 5bbf b691 83bb 22c8 c43d
00000040: a9ea 44bf 8271 693e 8f6c 1e3f 2659 a3be
00000050: 82c6 4bbf bee8 e53e 6851 4c3e 2b7f 1a3f
00000060: 54fc 82be 4f08 01bf bdfa 33bf a760 9ebe
00000070: d53a 84be 21fd 32bf f8f1 b73d a1ea c0be
-0.18858638 -0.43053254 -0.40153173 -0.32328814 -0.353122 -0.61074305 -0.67839557 -0.750529
0.020597158 -0.468423 -0.91791815 -0.99390256 0.48730713 -0.85869 -0.004015173 0.09608485
-0.76920563 0.22797206 0.618844 -0.31903952 -0.79599774 0.4490413 0.19952929 0.6035029
-0.25583136 -0.504033 -0.7030447 -0.30933115 -0.25826135 -0.69917494 0.08981699 -0.37679008

weight_ih_l0 f4 [128, 32]
00000000: d227 753d 8171 cebc cb29 12be fe55 ac39
00000010: 0c09 653c 09e5 0d3e 3bc8 b63b b6c0 2ebe
00000020: ae79 2fbd 33b9 853d 4f5b 1e3e cd29 a5bd
00000030: 41b7 30bd 6adb 2bbe 23f3 0d3d 1196 a3bd
00000040: 85a7 7dbd d2bc bebd f82e 7d3e 8953 08be
00000050: 7aaa 59bd 330a 393e 840c 2dbd 47e6 b23e
00000060: e696 5b3d 3155 e6bd 3466 1d3c 7e3a fabd
00000070: d3b6 cabd e260 ff3d 1fe9 803e a364 313b
00000080: f93e 18be 9870 be3c 81b8 5abd dc7e adbd
00000090: 9cb8 9dbd 42df 4cbe c91e 09be 1d98 753c
000000a0: 2b88 ae3d 28e4 8d3d 5697 58be 40e0 1cbe
000000b0: 4191 e1bd 6148 7d3d 09b7 52be ee1e 13be
000000c0: 07bd 0bbe edf6 e83b c46a 1f3e d929 dd3c
000000d0: 076b 8dbe 3359 e23d e103 e43c 039a cc3d
000000e0: 574a 38bc 8c16 843d 44b3 33bd 43c0 14bd
000000f0: dd57 f8bd 97b6 06be 4bfc a63d 4556 20be
00000100: 52dc 5e3d d8cd 0b3d 1073 08bd 0957 ba3d
00000110: e08f 7fbd bf0b 90bd f4ec c3bd 056e 413d
00000120: 1994 07be 9144 493c f15b 0abd cdf6 5f3e
00000130: 9067 423e 4038 30bd 7637 20be b2c4 063c
00000140: 59fb 233c dd4e b73d 3e87 d93d 8925 be3d
00000150: abfe fe3d bf4e 573e b23d 2f3e 6cfe 9e3e
00000160: df06 0ebe 6659 00be de03 3ebc 1f47 f2bd
00000170: 61eb d93d c0e1 e3bd 9cbe 713d b35d c2bd
00000180: 9755 013e ed58 8ebb e95d ad3c af44 bb3d
00000190: eec1 3f3e a7c5 f63d ad43 343d f9a6 0e3e
000001a0: 2e12 b53c 0d6a 57bc bd9e 8d3c b522 bb3d
000001b0: 670a 06bf aa85 0d3e 9ce9 763e db47 9e3e
000001c0: d52f fe3c 3244 bb3e 0ebf 533e 8bac 533d
000001d0: e9b4 953d 8497 233e 2ed2 703e 3b31 933e
000001e0: b348 f83d df72 d73c c273 fdbb 74c4 ef3d
000001f0: 70c1 9e3d 4bc8 1abd 46d4 0f3f 97c2 cebc
00000200: c88f 0ebe 4085 013e 0c83 813d 178d cdbd
00000210: 6027 903c cf9a 023e de2f 503e 4a2f 483e
00000220: 8740 293e 571c 523d a378 9bbd 6239 20bd
00000230: 0aac 55be dd85 143e 253c 8d3d cf0e e5bd
00000240: 434f 9fbd a1fe 7d3c b298 e8bc e6ca e23d
00000250: 7bc2 2c3e 87ba 7d3e 08cf 1cbe e4aa 463e
00000260: 0761 0d3e 1f7e dc3b b783 03be 34fc 043e
00000270: 7d61 043e 6605 233b 6f4d 09bd 365f 5cbd
00000280: e4c2 a73d 40ab 3e3e 46fd 203e 1dfa 273e
00000290: e267 2f3d 62e0 1a3e 7b7d 953c a105 48bd
000002a0: a8f4 6ebc b797 2c3e d697 8b3d b8bc 0fbe
000002b0: 7420 503b fc2e bebd e51e 773c b563 d13d
000002c0: 1818 873d 7d8d 983d a965 f4bd 63ff 743d
000002d0: 7559 7e3d a8f9 88bd 23b7 c3bd a93b 8bbd
000002e0: 2550 c83d a820 99bd e176 2f3e 33c2 153e
000002f0: 66af 10bd 3a56 033e dc99 1bbe 3f83 0a3e
00000300: 292e f23d ec40 9a3d 5c77 11bd 09e2 eebd
00000310: 216e 33be 0b81 44be f63c edbd 942d 09be
00000320: cf20 11be 207f 05be 83d0 2abd 962d cc3d
00000330: 83c8 d13d f233 513d 1570 32bd 4fff ffbc
00000340: 0530 63bd c560 dd3c 356a 243e 7461 72ba
00000350: b506 123e 7480 943d 42cf 093e 2b70 7c3e
00000360: 6624 b43d 1fab dfbc 38fd 74be 7227 abbd
00000370: 0874 96bd 2479 87bd 4dd8 823d 0740 6bbe
00000380: 2292 313e 5d02 efbd cc11 403e b2f2 213e
00000390: bed6 18bd 352e ad3d 09b6 dabd eb90 2a3e
000003a0: e332 25be 9ebf 1cbe ff0a f53d ee58 91bd
000003b0: cc63 46bc d41f 893e e1b8 f8bd a993 a2bd
000003c0: f5b9 103e 71d9 c93c e271 4b3e 526e 8e3b
000003d0: 93c2 76bc db4d d93d 5e92 0e3e aba2 173e
000003e0: fb7a 05be fc25 cb3d 4b46 ce3b 0a0b 193e
000003f0: 75cd 22be 3710 043d efb6 5b3e 9817 a53d
0.05985243 -0.025200607 -0.14273755 0.00032870466 0.013979208 0.13856901 0.0055780686 -0.17065701
-0.042840652 0.065294646 0.15464519 -0.080646135 -0.043143515 -0.16782919 0.0346557 -0.07987607
-0.061927337 -0.09313358 0.24724948 -0.13313116 -0.053141095 0.18070297 -0.042248264 0.34941313
0.053610705 -0.11246718 0.009606887 -0.12218188 -0.09898152 0.12469651 0.25177857 0.002706804
-0.14867772 0.023247048 -0.053398613 -0.08471462 -0.07701227 -0.20007041 -0.1339065 0.01498988
0.08522066 0.06928283 -0.2115148 -0.1531992 -0.11014033 0.061836604 -0.20577635 -0.14367267
-0.13646327 0.007109514 0.15568072 0.026997494 -0.27620718 0.1105217 0.02783388 0.09990313
-0.011248193 0.06449613 -0.043872133 -0.036316168 -0.121261336 -0.1315559 0.0815359 -0.15657909
0.054409333 0.034131855 -0.033312857 0.09098632 -0.06239307 -0.070334904 -0.095666796 0.047224063
-0.13240089 0.012284414 -0.03377909 0.21871491 0.18984818 -0.043022394 -0.15646157 0.008225607
0.010008656 0.08950589 0.106214985 0.09284503 0.12450918 0.21026133 0.17113379 0.31053483
-0.13869809 -0.12534103 -0.011597602 -0.118299715 0.10640598 -0.11127043 0.05901967 -0.09490528
0.12630306 -0.004344097 0.021162944 0.0914396 0.18726322 0.12049418 0.044009853 0.13930883
0.022103395 -0.013147843 0.017287606 0.09137479 -0.5235962 0.1382052 0.24112552 0.30914196
0.031028667 0.36575466 0.2067835 0.05167822 0.073098965 0.15975767 0.23517677 0.28748497
0.12123241 0.026299892 -0.0077347467 0.11707392 0.07751739 -0.03778867 0.5618328 -0.025239272
-0.13922036 0.12648487 0.06323823 -0.100366764 0.0175969 0.12754367 0.2033076 0.1954929
0.16528521 0.05129656 -0.07591369 -0.039117225 -0.20866409 0.1450419 0.06896237 -0.11184465
-0.0777879 0.015502603 -0.028393123 0.11073856 0.16871063 0.24778186 -0.15313351 0.19401127
0.13806544 0.006728902 -0.12843214 0.12986833 0.12927814 0.0024875044 -0.033521112 -0.053801738
0.08191469 0.18620014 0.15721616 0.16404004 0.04282368 0.15124658 0.01824831 -0.048833493
-0.014584698 0.1685475 0.0681607 -0.14036834 0.0031757625 -0.09286305 0.015083049 0.10224096
0.065963924 0.07448862 -0.11933453 0.05981387 0.06209703 -0.06688243 -0.09556415 -0.06798489
0.09780911 -0.07476932 0.17135192 0.14624862 -0.035323523 0.12825862 -0.15195411 0.13526629
0.118252106 0.07531914 -0.03551422 -0.116642065 -0.1752248 -0.19189851 -0.11583893 -0.13396293
-0.14172672 -0.13036776 -0.04170276 0.09969632 0.10243323 0.05107493 -0.04356392 -0.03124967
-0.055465717 0.027023682 0.1605614 -0.0009246089 0.14260371 0.07251063 0.13457969 0.24652164
0.08796005 -0.027303277 -0.2392472 -0.08357133 -0.0734635 -0.066149026 0.06388912 -0.22973643
0.17340901 -0.11670373 0.18756789 0.15815237 -0.03731417 0.08456079 -0.10679252 0.16656844
-0.16132693 -0.15307471 0.11964988 -0.0709704 -0.012108754 0.26782095 -0.12144638 -0.0793832
0.14133437 0.024639817 0.19867662 0.0043466473 -0.015061039 0.10610553 0.13923022 0.14808147
-0.13035195 0.09919354 0.0062950007 0.14945617 -0.15898688 0.032242026 0.21456502 0.08061141

weight_hh_l0 f4 [128, 32]
00000000: b8ea 193e 2c65 4b3e 70c8 263e ccfc a73c
00000010: f22d 203c 082e 033e 6ae1 da3d c388 543d
00000020: 8864 533e 7836 233d 2a3a 6b3e fa28 383e
00000030: d29d 14be 837d cdbd e4de 933d 8edb ee3a
00000040: aec9 63bd 6a0c e1bc e1c7 ac3d afa2 403d
00000050: c3f3 2e3e f257 0bbc 4081 c23c 6dd3 be3d
00000060: 798c fbbc 1f44 d2bd 8846 5f3d c6e7 cbbd
00000070: b517 e23c 8ee7 a3be 94ab f0bd efb6 353e
00000080: 20b7 503e 7ab3 a83d 2cec e83d fbea 43be
00000090: 93cc e33d 0e30 17bd 7131 0e3e bac1 463e
000000a0: 6b23 113e c6d8 5bbe 53d1 a7bd 4af8 12be
000000b0: 0b12 523d 8f0e be3c cd4d 06be 7ca6 283e
000000c0: 7adb 4cbe a6bc d9bd c232 27bc c80e 91be
000000d0: f880 a7bd ea81 1e3e eb13 5b3d ae3a 153e
000000e0: 0a68 33be c6ed 9fbd 5356 8e3d ca2a 4dbe
000000f0: 0d9e d53b 6602 a1be e866 b43d 1aaa 683c
00000100: 2f13 0b3e 6da8 a33e c08e 553e 065b 973e
00000110: 6bb3 153d df9a a33d 1fc0 963d d9e2 4e3d
00000120: 9226 913e 0ae9 50be 79de 973e 6018 673e
00000130: 1f76 d1bd 53ec 00be 0a33 e6bd 7b7d a0bd
00000140: e72e 9abd 4cb6 bf3c 0c8a 9fbe feb9 00be
00000150: da17 563e 1c96 a33e 20d2 e43b 35ce a33e
00000160: 0773 5c3d f5bf a93c ed0f d53d 2769 acbd
00000170: 5980 723e b3f8 84be c470 44bd 35df 093e
00000180: ce96 183e 26d3 c8bd 1783 313d ba0c 123e
00000190: 59da 33be f14f f83c 80b6 b6bd e9e3 eebd
000001a0: 3810 863d 2e9b 12be 605e ec3d 2a46 5fbc
000001b0: 70e7 5dbc 3352 c0bd 40bb e1bd 4da1 973c
000001c0: dd18 06be eada 963c db12 44be 7abe c73d
000001d0: 4a11 c13b 5cca a83d 3430 c9bc b1f9 2b3e
000001e0: 606c ca3c 3411 4ebe 6f09 53be b393 2f3c
000001f0: a605 db3d 0475 94be 2128 9dbc 627d 5e3e
00000200: 2500 c53d f340 e0bc 9f04 193e 723b c1bc
00000210: d5d5 f9bd d560 223c b09a a13e a13b 5e3e
00000220: 94b2 593e 7735 95be ac13 473e d717 2d3c
00000230: 102b 9f3c 8f64 6cbe a7e8 3bbd d06e a23d
00000240: 9d55 2abd d9ec 0fbd 3946 85bd a89d 8dbe
00000250: 35fe cd3c 7c6f 913e 6058 e13d 1547 b23e
00000260: 0d31 91bd 4203 57bd a526 c6bc b848 a0bd
00000270: f139 7c3d eca6 a4be 8d39 02be 3c8e 1e3e
00000280: ce9d 9f3c 4950 673e ac64 993e e89c b9bd
00000290: cb44 e5bb 101c ab3d 276a 19bd 99ed d13c
000002a0: d70d 233e 076e 94be 3b61 763e b7b5 5e3e
000002b0: bf10 b3bd 5ca3 bd3c 51c5 1cbd 9dd2 1e3d
000002c0: dd2d fbbd a7e4 423e c2cc 9ebd dbce 183d
000002d0: f72b cf3d 586e d53d 87f9 533e 9599 b73d
000002e0: 2ac9 1a3e 9249 51be e8d6 35be 5d0f 39be
000002f0: 172a 8a3d a4fe f1bd 991f 5cbe 56e1 6a3e
00000300: 2b8c c73c 8eaf 753d e80a 393e 3448 53be
00000310: 939b 5ebd 77fb d3bc f0d6 913e 3513 24bc
00000320: e4fc fc3d 5622 0abe 5850 0b3e c098 ee3d
00000330: 90f7 83be a528 7cbe 7567 19be 9540 843e
00000340: 4775 6bbe 72c1 483d 69df 85be 9296 18be
00000350: 1c1a 813d 5a03 413d 1080 453e fbe5 333d
00000360: 9c61 b2bd 64da 7abe a709 67be fabb 92be
00000370: 7d80 853b d2b2 d0bd 44d8 cbbd c8eb a33e
00000380: 3fe1 0b3e 0eb9 f8bc 6549 98bd 323d 273e
00000390: 672d 53be 74b2 223e 1b60 553e 26ef 87bd
000003a0: 5e9b e33d 8a8a 37bd 8939 36bd 0a94 d2bc
000003b0: db38 543c a395 5fbd 4da6 0bbd e2b1 773d
000003c0: 4fb3 4dbe dcbc ff3c bd8e ca3d 2c10 0ebc
000003d0: 888e bc3d e6c8 e43d dea1 0d3e 98b6 3d3e
000003e0: 317f c93d 5141 5fbd ed57 31be 178a e5bd
000003f0: c333 f93d 6afb dbbd 8b07 80be ceef 383e
0.15030944 0.19862813 0.16287398 0.020506285 0.009776579 0.12810528 0.106875256 0.05188824
0.20643818 0.039846867 0.22971407 0.17984381 -0.14513329 -0.10033705 0.072202474 0.0018223391
-0.05561226 -0.02747174 0.084365614 0.047030147 0.17085175 -0.0085048545 0.023743272 0.0931767
-0.030706631 -0.10266899 0.054510623 -0.09956317 0.027599195 -0.320126 -0.11751476 0.17745565
0.20382357 0.082373574 0.11373171 -0.19132607 0.11123004 -0.036911063 0.13886048 0.19409838
0.14173667 -0.21469411 -0.08194222 -0.14352527 0.05128674 0.023200301 -0.13115616 0.16469759
-0.20005599 -0.10631685 -0.010204973 -0.2833159 -0.08178896 0.15479246 0.053485792 0.14573166
-0.17520157 -0.078090236 0.06950059 -0.20035854 0.0065190853 -0.31447142 0.0880869 0.014200712
0.13581537 0.31964436 0.20855236 0.29561633 0.03654806 0.07988524 0.07360863 0.050509308
0.2834974 -0.20401397 0.2966192 0.22567892 -0.10227608 -0.1259015 -0.11240204 -0.078364335
-0.07528477 0.023402356 -0.3116001 -0.1257095 0.20907536 0.31950462 0.0069830567 0.3199326
0.053820636 0.020721415 0.10403428 -0.08418494 0.23681773 -0.25970992 -0.047959104 0.13464053
0.14901277 -0.09805898 0.043337908 0.14262667 -0.17563762 0.030311557 -0.08921528 -0.11664564
0.06546062 -0.14317009 0.11541438 -0.013627568 -0.0135439485 -0.09390678 -0.11022043 0.018509531
-0.13095422 0.018414933 -0.19147818 0.097531274 0.0058919536 0.08241722 -0.024559118 0.16794468
0.02470988 -0.2012375 -0.20609067 0.010716367 0.10694437 -0.28995526 -0.019184174 0.21727517
0.09619168 -0.02737472 0.14943169 -0.023587916 -0.12198988 0.009910782 0.3156333 0.21702434
0.21259528 -0.29142353 0.19441098 0.010564766 0.019429713 -0.23085235 -0.04587617 0.07931292
-0.041585553 -0.035137985 -0.065075345 -0.27659345 0.02514563 0.28405368 0.11003184 0.34819856
-0.07089434 -0.05249334 -0.024188349 -0.0782637 0.061578695 -0.321586 -0.12717266 0.15483946
0.019484427 0.2258922 0.2995962 -0.090631306 -0.006996726 0.08354962 -0.03745475 0.02562599
0.15923248 -0.28990194 0.24060528 0.21749006 -0.087434284 0.023149185 -0.038274113 0.038775075
-0.12264607 0.19032536 -0.07753898 0.037306648 0.101158075 0.10421437 0.20700656 0.0896484
0.151158 -0.20438221 -0.17757761 -0.18072267 0.06746309 -0.11816147 -0.21496429 0.22937521
0.02435883 0.059981875 0.18070567 -0.20633012 -0.054347586 -0.025876744 0.28484297 -0.010014345
0.123529226 -0.1348966 0.13604867 0.116502285 -0.25774813 -0.2462488 -0.14980872 0.25830522
-0.22993957 0.04901261 -0.2614701 -0.14901188 0.06303808 0.047122337 0.19287133 0.0439205
-0.08710024 -0.24497372 -0.22562276 -0.2865904 0.004074155 -0.10190357 -0.09953359 0.32015824
0.13660143 -0.030361678 -0.07435874 0.16331938 -0.20622788 0.15888387 0.20837443 -0.06637411
0.11113618 -0.044809856 -0.044488464 -0.025705356 0.0129530085 -0.054586064 -0.034094144 0.060472377
-0.20087932 0.031217985 0.098905064 -0.008670848 0.09206873 0.11171131 0.13831279 0.18526685
0.09838713 -0.05450565 -0.17318697 -0.11207979 0.12168076 -0.10741313 -0.25005755 0.18060228

bias_ih_l0 f4 [128]
00000000: a43f 8a3e c8d0 15bd 21c1 f53d 7fb4 6d3e
00000010: fd93 683d 7b37 513e dfbd 94bb 81b7 723e
00000020: 71ae 983e 2f12 983e a711 1abd 0d85 803e
00000030: f0b9 83bc 336e cb3d 0dd2 313e a293 2fbe
00000040: 1bcd 7c3e c6cc 633e 2062 d23d 4090 573c
00000050: 4042 c53d 27b5 1ebe ac7d 873e e5aa 9b3d
00000060: ad59 cfbc 7ee2 a53e 507e 71bc 93a4 443e
00000070: 3cae 4f3d 8d3e dc3d 8900 8f3d 4414 3f3d
00000080: 8740 5e3e b3c9 6c3e 0a24 033e 9ae5 cf3d
00000090: 8520 3dbc d951 543e dbd4 a83e 32ea 7f3e
000000a0: b50d 073e 18a2 093e 09b3 b83d 6e73 363e
000000b0: 616e 45bc 3f96 6c3e d01d a3bc afda c23d
000000c0: b768 e4bd f971 1abc 3a2e 3cbe 19cf 333c
000000d0: c5a1 083e 39ed 303e f790 ac3e 2c2c 433d
000000e0: 6fe6 2d3e 771b fa3d 9416 ff3c 0fbc 243e
000000f0: ce67 663e b95e 0f3e ce12 9ebd 68a8 0b3e
00000100: a035 39bc 6c71 8b3e 08ab e83d 18f3 603e
00000110: 8dd7 2bbe 50fc 4d3e 8796 e03d b047 45bc
00000120: fa73 a13e ea5e 4b3a 488d 9abd 4685 423e
00000130: d51e 34be 58f8 75be 8a88 48be 92f7 0f3d
00000140: 5b9a c63a 4705 8bbc 39cd 133d 950e 0ebe
00000150: 0291 1f3e 63ed 183e 4204 983e d7ab 7c3e
00000160: a6b4 103c aaa0 c53d bf9f 123e c960 7fbe
00000170: 4529 343e 102d 043e af3b 013d a1c0 183e
00000180: edd7 dd3e 6e08 b33e 0f2a 6f3e 5c2f 543e
00000190: 4198 d83c d67b a3bd a05c 853e 19da 733e
000001a0: b087 8c3e 6d45 473c 0c1f eb3d d26d 9f3c
000001b0: 1fd2 bd3c d2e1 c8bc 7369 9f3d 5bf3 e5be
000001c0: 318f ab3d 323b 1c3e 8f9d 3d3d 4615 8f3e
000001d0: cca5 813e 3a66 583e c521 8d3e 0de9 a93e
000001e0: c423 53be 27f9 bdba a319 8ebd e95c c73e
000001f0: 0226 793e 8af9 ecbd 5c2b 683e 12b7 923e
0.2700168 -0.036576062 0.11999727 0.23213385 0.056781758 0.2043132 -0.004539236 0.23702814
0.29820588 0.29701373 -0.03761449 0.2510151 -0.016079873 0.09933128 0.17365284 -0.17146161
0.24687617 0.22246084 0.10272622 0.0131569505 0.09631777 -0.15498792 0.26463068 0.07600955
-0.025311315 0.32399362 -0.014739588 0.19203405 0.050703272 0.10754118 0.06982524 0.046650186
0.21704303 0.23123817 0.12806717 0.10151215 -0.011543398 0.20734347 0.32974896 0.24991682
0.13188823 0.1344074 0.09018523 0.1781747 -0.012050242 0.2310419 -0.019911677 0.09514367
-0.11152785 -0.009426587 -0.18377009 0.010974669 0.1334296 0.17277993 0.3370435 0.047649547
0.16982435 0.1221227 0.031138696 0.16087364 0.22500536 0.14000978 -0.077184305 0.1363846
-0.011304289 0.27234972 0.113607466 0.21967733 -0.16781445 0.20115781 0.10966211 -0.012041017
0.31533796 0.0007757979 -0.075464785 0.18996152 -0.17589886 -0.24020517 -0.19583336 0.03514821
0.0015152203 -0.01697029 0.036084387 -0.1387275 0.1558266 0.14934306 0.29690748 0.24674927
0.008832132 0.09649785 0.14318751 -0.24939264 0.17593868 0.12907815 0.03155106 0.14917232
0.433288 0.3496737 0.23355888 0.20721191 0.026439788 -0.07982604 0.2604723 0.23813666
0.2744727 0.0121625485 0.11480531 0.019461546 0.023171483 -0.024521742 0.07783785 -0.44912228
0.08376921 0.15256956 0.046292838 0.27945918 0.25321805 0.21132746 0.27564827 0.33185616
-0.20619112 -0.0014493809 -0.069384836 0.38938072 0.24330905 -0.11571033 0.2267279 0.28655297

bias_hh_l0 f4 [128]
00000000: 0391 8a3e 307d be3d c89f 3e3e 43d5 9cbd
00000010: 5a74 8b3e ae2b 113e 7b26 623e 41cb 683e
00000020: a377 2a3e f552 af3d 22d5 6fbd 4529 933e
00000030: 2ba8 5b3d 5456 373e f0f5 8e3e 7a41 aabd
00000040: 4cfc 603e 48f2 8d3e 4e14 6e3e 6e04 143e
00000050: 2e3c 923d a644 4abe 26d2 723e 8039 2e3e
00000060: 8b2c d5bd ba93 373e 6e58 68bd fb09 a93d
00000070: daf6 0f3e a411 b83c 2214 043d e4ae e83d
00000080: 31fc 4b3e 7d83 4fbb d318 ffba 54b8 723e
00000090: c25e a73d 45b0 5e3d 3907 743c deea 003d
000000a0: ce6d 723e 2ffe 623e 001e 54bd 24e4 513e
000000b0: 4fdc ff3d 2e92 cf3d 724f 663d 394a ae3b
000000c0: 611b 483d d974 6b3e bd64 87bd 05d9 e4ba
000000d0: 0eff b73d a862 3e3e 8c34 023e df46 be3e
000000e0: 1d0f cabd b91f c7bd 2069 263e db5e bd3a
000000f0: d88e 9b3d e548 633d 0e31 c5bd 3724 2c3e
00000100: 9492 fb3b 10b6 ab3d 8206 cebd 20a1 3e3d
00000110: 54da d23d 7442 93bd 2ead 323e 35fe 513c
00000120: 0523 613d 1758 aabd bfc4 993d 8939 8b3c
00000130: b23f aebd 7ee2 6ebe dd8a 1abd 81d8 13be
00000140: e50c d0bd aec2 543c 46d0 2fbd 2754 dbbd
00000150: b39a 213e 2353 ba3d 70ac 6938 cbcd 4c3e
00000160: 120d 073e d5cb f7bd ced9 0cbe 7b60 9dbe
00000170: 8c5b cabd 66fa 47be b0f6 03bd 719c 253d
00000180: c4c2 a53e 3c28 0f3b 86c8 823d f81c 623e
00000190: 98e7 4e3e 54f3 003e 130e 773d 8e73 693e
000001a0: fc28 b73e 6ff4 ccba 4e62 7f3e 9766 06bd
000001b0: f17a 933e a8b7 733c a43b e63d 455a 96be
000001c0: 2359 d03d 14b1 bd3e 71a4 6a3e 5242 843e
000001d0: 76a3 6abc 0263 803e c19b 8d3d b66f 833e
000001e0: 0637 25be 9a20 fc3d ebe1 9fbd d332 243e
000001f0: 2778 2c3d 5f46 a8be c565 743e b676 463e
0.2706376 0.09301221 0.18615639 -0.07657864 0.27237207 0.14176819 0.22084992 0.22733785
0.166472 0.08560745 -0.05855287 0.28742424 0.053627174 0.17904025 0.2792201 -0.0831327
0.21971244 0.27723908 0.23249933 0.14454815 0.071403846 -0.1975275 0.23712978 0.17014122
-0.104088865 0.17927447 -0.056724958 0.08253857 0.1405901 0.02246935 0.032245763 0.11361483
0.19920422 -0.0031664066 -0.0019462354 0.23703128 0.081723705 0.054367322 0.0148943 0.031473987
0.236747 0.22167276 -0.051786423 0.20497185 0.124931924 0.101353034 0.05622811 0.0053189066
0.048854236 0.22993793 -0.06611011 -0.0017459696 0.08984195 0.18592322 0.12715358 0.37163445
-0.09866164 -0.097228475 0.1625104 0.0014447825 0.07595605 0.05548944 -0.09628497 0.1681069
0.0076773856 0.08384335 -0.10059835 0.04654038 0.10295549 -0.07190409 0.17448875 0.012816955
0.054965038 -0.08317583 0.075082295 0.016995208 -0.08508243 -0.23328587 -0.037730087 -0.14438058
-0.101587094 0.012985868 -0.042923234 -0.1070941 0.1578167 0.09097888 5.5712124e-05 0.20000379
0.1318858 -0.12099425 -0.13754961 -0.3073767 -0.098807424 -0.19529113 -0.03221768 0.040432397
0.32375157 0.002184405 0.06385903 0.22081363 0.20205534 0.12592822 0.060316157 0.22797987
0.35773456 -0.0015636812 0.24939844 -0.03281268 0.28804734 0.01487533 0.11241844 -0.29365745
0.101732515 0.37049162 0.22914292 0.25831848 -0.014321199 0.25075537 0.06914473 0.25671166
-0.16134271 0.12310906 -0.07806762 0.16035013 0.042106774 -0.3286619 0.23866947 0.19381222

weight_ih_l0_reverse f4 [128, 32]
00000000: 7730 393d 2937 0a3e c5d9 e1bd dc8a 5f3c
00000010: 3867 b43b 37ce 8b3d a16c 993d 7593 903d
00000020: e8d0 40be 175f 3fbe ebcc 2d3d fd01 ecbc
00000030: 5277 b03d 2810 fdbd af38 76bd fd21 51bd
00000040: 7c65 51be 1a81 7abe 7c4a 923d ab5b 09be
00000050: fe7b 24be d815 77bd a5eb a33e 796b 563c
00000060: 9332 07be 437d 4ebe 0ce2 19be 6809 773b
00000070: 40f7 9f3d 86f6 3e3e 787e 8b3d 5c7c 983d
00000080: e952 643d b867 f03d 5ca9 4a3e 2aae 16be
00000090: f4c1 f23c af45 e03d 4db3 3a3e 8ecf 1d3e
000000a0: 4791 4abd f10b 493e b8aa 97bc 4546 153e
000000b0: 3089 093e ac23 703e 15df 023e 2661 1d3c
000000c0: 1673 303e db6f 813d aa49 d33b e4a1 383d
000000d0: 82b7 0f3d 3b04 8d3d 9459 1cbe 3838 323e
000000e0: aa1e 90bc e9cb 453e cc00 f53d 5d54 fb3d
000000f0: d2ce 2d3e 6e9b 813d 3a04 883d 4511 7d3d
00000100: 2e40 0a3e cbd2 873e a598 2f3e 35b0 773d
00000110: d0d2 f3bc 5166 75bc 46e9 3c3d 0cc1 773d
00000120: 9896 35bb 9863 453e 6ee0 aaba 208b ee3a
00000130: e4fe 1f3e fb18 673e d266 b23d a8c8 d4bc
00000140: eb75 7b3e 8fdd 383d f356 cabe ac67 1d3e
00000150: d2f8 803d 7dc6 a23b 1845 2cbe ad38 b0bd
00000160: 7ff4 d03c 49f5 48bc aa81 2b3e 107a 083f
00000170: a995 a03c e87e 203d c135 bdbe 45ce 153c
00000180: 41f0 bfbd 45be 14be 478b aabc e3d2 e93b
00000190: c5d7 95bd 4b2d 9cbd f04c 3b3e 2a90 98bd
000001a0: 9f06 64bc 4722 f63d 0f09 793d 337a 143e
000001b0: d20e c4bd 22b6 ebbd 0bff 6fbd bab0 2dbd
000001c0: 1ee5 10be d5e0 c03d 4c11 0bbe ede8 ad3d
000001d0: 2a37 913d ab14 0ebe fcb3 33be be46 d1bd
000001e0: abbe 1bbe d69c acbd aae0 19bd 99d2 113e
000001f0: 0d71 2fbe 8a47 0ebe 49d7 61bd e6a1 0d3e
00000200: a3fb e7bd 5db4 96bc 4dc5 283d 6c62 223e
00000210: f7ea db3d a7eb a0bd 1c0a 31be b49b 863d
00000220: a88a 14be b73b cebd 50b0 4ebe bd96 c73c
00000230: 18ea 213e ff0f 91bc 98c3 13be 1093 21be
00000240: 391f 74bd 4417 2fbe 8f2a 1bbe 5b82 223e
00000250: 3641 05be ac0e fe3b 61bb 99bd 175f e5bb
00000260: 1b59 ff3c daa8 b1bd a2f3 023d fd7c 29be
00000270: da3f c6bd d14c 1e3e 5fa0 e43d bf71 713e
00000280: df18 b1bd 4481 423d 5bd2 d6bd 6db6 07be
00000290: 796d 013e e649 893c 100a 93bc 07ea 943d
000002a0: b437 a9bd 062b dcbd e2cb 6a3c 3be4 48bd
000002b0: ac92 3fbc f2a0 91bd 895c 0c3d d76e 3b3d
000002c0: 067c 6dbd 9a66 54bd ff76 f63e a91e 48bd
000002d0: 8a59 a3bd a38f 1e39 8003 093f 6bd2 683e
000002e0: fbc6 2a3e 431c 143e 71ac 90be 416c 0dbe
000002f0: c10f 1e3c 6c7f 1abe 301f d03e 289b 04be
00000300: 6f47 4d3d 4b99 533e 3fff 07bd 092e 0dbe
00000310: b0e5 4fbc 406f eb3d 12f2 3c3d d1a3 a03c
00000320: 3dc5 42bd 1e06 633e 5aca 3d3e 48ba 403e
00000330: 5a42 32bd 60e6 a4bd 804d 42bd 097c f53c
00000340: b6b4 883d 2e44 5d3e 1a7a 12be 6146 d1bd
00000350: 5bc1 153e 13d2 b8bd c9fc 3dbb 8526 96bd
00000360: d5e5 a83d a1d2 06bd ece5 813d ffcd 693e
00000370: 2471 873d 13cc 153e 8060 7dbc 5a13 c23d
00000380: 12f7 c7bd 8f83 debd 0cf6 ef3d c57c cabd
00000390: f6f2 b0bd af6b 2cbe 8692 3ebe b998 b5bd
000003a0: 784d 1fbe cf6a b03d 6223 efbd ca22 0dbe
000003b0: 9998 4b3c 358c 9abc 373a f6bd 0e98 ec3c
000003c0: 02f8 bf3d 253d ca3d 113d 49be 7ca3 e5bd
000003d0: 0318 01be dd8d 463e 127f 1cbd 9520 74bd
000003e0: aaba 0d3e 465d 033e 81dd 61bc 8bac 023e
000003f0: 541f 433d 5cad 723d f564 10be 78ba 303e
0.045212235 0.13497604 -0.11027864 0.0136439465 0.0055054687 0.06826442 0.074914224 0.07059375
-0.18829691 -0.18688618 0.042431753 -0.028809542 0.086165085 -0.12356597 -0.06011265 -0.051057804
-0.2044887 -0.24463311 0.07143113 -0.13413875 -0.16062924 -0.060323566 0.3201572 0.013087147
-0.13202886 -0.20164971 -0.15027636 0.0037694816 0.07810831 0.18648729 0.068112314 0.07445595
0.05574313 0.11738533 0.19791168 -0.14714876 0.0296335 0.10950791 0.1823246 0.15411207
-0.049454954 0.19633462 -0.018514022 0.14577587 0.13431239 0.23451108 0.12780412 0.0096056815
0.17231402 0.06320163 0.0064479904 0.045076266 0.035087116 0.068855725 -0.15268546 0.17404258
-0.017592747 0.19316067 0.119630426 0.122719504 0.16973427 0.06328474 0.06641431 0.061784048
0.13501045 0.2652801 0.17148073 0.06047078 -0.02976361 -0.014978007 0.046120904 0.06048684
-0.002770817 0.19276273 -0.0013036856 0.0018199421 0.15624577 0.22568123 0.08711018 -0.025974587
0.24556701 0.04513317 -0.39519462 0.15371579 0.06297459 0.0049675093 -0.16823232 -0.0860456
0.02550721 -0.012265512 0.16748682 0.5331125 0.019602614 0.039183527 -0.36955073 0.009143417
-0.09371997 -0.14525707 -0.020818366 0.0071357354 -0.073165454 -0.076258264 0.18291068 -0.07449372
-0.013917594 0.12018257 0.060799655 0.1449974 -0.09573139 -0.115093485 -0.058592837 -0.042404868
-0.14149901 0.09417883 -0.13580817 0.08491693 0.070906 -0.13875072 -0.17549127 -0.10218571
-0.15209453 -0.084283516 -0.037567772 0.14240493 -0.17132969 -0.13894477 -0.055136953 0.1383129
-0.11327293 -0.01839655 0.041203786 0.15857857 0.10738175 -0.07857447 -0.17289013 0.06572667
-0.14506018 -0.100699835 -0.20184445 0.02436387 0.15811956 -0.017707823 -0.14430082 -0.15778756
-0.05960009 -0.17098719 -0.15152954 0.15870039 -0.13013157 0.007753214 -0.07506443 -0.006999861
0.031170418 -0.08674784 0.031970628 -0.16551585 -0.096801475 0.1545899 0.11163401 0.23578547
-0.08647322 0.04748656 -0.10489341 -0.13253184 0.12639417 0.01675887 -0.017949134 0.072712
-0.08262578 -0.107503936 0.014330836 -0.049045783 -0.011692684 -0.07110776 0.034267936 0.045760002
-0.057979606 -0.05185566 0.48137662 -0.048857365 -0.079760626 0.00015121563 0.53520966 0.22736518
0.16677468 0.14463906 -0.28256562 -0.13810827 0.009647311 -0.1508767 0.40648794 -0.12949812
0.050116953 0.20663945 -0.033202406 -0.13787092 -0.012689039 0.11495829 0.046129294 0.019609364
-0.047551382 0.22170302 0.18534222 0.1882106 -0.04352031 -0.08051753 -0.04743719 0.029966371
0.06675093 0.2160804 -0.1430439 -0.10218502 0.1462454 -0.090244435 -0.0028989783 -0.07331566
0.08246962 -0.032915715 0.06342682 0.22832488 0.06613377 0.1462863 -0.015464902 0.09476347
-0.09763922 -0.108649366 0.117168516 -0.09887079 -0.08640091 -0.16837953 -0.18610582 -0.0886702
-0.15556896 0.08614122 -0.116766706 -0.13782802 0.012426519 -0.018865684 -0.12022822 0.0288811
0.093734756 0.09874944 -0.19652201 -0.11212823 -0.12606816 0.19390054 -0.03820712 -0.059601385
0.13840738 0.1282855 -0.013785721 0.12761132 0.0476373 0.05924736 -0.14101012 0.17258632

weight_hh_l0_reverse f4 [128, 32]
00000000: 93ca 763b ba22 293e ddf3 5fbb 104b 183d
00000010: 7a88 90bd eed1 29be f929 b3bd 2acf 733c
00000020: dd5d 003e fb53 22bd e236 f13d b0d9 053c
00000030: 1f4d 313e 6644 ee3d d5d1 c43d 1d6b 31be
00000040: 66d8 8fbc b8e6 56bd e01a 1bbc 8c2e 7fbd
00000050: 4ba8 2abe fb44 f13d e849 e7bd 7d19 0e3e
00000060: aad3 363d 0884 aabd 4472 eb3d 2f09 583d
00000070: a752 96bd 1713 ee3d c5ce 25be 3dc9 633c
00000080: 1dba fa3c 6693 913c a1f2 023e 5dc8 203e
00000090: 8a96 263e eb0e 6b3d e3e3 07bb 7192 d6bd
000000a0: 3839 37bc 8bc2 a83d 664c 1ebe b121 f33d
000000b0: a3db 2fbe a3a3 27bc 25dc 1cbe fae9 4cbd
000000c0: 194c c0bd d917 cd3d 3778 183e 1674 053e
000000d0: 3822 2a3d 27b1 d0bd 1f0b 733d 97e5 003e
000000e0: c2e0 afbc fd72 dcbc 259c 24be cbfe 0abe
000000f0: 4b4a 053e b534 a73c c8f3 16be 7fd2 b9bd
00000100: a543 07be 0bc7 16be b3d6 0fbe 066a a23d
00000110: c271 07be 24c1 693d a5fc e43d 5fcb 2bbe
00000120: c1a6 89bd 0be5 2abe c44d e63c 39f1 6ebd
00000130: 01ea 9abd f49a e83d 19ae a93b 94d5 9a3d
00000140: 4480 b43d 84ff ecbd 368f f43d 574d a83d
00000150: 928e 0c3e 643e f0bd 643f 333e c983 31bd
00000160: 2997 47bd 8e12 23be b931 debd c2d1 993d
00000170: 505a ebbc 3c49 883d 37cb 043e a8be 863d
00000180: 2895 df3c 8da2 1b3c 6dee a2bd e08d 0e3e
00000190: e719 ba3d 1a9d 7ebb 4c0c a6bd 6173 093d
000001a0: ae8e 1e3e 38eb 173e 1678 4c3d b6e6 a93d
000001b0: 529a c73d 70af c4bd 428d 2c3e f2bb 10be
000001c0: 9fce edbd 8a2b 003e 5cb9 0dbe fa19 b93d
000001d0: fe6d 303e 4e99 47bb 1ed1 91bd 2aae 11be
000001e0: a990 183e 9c1b f63c 2407 aebd ca02 38bd
000001f0: ab00 b2bd 96f9 1c3d 8479 ebbd c91d 813d
00000200: f0a2 a1bd 95ac 863d aaae 72bd e7ba 073e
00000210: 93eb 573d b05d 4f3c 6dcd 1ebc fe93 83bd
00000220: 0c36 b13d dab9 20be 3671 9a3d 4e19 c13c
00000230: 6ee1 a5bd 9823 0fbe 5524 b8bd 5eba 673b
00000240: f3be 51bd 81ae 2cbe cce7 dfbc ad87 dfbd
00000250: d063 dd3d 6400 dabd 684a 123d ad96 943c
00000260: e549 fcbb 9640 23be 5ee4 1d3d 41cb 5abd
00000270: 509d 28be d0a1 cfbd 39f1 f83d 4289 aabc
00000280: 1ec6 1dbc 023a 123e 62f1 f9bc e85c 1cbe
00000290: 7f88 783d 8518 1f3e 5fca e43d c33d 52bd
000002a0: cc0c d0bd 4c90 993d 22c1 c13d a373 45bd
000002b0: 1725 10be 3e1b 14be 7bae c1bd 6841 7d3d
000002c0: 9f81 303e 9f96 fb3d 6c82 a7bd c69a 8e3c
000002d0: e0f0 ba3d a91d 2a3e b3eb 2a3d fcf4 8a3d
000002e0: bd8f 533d 511c f6bc 25c0 113e 6b55 fe3d
000002f0: fea7 23be 76af 593d 1439 003e 4bb6 c9bd
00000300: a318 70bd ec26 c63d de19 ed3d 2c1c 53ba
00000310: 38e6 95bd 32e8 26be de09 26bd 7296 1b3e
00000320: ee9a 623d ddcd d33d 9cae 463d 8e5f 233d
00000330: ed9a 13be d3f3 32be 8f84 fd3c cb16 22be
00000340: a255 f9bd ab5b ab3c 4682 0bbe 8d0f 343e
00000350: 071f d23b 934d d4bd e507 92bd ac78 783c
00000360: 8fd3 ca3d 58a3 2c3e 8279 14bd e95d e43d
00000370: 91ea bcbc a8ae a2bd 1a19 10be 969f f43c
00000380: 1986 69bd 53ea 4dbd b3db f23d bd5c 18bd
00000390: e72e ccbd c462 2ebd 994a 89bd 7787 a4bd
000003a0: e587 163e bc5e 203e 1b5a 603d 5881 c43b
000003b0: 833a 0abe 6dbd dd3c bc49 d3bd 2b04 1fbe
000003c0: b2cc 2f3e 2e57 bcbd 4d67 16be b5d3 293e
000003d0: b3ec 713d e410 593d 8099 65bd b31f 843c
000003e0: 03f4 36bd 6bf9 51bd af93 dd3d ef57 dd3d
000003f0: 53b2 3dbd 6539 9ebd d93f 7f3d 150f 15bd
0.0037657365 0.16517153 -0.0034172453 0.03718096 -0.07057281 -0.16583988 -0.0874824 0.014880935
0.12535806 -0.03963087 0.11778046 0.0081695765 0.17314576 0.1163414 0.09610335 -0.17326017
-0.017559242 -0.052466124 -0.009466857 -0.06230025 -0.16665761 0.11780735 -0.112933934 0.1387691
0.044635452 -0.08325964 0.11496404 0.052743133 -0.073399834 0.11624735 -0.16192158 0.013902959
0.030606324 0.01777048 0.12787868 0.15701433 0.16268364 0.057387274 -0.0020735196 -0.1047715
-0.011183076 0.08240231 -0.15458831 0.118716605 -0.17173629 -0.010231885 -0.15318353 -0.050027825
-0.093895145 0.10014314 0.14889608 0.13032565 0.04153654 -0.10190039 0.059336778 0.12587582
-0.021469478 -0.0269103 -0.1607519 -0.13573758 0.13016622 0.020410875 -0.14741433 -0.09073352
-0.13209398 -0.14724366 -0.14046745 0.079303786 -0.13226989 0.05706896 0.111810006 -0.16776799
-0.06721259 -0.16688935 0.028113253 -0.058335517 -0.07564164 0.1135768 0.0051782248 0.07560268
0.08813527 -0.11572173 0.11941378 0.082178764 0.13726261 -0.1173065 0.1750465 -0.04333857
-0.048728142 -0.15925047 -0.108493276 0.07510711 -0.028729588 0.06654593 0.12968145 0.065793335
0.027292803 0.009499204 -0.07955632 0.13921309 0.09086972 -0.0038850964 -0.08107814 0.0335573
0.15484115 0.14835823 0.04991921 0.08295958 0.09746231 -0.096037745 0.1685076 -0.14134195
-0.116116755 0.12516609 -0.1384024 0.09038158 0.17229459 -0.0030456367 -0.07119964 -0.14226595
0.14898933 0.030042462 -0.08497456 -0.044924535 -0.08691534 0.03832396 -0.11497787 0.06304509
-0.07892406 0.06575886 -0.059248604 0.13254891 0.052714895 0.012656614 -0.009692532 -0.06424712
0.08652887 -0.15695897 0.075411245 0.023571637 -0.08099638 -0.13978422 -0.08991305 0.0035358886
-0.051207494 -0.16863443 -0.027332209 -0.1091455 0.10810053 -0.10644606 0.03571549 0.018138254
-0.0076992386 -0.15942606 0.038547866 -0.053416494 -0.1646626 -0.10138285 0.121553846 -0.020817403
-0.009629754 0.1427994 -0.030510608 -0.15269816 0.060677048 0.15536697 0.11171412 -0.05132843
-0.10158691 0.074982256 0.09460665 -0.048205983 -0.14076649 -0.14463517 -0.09457108 0.061829954
0.17236947 0.12284588 -0.08179173 0.017407786 0.091279745 0.16612877 0.041728687 0.06785008
0.05165075 -0.0300428 0.14233454 0.12418636 -0.15982053 0.05314585 0.12521774 -0.09849223
-0.058617245 0.096753925 0.115771994 -0.0008053209 -0.07319301 -0.16299513 -0.040536754 0.15194109
0.055323534 0.10342 0.048506364 0.03988605 -0.14414568 -0.17475824 0.030946998 -0.15829007
-0.12174536 0.020917734 -0.13623914 0.17584057 0.00641239 -0.103663586 -0.07130412 0.015165489
0.09903633 0.16859186 -0.03624869 0.111507244 -0.023061069 -0.07943469 -0.14072075 0.029861253
-0.05701265 -0.050272297 0.118583106 -0.037197817 -0.099698834 -0.04257466 -0.067036815 -0.0803365
0.14700277 0.15661138 0.05477343 0.0059968643 -0.13498883 0.027067864 -0.10316798 -0.15528934
0.17167929 -0.09196316 -0.14687844 0.16584666 0.059063625 0.052994624 -0.056054592 0.016128397
-0.0446663 -0.051263254 0.10819184 0.108077876 -0.04631264 -0.07725791 0.06231675 -0.036391336

bias_ih_l0_reverse f4 [128]
00000000: 814c f7bd 3a54 973d 06f5 19be abfa 41be
00000010: 3968 7d3d cfeb c73e 67bc 133e c687 95bd
00000020: 6da0 8dbb c574 2cbe b6c5 4dbd 07a9 573e
00000030: 9d8a 2abe e94f ea3d 0851 dc3e fa19 9c3e
00000040: 9f2c 1ebe 0b3a 67be 28d4 a13d 381a 4abe
00000050: 1e5a bf3e 8748 7cbd 8542 c13c f47d 353c
00000060: edfb 273e 870f 623e 0d15 03be 2343 48bd
00000070: 07d5 8abd 3e9c d13c ac62 9c3e a284 db3b
00000080: c35d f33c 4622 2b3e 3d65 37bd 3821 1abe
00000090: 8832 e8bd deca 2e3c 5285 0bbe f5f4 b73c
000000a0: 6958 263e e2f2 9dbc 8356 86bd 0460 82bd
000000b0: 8fa1 1abd 0be3 0c3c a6c0 efbd 5b4d 47bd
000000c0: 81ff e83c 8b61 babd d809 ee3c 5bf7 26be
000000d0: 38b1 0b3a 7fe1 963d cbad 1f3e 7eaa f8bd
000000e0: 3d69 20be 43af 103e 54cd e9bd 473b 99bc
000000f0: 8eca a6bd fcf7 09ba 1ef5 14be 8536 263e
00000100: c39a 2cbe 3a46 913c 0e6e cebd 83b6 093e
00000110: ecd9 1cbe 1143 5f3e 717b 7dbc e6d5 b83d
00000120: 737f 683e 57e8 73bd bac6 15bd 5a54 d53e
00000130: 8136 9a3d 443f 883d c2b8 083e b93e 2e3e
00000140: 4238 86bd 6545 30be 7591 29be 23b6 563e
00000150: 9ddf 1f3e 8267 5d3e 38f9 243c bdef afbd
00000160: b11d 9bbe 1d8d 1a3e e21e 60bd 225c 65bc
00000170: 3924 53bd a5d4 273e e3cc 57bc 8612 493d
00000180: 8728 02bd 2dbd 293d 87c0 b1be 60a1 d9bd
00000190: f955 093e 33ce b23d dc66 45be da12 00bd
000001a0: b856 2b3e c816 28bc 21fb 0c3e c038 433e
000001b0: f5ed 8e3d 62ab 193e 8c2a 123f 21e0 7c3e
000001c0: 5466 89be b5e0 2b3e 2b20 6bbe b5ef 50be
000001d0: 713e e23d c9eb 92be afbb 8abe f4fd 53be
000001e0: 6bee e3bd badb e43c 4c0e 8cbd c7cb dd3d
000001f0: a1ef 23bd e949 763e 14d5 db3e e99c f33d
-0.12075139 0.07389112 -0.15034875 -0.18943278 0.061866973 0.39047095 0.14427339 -0.07301287
-0.0043221028 -0.16841419 -0.05023738 0.21060573 -0.1665444 0.11441023 0.43030572 0.3048857
-0.15446709 -0.22580735 0.07901794 -0.19736564 0.3737344 -0.061592605 0.02359129 0.011077393
0.16404696 0.22076236 -0.12800999 -0.04889215 -0.06778913 0.025587197 0.3054403 0.0066991607
0.029707795 0.16712293 -0.044774283 -0.15051734 -0.11337763 0.0106684845 -0.13625076 0.022455672
0.16244663 -0.019280855 -0.065594696 -0.0636597 -0.03775173 0.008599053 -0.11706667 -0.048657756
0.028442146 -0.09100636 0.029057428 -0.16305296 0.0005328837 0.07367229 0.1559364 -0.12141894
-0.15665145 0.14129357 -0.11416116 -0.018705023 -0.08144103 -0.0005263088 -0.1454663 0.16231735
-0.16855912 0.017733682 -0.10079585 0.13448529 -0.15317506 0.21802928 -0.015471325 0.09025173
0.22704868 -0.05954775 -0.036566474 0.41665918 0.07529927 0.06652692 0.1335173 0.17016114
-0.06553699 -0.17213972 -0.16559394 0.20967917 0.15612645 0.21621516 0.010069184 -0.08590648
-0.3029609 0.15092893 -0.054716952 -0.013999017 -0.051548216 0.16389711 -0.013171407 0.04908993
-0.03177693 0.041440178 -0.347172 -0.10626483 0.13411702 0.08730736 -0.19277519 -0.03126798
0.167323 -0.010259338 0.13767673 0.19064617 0.069789805 0.15006784 0.5709617 0.24694873
-0.26835883 0.16784938 -0.2296149 -0.20403941 0.11047066 -0.28695515 -0.27096316 -0.20702344
-0.11129459 0.027936805 -0.068386644 0.10829883 -0.04002345 0.24051632 0.42936003 0.118951626

bias_hh_l0_reverse f4 [128]
00000000: 1795 1abd 62c6 223d 2bd1 96bd b994 43be
00000010: 6bf2 1a3e c0e4 883e 2089 633d 4e55 883d
00000020: 87b0 8abd 1eb8 7dbd 1b89 b3bb 40b4 003e
00000030: 27a0 b43d 2c33 893d ffcc 9e3e 08e7 8d3e
00000040: dbd7 dfbc 8a80 fabd 58b8 02bd 56ef bcbd
00000050: 4fb5 543e 7750 4cbd fd92 033e 4178 de3d
00000060: 2dab 1b3d 9266 643e d757 23be fc98 b93c
00000070: 3656 b5bd 6475 c93d 8a8e 973e 5a81 0dbd
00000080: cf2f 3fbb d663 acbd 48a4 65bd ed7e 28be
00000090: 798b 943d 75ea 163e b660 203e ea0b 1fbb
000000a0: 8858 b3bd f7eb 913d 1a55 733c 373a f23d
000000b0: 472d 7cbd aeb8 313e 500e e0bd decb 13bc
000000c0: 45a4 fa3d a1f8 b23d 2dd5 1dbe 4255 cd3b
000000d0: bb7d a0ba d8dc 51bd c809 8cbc cc59 f13d
000000e0: 39e2 ebbd 64f9 30bc 2dd5 12bc 0645 313e
000000f0: d843 1e3e 7590 9abb 76e0 033b 29fd 303e
00000100: bd64 27be 7529 073e 5d56 c4bc 19b2 92bc
00000110: 29ce 1fbd 4026 4e3e d34a 843c bbc6 05be
00000120: 2d64 b33c 3821 92bd d2cd fd3d 6f3b 673e
00000130: be3e 343e d370 98bd b05f f8bd 2e43 f33d
00000140: 5971 9e3d 3d61 9fbd 99f7 06be 9877 50bd
00000150: 26ae c53d f30e 9fbd d610 b2bc ba52 2a3d
00000160: 216c c0be 7f34 763e 9863 c3bd caab fdbd
00000170: e49a 843e 60af a5bc 1cc0 e63d dce6 103b
00000180: d2c1 23be 838e 3dbe 2aa7 b0be 5db4 53be
00000190: 15a1 923e 6fe2 9e3e 233c 58be f58b f53d
000001a0: 863a b13c 69c5 8a3d f49a 5d3d 76ec a2bd
000001b0: b24b b03d 88b0 86bd b169 0f3f 5d38 9a3d
000001c0: d192 573d 2be0 ef3d b9cf fabd a4e1 c3be
000001d0: cf30 8c3e 30bf afbd 012f abbd 7287 1fbc
000001e0: f9d5 1bbe b5c6 713e 9c20 c6bd 648b f7bd
000001f0: 36b4 ad3d 710c 703d 818b d33e 1d46 643c
-0.03773984 0.039739974 -0.073641144 -0.19099702 0.15131538 0.26737022 0.055550694 0.066568956
-0.06771951 -0.061943166 -0.0054789907 0.1256876 0.08819609 0.066992134 0.31015775 0.27715325
-0.027324608 -0.12231548 -0.031914085 -0.09225337 0.20772289 -0.049881425 0.1284904 0.1086278
0.038005043 0.22304752 -0.15951477 0.022655956 -0.08854334 0.098368436 0.29600936 -0.034547187
-0.0029172783 -0.0841748 -0.056064874 -0.16454668 0.07253165 0.14737876 0.15661892 -0.0024268576
-0.0875712 0.07125085 0.014851833 0.1182751 -0.061566617 0.17355606 -0.1094023 -0.009020774
0.12238363 0.087388285 -0.15413351 0.006266267 -0.0012244502 -0.051236004 -0.017094508 0.117847055
-0.11517758 -0.010801647 -0.008961958 0.17311487 0.15455568 -0.0047169277 0.0020122803 0.17284073
-0.16347022 0.13199408 -0.023966962 -0.01790719 -0.03901497 0.20131779 0.01614896 -0.13064091
0.021898353 -0.07135242 0.12392773 0.22581266 0.17602059 -0.074433945 -0.12127626 0.11878048
0.07736463 -0.077822186 -0.13180389 -0.050895303 0.09652357 -0.07766523 -0.021736544 0.0415828
-0.37582496 0.24043463 -0.095404804 -0.12386282 0.25899422 -0.020225227 0.11267111 0.002211026
-0.15991905 -0.18511395 -0.34502536 -0.20674272 0.2863852 0.3103213 -0.2111669 0.11989585
0.021634351 0.06775934 0.054102853 -0.079552576 0.08608188 -0.065766394 0.5602065 0.07530282
0.05263025 0.117126785 -0.12246651 -0.38258088 0.27380988 -0.08581388 -0.08358575 -0.0097368825
-0.15218343 0.23610957 -0.096741885 -0.120871335 0.08481638 0.058605615 0.4131737 0.013932732

weight f4 [7, 64]
00000000: e032 65bd a0b2 92bd 2639 ee3c 3a8b 963e
00000010: 501a 853c 881c 85bd 6494 c03d ab35 103d
00000020: cc4d ff3d 3c9c 91bc db20 e7bd 2c61 3ebe
00000030: 15b6 db3c 9cce c73d 605f b9bd 5777 4cbe
00000040: b7d4 813d 3ba9 c23c edfd 293e be04 53be
00000050: f9f4 cebd 3c55 8ebc 4388 fb3d 35a2 4d3e
00000060: 5c8e bbbd 36c9 213e e3ad 233c b312 05be
00000070: 159f cebd c1d4 353e ceb4 343e bbc2 053e
00000080: b194 d3bb 6d41 80bc 5c34 57bc 0748 83bd
00000090: 4c9b d83d ec3f 05bd cf71 143e 7e5a 1d3d
000000a0: 7bf8 4bbd 6528 e93c 2a58 0dbd 4d2d 9ebb
000000b0: a1ef efbd 857d 953d 1b63 96bd a264 13be
000000c0: 0018 a53b 2f29 99bd 065b 703d acfe 0f3e
000000d0: 827e 4bbd f67b 883d 361f 6ebd 9ff7 b43d
000000e0: 90a3 c93c 687a 663c 0406 603d 9870 91bb
000000f0: c42e 4f3d fdd9 df3a 045f acbd 980f 643d
00000100: f7f0 3e3c f235 a0be 094e 163c c2b3 a33d
00000110: 3fae a03d fc5e 0ebe 3b05 16bd c28e a3bd
00000120: 701d 87bd c42b 923e 5398 33be 193c 7dbd
00000130: f64b 0d3e 8355 00bc 661e 3a3d 8784 253e
00000140: 91a5 273e a63a 77be b3a3 70be f288 cf3d
00000150: bee4 7dbe 4e61 d53d d9a5 8ebd 2813 48bd
00000160: d27c 4fbb e351 e1bc 8418 c93d b53a 1e3e
00000170: cb9a 54be 9407 bdbd c889 aa3e 9c0e f7bc
00000180: de6b 50bc 356f 19bd 1389 313e 9715 153c
00000190: d95a 97bd a337 febd 52af 42bd 683a d03b
000001a0: 0b3a d33d bce6 8b3c 398d 44bd 6831 c8bd
000001b0: 0b5d acbc f78e 86bd 319c e43d 34ca db3d
000001c0: 8feb 403d 4450 4dbb 509e 57bc 35e4 f9bd
000001d0: 0edd acbd 70bf ebbc f10a 9c3c 8f6b 18bc
000001e0: 121b e13d 7c69 81bd c6ab f83c 199e 23bd
000001f0: e573 c23d 2df7 f23d f1d1 10be 6ce6 46bc
00000200: d0c5 4c3d ac55 2bbe 8771 6d3d 27ca 0b3e
00000210: 11b1 88bc 2c54 9dbc 622d b63d 0988 203d
00000220: c28a d63c ea89 fd3d 2c32 3b3d 5fc4 fcbd
00000230: 13d3 37bd c93f 3f3c 30b9 b3bd bd8e 97be
00000240: ede2 8c3b e17f 883d 89ca 363e 9a67 d9bd
00000250: 6bad 98bb 6784 253d b9e3 a3bc 8b7c d93d
00000260: 4717 26be e258 923c 9e92 06be 8e6f a3bd
00000270: 6a7c 43bd cfff 183e 8b76 7a3e 4c5f 2d3d
00000280: 9259 7b3c f9d5 3f3d 3b32 aebd ee21 69bd
00000290: a31c f73d a564 093d 8b6a bf3d 57d7 c13d
000002a0: b9fa 153a 04cc 333c ca94 9fbb bfe5 063c
000002b0: 0eb5 61bd cfd9 11bd 2658 7ebd bd5a 6fbd
000002c0: 590e 0cbd f26d bdbd e9c4 273c 9984 9e3d
000002d0: 9da6 b1bd 4b87 963d 7a1c a9bd d429 1cbd
000002e0: ee39 413c 8d39 253b 952d e4bd 6213 ccbd
000002f0: b806 c1bc fcac c3bc 265f 8cbd 3876 983c
00000300: ba32 08bd 5926 a83d 04ea a33b 8ae7 9c3e
00000310: 7dd9 f0bd be69 393e dcd0 4e3e 2d6e f03d
00000320: 936c 553e ac84 d6bd dfbb 683e 2bce 55bd
00000330: 9b28 02be 0cab 3dbd a676 79bd 3d1f 12bf
00000340: 0ff8 f9bd 3770 7d3e 5d4a d23e 5638 38be
00000350: 9d92 6d3d 8421 82be c641 bf3d d24f fd3d
00000360: bc8c d7bd a879 ac3e 8e0d 48bd 84a6 56bd
00000370: 9610 2b3e 593f d83e 775d 4ebe 0730 0bbe
00000380: 6363 d1bc 88fc 863e 89ff 8ebe cd9b eebd
00000390: 97ad 7d3d 26cf 813e 290d c13d 0c02 75bd
000003a0: d05f 8b3d 790d 16bc bf24 ecbd c57f e13d
000003b0: c934 97bd 10d9 973c e650 acbe b837 913d
000003c0: 55ab 9dbe c1c4 5bbe b862 c63d e341 b33e
000003d0: 63aa 093e b7a9 fc3d 8480 36be d8fa 6f3e
000003e0: c1cc 33be 8f4d 363e 78b1 5fbe 2da8 5c3d
000003f0: f37f 3abd f3d9 2abe 7ca1 453e 856f 7d3d
-0.05595672 -0.07162976 0.029079985 0.29403096 0.016247898 -0.064995825 0.09403303 0.03520743
0.124660105 -0.017774694 -0.112855636 -0.18591756 0.026820222 0.097562045 -0.090513945 -0.199674
0.063394 0.023762336 0.16600771 -0.20607278 -0.101053186 -0.017374627 0.12281849 0.20081408
-0.09158012 0.15799412 0.009990188 -0.12995414 -0.10088936 0.1775694 0.17647097 0.13062565
-0.0064569344 -0.015656197 -0.013135042 -0.064102225 0.105764955 -0.032531664 0.1449654 0.03841638
-0.049797516 0.028461644 -0.034507908 -0.0048271776 -0.117156275 0.072993316 -0.073431216 -0.14393857
0.0050382614 -0.07478558 0.058680557 0.14061993 -0.049681194 0.06664269 -0.058135234 0.088362925
0.024614125 0.01406727 0.054693237 -0.004438471 0.05058171 0.0017078515 -0.0841656 0.055678934
0.01165413 -0.31291157 0.0091738785 0.079932705 0.07845735 -0.13903421 -0.036626082 -0.07986213
-0.06597412 0.28549016 -0.17538576 -0.06182489 0.13798508 -0.007832888 0.045439146 0.16163836
0.16371752 -0.24143466 -0.23499946 0.10133542 -0.2479429 0.1041895 -0.06965227 -0.048846394
-0.0031660092 -0.027504867 0.09819129 0.15452082 -0.20762174 -0.09229961 0.33308244 -0.030158333
-0.01272103 -0.03745957 0.17337446 0.009099386 -0.07390375 -0.124129556 -0.04753048 0.006354619
0.10313805 0.017077796 -0.047986243 -0.097750485 -0.02104046 -0.06570237 0.11162604 0.107319266
0.047099646 -0.003132836 -0.013160303 -0.1220173 -0.084406 -0.028777808 0.019048186 -0.009302988
0.109914914 -0.06318948 0.030355345 -0.039945696 0.094947614 0.11863551 -0.14142586 -0.012139898
0.049993336 -0.167319 0.057969596 0.13651334 -0.016685994 -0.019205175 0.08895375 0.039192233
0.026189212 0.12379821 0.045702145 -0.12342142 -0.04487903 0.011672922 -0.08775556 -0.29601088
0.0042995126 0.06665016 0.17850699 -0.106154636 -0.004659345 0.04040947 -0.020006048 0.10619458
-0.16219817 0.017864648 -0.13141868 -0.07980262 -0.047726072 0.14941333 0.24459283 0.04232721
0.015341179 0.04683492 -0.085056745 -0.056917123 0.12066009 0.033543248 0.09346493 0.09464901
0.00057212595 0.010973934 -0.004870032 0.008233487 -0.055104308 -0.03560811 -0.062095784 -0.058436144
-0.03419337 -0.09249486 0.010239818 0.07740135 -0.08674357 0.07350024 -0.082573846 -0.038125828
0.011793597 0.0025211305 -0.111415066 -0.099646345 -0.023562774 -0.023886196 -0.068540856 0.018611059
-0.0332515 0.08210439 0.005002262 0.306454 -0.117602326 0.18106744 0.20196861 0.11739764
0.20842199 -0.10474524 0.22727917 -0.05219857 -0.12710802 -0.0463057 -0.060904168 -0.57078916
-0.122055165 0.24749838 0.4107236 -0.1799024 0.05800115 -0.25416195 0.09338717 0.1236874
-0.1052489 0.33686566 -0.04884105 -0.052404895 0.16705546 0.4223583 -0.20152842 -0.1359254
-0.025560087 0.2636454 -0.27929333 -0.116508104 0.061933126 0.25353354 0.09426338 -0.059816405
0.06805384 -0.009158486 -0.11530446 0.11010698 -0.07383115 0.01853612 -0.3365547 0.07090706
-0.30794778 -0.21461774 0.09686798 0.35011205 0.13443904 0.12337058 -0.17822462 0.23435533
-0.17558576 0.17803024 -0.21845043 0.053871322 -0.045532178 -0.16684704 0.19299883 0.06187393

bias f4 [7]
00000000: c53b 8fbd 5680 1a3d dec4 74bd c707 b6bd
00000010: fbc9 aa3d ae3a 0b3e a42b c5ba
-0.06993822 0.037720047 -0.05975806 -0.08888202 0.08339306 0.13596603 -0.0015042913
