CNN_LSTM_model_weight/sCNNLSTM_CE_epoch60_peak_data.pt (torch, 75950 bytes, 12 tensors)

weight f4 [32, 1, 5]
0	0x3cc75f49	0.024337428
1	0x3c2692b7	0.0101668155
2	0xbe0513a8	-0.1299578
3	0x3df25e86	0.11834435
4	0xbe4ac0b3	-0.19800071
5	0x3e6bfd22	0.23045781
6	0xbf34c03a	-0.70605814
7	0xbf0af038	-0.54272795
8	0x3cb5a1f9	0.022171961
9	0xbdcfd31f	-0.1014769
10	0xbd5faf35	-0.05461045
11	0x3dedccba	0.11611314
12	0xbf65f137	-0.8982119
13	0xbf17a7c7	-0.5924038
14	0x3dc2fef8	0.09521288
15	0x3db91c66	0.0903862
16	0xbd6cc50c	-0.057805106
17	0xbd5112d5	-0.05104335
18	0x3dc4373e	0.09580849
19	0x3ddef88a	0.10887249
20	0x3e17aa45	0.14811046
21	0x3c6f3313	0.014599579
22	0x3e2a4a0f	0.16629814
23	0x3d3e02c6	0.046389364
24	0xbe9dfc24	-0.3085643
25	0x3eaad839	0.3336809
26	0x3eb400a0	0.35156727
27	0xbebf0d3d	-0.37314788
28	0xbe877fc8	-0.26464677
29	0x3c8773de	0.016534742
30	0xbf983f96	-1.1894405
31	0xbf65b78b	-0.8973319
32	0xbdbef6d8	-0.093244255
33	0xbc6efb36	-0.014586261
34	0x3d8c63ba	0.06854959
35	0x3e82eaac	0.25569665
36	0xbebe9d2d	-0.3722929
37	0x3ec83b8d	0.39107934
38	0x3d580226	0.052736424
39	0xbe92dcbb	-0.2868403
40	0xbdfbcf40	-0.12295389
41	0xbd1e8bf3	-0.038707685
42	0x3e177d9f	0.14794014
43	0xbdaf371c	-0.08555433
44	0xbeaad76d	-0.33367482
45	0x3f23d342	0.6399423
46	0x3f1b722c	0.6072109
47	0xbe996925	-0.2996303
48	0xbd1f284a	-0.038856782
49	0xbd3179ff	-0.043329235
50	0x3ce1adc1	0.027548673
51	0xbeb6a7bc	-0.35674846
52	0x3e2b5e08	0.16735089
53	0x3e3182be	0.1733503
54	0x3e717fe5	0.23583944
55	0x3f17e83f	0.59338754
56	0xbe7893cc	-0.2427513
57	0xbe3d63ca	-0.18495098
58	0xbd47cbf1	-0.048778478
59	0xbd3dfdf8	-0.04638478
60	0x3c81904a	0.015815873
61	0xbd1b05fe	-0.03784751
62	0x3e7b9c15	0.2457126
63	0xbe2a746e	-0.16645977
64	0xbd74198f	-0.059594687
65	0xbebc892d	-0.36823407
66	0x3ece8754	0.40337622
67	0xbe3b5d9e	-0.18297431
68	0x3d75ad93	0.059979986
69	0x3daf7c0e	0.085685834
70	0x3cd3b862	0.025844757
71	0xbe2b864b	-0.16750447
72	0x3d5d9d44	0.05410506
73	0x3b790153	0.0037995174
74	0x3e90ef8d	0.28307763
75	0xbf3d59d5	-0.739652
76	0x3e06d681	0.13167764
77	0xbed03782	-0.4066735
78	0x3e3fa9c7	0.18717109
79	0xbd41bd46	-0.047299646
80	0x3d9c4be6	0.07631664
81	0xbede454c	-0.43412244
82	0x3e65ddd7	0.22447906
83	0x3e34059c	0.17580265
84	0xbe8a63ab	-0.27029166
85	0x3b681339	0.0035411848
86	0x3d454c3e	0.048168413
87	0x3e8f960f	0.28044173
88	0xbf04463a	-0.5166966
89	0x3e43355c	0.19063324
90	0xbed2bcba	-0.41159612
91	0x3ee08b1e	0.43856138
92	0xbd091e00	-0.033475876
93	0x3d637288	0.055529147
94	0xbe8feb95	-0.28109422
95	0xbdb889bf	-0.09010648
96	0x3df0d557	0.11759441
97	0x3eb1119d	0.3458375
98	0x3d5e9730	0.054343402
99	0xbec7b5bc	-0.3900584
100	0xbfc6064b	-1.547067
101	0xbf941935	-1.1570193
102	0xbf12f8b1	-0.5741072
103	0xbe9d660c	-0.30741918
104	0x3e2e745a	0.17036572
105	0x3d5597cd	0.05214672
106	0xbf0bb398	-0.54570913
107	0xbeb8fdd8	-0.36131167
108	0x3d8f3cf4	0.06994048
109	0xbe29c22c	-0.16577977
110	0x3e17a74d	0.14809914
111	0xbe223e0e	-0.15843984
112	0x3ef38392	0.47561318
113	0xbe659799	-0.22421111
114	0xbe48371d	-0.19552274
115	0xbea1763b	-0.31535515
116	0xbe7d0036	-0.24707112
117	0x3e8c7310	0.27431536
118	0xbe2f0934	-0.17093354
119	0x3e850736	0.25982064
120	0xbef5fb69	-0.48043373
121	0xbe20713c	-0.15668195
122	0x3e83174a	0.25603706
123	0x3dbf8fd9	0.09353609
124	0x3db3df23	0.08782794
125	0xbebe01e0	-0.37110806
126	0x3ba7b7ba	0.0051183375
127	0xbdd93c20	-0.10607171
128	0x3e33f3be	0.17573449
129	0x3e2c8701	0.16848375
130	0xbf5dc4ea	-0.8662859
131	0xbe1c0115	-0.15234788
132	0xbf8156e0	-1.0104637
133	0xbf680abe	-0.9064139
134	0x3dd49c11	0.1038133
135	0x3d04fbc3	0.03246666
136	0x3ca2f7cd	0.019893551
137	0x3e41374e	0.18868753
138	0xbf37fb29	-0.71867615
139	0xbec4f098	-0.38464808
140	0xbfb8e5bf	-1.4445113
141	0xbf7f2082	-0.9965898
142	0xbfa87b58	-1.3162642
143	0xbf89ae42	-1.0756304
144	0x3ec6cbaa	0.38827258
145	0xbf502378	-0.8130412
146	0xbf87eaf8	-1.0618582
147	0xbea3dc1f	-0.32003877
148	0xbf0eb387	-0.55742687
149	0x3d9366e4	0.07197359
150	0xbf79502b	-0.9738795
151	0xbf2202e5	-0.63285667
152	0xbf319f28	-0.6938348
153	0xbf3f1597	-0.7464232
154	0x3e24cd57	0.16093956
155	0x3eb3a940	0.35090065
156	0xbedf1b48	-0.435755
157	0x3ea24bf0	0.3169856
158	0x3d2d0d4c	0.04224901
159	0xbe754a93	-0.23954229

bias f4 [32]
0	0x3c5533bd	0.013012824
1	0x3e8965f8	0.26835608
2	0xbf2772a4	-0.654093
3	0xbf82e511	-1.0226156
4	0xbefb3a7c	-0.49068058
5	0xbeb1145f	-0.34585854
6	0xbd128561	-0.03577173
7	0xbe4d34cf	-0.20039676
8	0xbe286e24	-0.16448265
9	0x3e86e4e9	0.2634652
10	0xbd10dff0	-0.035369813
11	0x3efb5ff8	0.49096656
12	0x3f200884	0.62512994
13	0xbf3b62ba	-0.7319752
14	0xbd2a23c5	-0.04153802
15	0xbeb1b8f3	-0.34711418
16	0xbf6669be	-0.900051
17	0xbcbd21a0	-0.023087323
18	0xbea59521	-0.3234034
19	0xbf18104f	-0.59399885
20	0xbf3cd18a	-0.7375723
21	0xbf176400	-0.5913696
22	0x3da55676	0.08073132
23	0x3cdeeac4	0.027211554
24	0x3d3b285e	0.045692794
25	0x3c6b3a80	0.014357209
26	0xbf146232	-0.57962334
27	0xbf0f38a3	-0.55945796
28	0xbeccac8e	-0.399754
29	0xbe88a0ec	-0.26685274
30	0xbe9c4a36	-0.30525368
31	0xbd7be01e	-0.06149303

weight_ih_l0 f4 [128, 32]
0	0x3e2aebc2	0.16691497
1	0x3e905809	0.28192165
2	0x3c3e2f32	0.011607932
3	0x3d855468	0.0651024
4	0x3e8c6a1d	0.27424708
5	0x3e047fc2	0.1293936
6	0x3e343350	0.17597699
7	0x3d066154	0.032807663
8	0xbca1b662	-0.019740287
9	0x3db03b0a	0.08605011
10	0x3d47d42d	0.04878633
11	0xbbf4ae49	-0.0074670655
12	0x3e6b315d	0.2296805
13	0xbc72bbf0	-0.014815316
14	0x3e21b3d3	0.15791254
15	0x3e076991	0.13223864
16	0x3d33cc83	0.04389621
17	0x3cc95adc	0.024579458
18	0x3cc62433	0.024187183
19	0x3b1de830	0.0024094693
20	0xbd4798f4	-0.04872985
21	0xbdc91d79	-0.098200746
22	0x3da07e7c	0.07836625
23	0x3e00826d	0.12549753
24	0xbd2ac8f7	-0.04169556
25	0xbdc221ff	-0.094791405
26	0x3da4cf22	0.0804732
27	0x3e373a12	0.17893246
28	0x3de7f24d	0.11325512
29	0xbda7a780	-0.08186245
30	0x3d36e051	0.04464752
31	0x3dc81c76	0.097710535
32	0xbd8680a5	-0.06567506
33	0xbd2fbdad	-0.0429055
34	0xbd32f6b8	-0.04369232
35	0xbd50ea8a	-0.051004924
36	0xbce9e48e	-0.028551366
37	0xbc8e9075	-0.017402867
38	0xbd890e28	-0.06692153
39	0xbcbaed67	-0.02281828
40	0x3df5181c	0.11967489
41	0xbc5243e4	-0.012833569
42	0xbd01e7cf	-0.03171521
43	0xbd073f2e	-0.033019237
44	0xbce308e8	-0.027714208
45	0xbe1c0d11	-0.1523936
46	0xbcf79fce	-0.030227568
47	0x39a06f5b	0.00030600544
48	0xbdaa5296	-0.08316533
49	0xbc873f78	-0.016509756
50	0xbda39ecb	-0.07989272
51	0xbba9f2f0	-0.005186431
52	0x3ccf3844	0.025295384
53	0xbe4319b6	-0.19052777
54	0xbc6dfc5e	-0.014525501
55	0xbea1a8b9	-0.31574038
56	0xbe06062e	-0.13088295
57	0xbe438a1d	-0.19095655
58	0xbe3c68bb	-0.18399327
59	0xbc38e2ed	-0.011284572
60	0xbbc27277	-0.0059340554
61	0x3ac29baa	0.0014847417
62	0x3d64b149	0.055833135
63	0xbc123cad	-0.008925599
64	0xbd50aa36	-0.050943576
65	0x3d059359	0.032611225
66	0x3d8445a1	0.06458593
67	0xbdc3bc6a	-0.095574215
68	0x3db84b99	0.08998794
69	0x3e1f3f47	0.15551482
70	0x3bcac480	0.0061879754
71	0xbd27f538	-0.041005343
72	0x3e6b69be	0.22989556
73	0x3d9bfdf3	0.07616796
74	0xbd89b5e9	-0.0672415
75	0xbdb82af7	-0.0899257
76	0x3ddfcadf	0.109273665
77	0xbe479ba9	-0.19492973
78	0x3c83f02c	0.016105734
79	0xbe0893d9	-0.1333765
80	0xbe131bd1	-0.1436608
81	0xbaface6d	-0.0019135006
82	0x3df7ec45	0.12105612
83	0xbda50370	-0.08057296
84	0x3d528430	0.051395595
85	0xbd9a78f8	-0.07542604
86	0x3e28eb8c	0.16496104
87	0xbd088799	-0.03333244
88	0xbdaeb188	-0.08529955
89	0xbde83033	-0.11337318
90	0xbe5a7afd	-0.21335979
91	0x3cc04c68	0.023473933
92	0xbd4f7834	-0.050651744
93	0x3cdf15a5	0.027232
94	0xbd831b20	-0.06401658
95	0xbdc7056c	-0.09717831
96	0xbd37deed	-0.044890333
97	0x3e3833c4	0.17988497
98	0xbd4bc39f	-0.049747106
99	0xbe1a73dc	-0.1508326
100	0x3c772557	0.015084586
101	0x3dbbe716	0.091749355
102	0x3b000d9e	0.0019539366
103	0x3e2f4bd3	0.17118768
104	0xbd9025cc	-0.07038459
105	0xbd0de589	-0.03464273
106	0xbe1a4bc1	-0.1506796
107	0xbe2547b8	-0.1614064
108	0x3e39b96d	0.1813714
109	0xbe29b4ff	-0.16572951
110	0xbd4b8586	-0.049687885
111	0xbcb42611	-0.021990808
112	0x3d8194e6	0.06327228
113	0x3d442a6e	0.047892027
114	0xbd0199ad	-0.031640697
115	0xbe173478	-0.14766109
116	0xbcc6ce23	-0.024268216
117	0xbe07d6d5	-0.13265546
118	0xbd530026	-0.051513813
119	0xbe3918b2	-0.18075827
120	0xbdd5defe	-0.10442923
121	0x3d9b5011	0.07583631
122	0xbd8ac447	-0.06775718
123	0xbb78da4d	-0.0037971914
124	0xbdb8fbd9	-0.09032411
125	0xbdcbc606	-0.09949879
126	0xbc7260fe	-0.014793633
127	0xbdb4b462	-0.08823468
128	0xbe0991a3	-0.13434462
129	0xbe53ec0f	-0.20695518
130	0xbba307bd	-0.0049752877
131	0x3dcd05df	0.100108854
132	0xbcea74d9	-0.02862017
133	0x3d13bf3a	0.03607104
134	0x3c67b748	0.014142819
135	0x3d12794a	0.0357602
136	0x3e85c314	0.26125395
137	0x3d3e4c88	0.046459705
138	0xbd8c5986	-0.06853013
139	0x3d966af3	0.07344618
140	0x3cde8f56	0.027167957
141	0x3d05e8bc	0.032692656
142	0xbdc9752d	-0.09836803
143	0xbde83188	-0.11337572
144	0xbd9f9d5e	-0.07793687
145	0xbdf36170	-0.11883819
146	0xbd595516	-0.05305966
147	0x3def0b19	0.116720386
148	0xbcbbe558	-0.022936508
149	0x3df793eb	0.1208876
150	0x3c92781f	0.017879544
151	0x3bc5202c	0.006015798
152	0xbdb36098	-0.08758658
153	0xbde88749	-0.113539286
154	0xbe8ba9f5	-0.27278104
155	0xbdc14a35	-0.09437982
156	0xbe2bf6ab	-0.16793315
157	0xbe3b30ae	-0.18280289
158	0xbd7160c5	-0.058930177
159	0x3d50c360	0.050967574
160	0xbe707386	-0.23481569
161	0xbd388268	-0.04504624
162	0xbe6f136f	-0.23347257
163	0xbe5dea78	-0.21671474
164	0x3b8d8223	0.004318492
165	0x3d21ab63	0.039470088
166	0xbd098e39	-0.0335829
167	0x3b64f685	0.0034936976
168	0xbd1b5599	-0.03792343
169	0xbd562bf2	-0.052288003
170	0x3e0cc8e3	0.13748507
171	0x3d79c6a9	0.060980473
172	0x3e40891c	0.18802303
173	0x3d34c9d2	0.044137783
174	0x3d5e59c4	0.054284826
175	0xbe49b085	-0.19696243
176	0xbdca7d56	-0.09887187
177	0xbc7da1ba	-0.015480453
178	0x3e3f5b2c	0.18687123
179	0x3ea27580	0.3173027
180	0x3d81692f	0.0631889
181	0xbe330588	-0.17482579
182	0x3e173db5	0.14769633
183	0xbdb34e66	-0.08755188
184	0xbd9705ce	-0.07374154
185	0x3d00830a	0.03137497
186	0xbe1c1811	-0.15243556
187	0x3dc261f4	0.09491339
188	0xbdd03575	-0.10166446
189	0x3e09d7c2	0.13461211
190	0xbdb907c9	-0.09034688
191	0x3e13b6a9	0.14425148
192	0xbdf7f4e8	-0.12107259
193	0x39ab204c	0.00032639725
194	0xbdf16349	-0.11786515
195	0x3c99f2d7	0.018792553
196	0x3d024d06	0.031811737
197	0xbe039eba	-0.12853518
198	0xbe0802fc	-0.13282388
199	0x3d9ad804	0.07560733
200	0xbde2c864	-0.11073378
201	0x3e16bd88	0.14720738
202	0xbd7535f3	-0.059865903
203	0xbd29b299	-0.04143009
204	0x3e02a7b1	0.12759282
205	0x3c881cf8	0.016615376
206	0xbd8b7e5c	-0.068112105
207	0x3d501bd7	0.0508078
208	0xbdb99c55	-0.09063021
209	0xbcac1dbc	-0.021010272
210	0x3dc97af9	0.09837908
211	0xbcedb719	-0.029017972
212	0xbdeda141	-0.11603022
213	0xbdbb24ac	-0.09137854
214	0x3df1be19	0.118038364
215	0xbd8c7b4e	-0.06859456
216	0xbd2ae5f9	-0.041723225
217	0x3c095547	0.008382148
218	0x3c6f037b	0.014588232
219	0xbd907ff8	-0.07055658
220	0x3d145b24	0.03621973
221	0xbe2f1436	-0.17097554
222	0xbdd3ecb6	-0.103478834
223	0xbb00df87	-0.0019664483
224	0x3dfd3918	0.123644054
225	0xbdaea436	-0.085274145
226	0xbd83359f	-0.06406712
227	0xbd4c27e6	-0.049842738
228	0x3d5f3bd5	0.05450042
229	0xbe2ca918	-0.16861379
230	0x3ddc886c	0.10768208
231	0x3dcd5004	0.100250274
232	0xbe22993e	-0.1587877
233	0xbd571b06	-0.052516006
234	0xbdc28a41	-0.09499026
235	0x3dd6cfe9	0.104888745
236	0xbdae27bf	-0.08503675
237	0xbc8c2b81	-0.017110588
238	0xbd96d916	-0.073656246
239	0x3e53bd01	0.20677568
240	0x3cbf5a1b	0.023358395
241	0x3d33b452	0.04387314
242	0x3debf2aa	0.11520894
243	0x3d7c33e3	0.06157292
244	0x3db3cec5	0.087796725
245	0x3e2b13c1	0.16706754
246	0x3ea04f07	0.31310293
247	0xbd2ac987	-0.041696098
248	0xbccfafca	-0.025352377
249	0x3ad04ce9	0.0015892062
250	0x3e41d8cf	0.18930362
251	0x3dfa6b0d	0.122274496
252	0xbd67a14f	-0.05655032
253	0xbdba81fb	-0.09106823
254	0x3db2326b	0.08701023
255	0xbd988daa	-0.07448895

weight_hh_l0 f4 [128, 32]
0	0x3e44173d	0.1914949
1	0x3c2e2639	0.01062923
2	0x3e2be368	0.16785967
3	0x3c3e0e97	0.011600158
4	0xbcc8931d	-0.024484212
5	0xbe39bffd	-0.18139644
6	0x3df2f552	0.118631974
7	0xbdb9e722	-0.09077288
8	0xbee7f6f3	-0.45305595
9	0x3dfa3168	0.12216455
10	0x3e6a1db8	0.228629
11	0x3d99583c	0.074875325
12	0x3e865550	0.26236963
13	0x3ddac0b3	0.10681286
14	0xbdf21b78	-0.118216455
15	0xbcabf91c	-0.020992808
16	0xbdcc07c4	-0.09962419
17	0x3e97a683	0.29619226
18	0xbe1e06d9	-0.154323
19	0xbe6de416	-0.23231539
20	0xbe647a18	-0.223122
21	0xbe017c60	-0.12645102
22	0x3d9a49f7	0.07533639
23	0x3e0cc0b2	0.13745382
24	0xbe9547b3	-0.29156265
25	0x3e9d1033	0.30676422
26	0xbe314609	-0.17311873
27	0xbd8c305f	-0.068451636
28	0xbda0d459	-0.07853002
29	0xbc781658	-0.015142046
30	0x3a1193b5	0.0005553321
31	0xbe827e99	-0.2548721
32	0x3f6f3062	0.934332
33	0xbd457128	-0.048203617
34	0x3ebde6bc	0.370901
35	0x3d7285b5	0.059209544
36	0x3e494e92	0.19658878
37	0xbe838d2c	-0.25693643
38	0x3e091872	0.13388231
39	0xbe6b417b	-0.22974198
40	0xbee70e4a	-0.4512809
41	0x3ef31dd3	0.47483692
42	0x3ebce805	0.36895767
43	0xbe044ff8	-0.1292113
44	0x3e180ea1	0.1484933
45	0x3e0704ca	0.1318542
46	0x3ddeaea0	0.10873151
47	0x3eab905c	0.33508575
48	0xbe4719a3	-0.19443373
49	0x3f449662	0.76791966
50	0x3bbd7d3a	0.0057827504
51	0xbf2c1927	-0.6722588
52	0xbe615408	-0.22004712
53	0x3e4d6a23	0.20060019
54	0x3f05411d	0.5205248
55	0xbed11992	-0.4083982
56	0xbd78311a	-0.060593702
57	0x3f00ca4e	0.5030869
58	0xbed499b4	-0.41523516
59	0xbccdd8de	-0.025127824
60	0xbe1ebdef	-0.15502141
61	0x3ea2cc8e	0.31796688
62	0x3e631336	0.22175297
63	0xbea96672	-0.33085972
64	0x3e25ea6c	0.16202706
65	0x3b8298c1	0.003985495
66	0x3dd6950c	0.10477647
67	0xbd82ec26	-0.06392698
68	0x3e02334e	0.12714884
69	0xbd605198	-0.054765314
70	0xbd574679	-0.052557442
71	0xbe30b4c0	-0.1725645
72	0xbe861ba1	-0.26192954
73	0x3b0d657d	0.0021575384
74	0x3d2cbdcf	0.042173203
75	0xbe1e4e51	-0.15459563
76	0x3cb3171f	0.021861611
77	0x3e81aced	0.25327244
78	0x3df18f3e	0.117948994
79	0x3e60ab59	0.21940364
80	0xbe942df7	-0.28941318
81	0x3e7b5a49	0.2454616
82	0x3e924ecc	0.28575742
83	0xbd4afdf1	-0.049558584
84	0xbde5478a	-0.111952856
85	0x3dce7a5f	0.10081934
86	0x3e2c0ed8	0.16802537
87	0xbe07500c	-0.13214129
88	0xbe4221a1	-0.18958141
89	0x3d9d0007	0.07666021
90	0xbe1a63e5	-0.15077169
91	0xbe9017a3	-0.28143033
92	0xbe973bcc	-0.2953781
93	0xbe561066	-0.20904693
94	0x3ded6af9	0.11592669
95	0xbd9a580f	-0.07536327
96	0x3ed29123	0.41126356
97	0xbe4fae45	-0.20281322
98	0x3e931a54	0.28731024
99	0x3dc6899b	0.09694215
100	0x3e2a6b4d	0.16642494
101	0xbed49d8e	-0.41526455
102	0xbdf1ca6d	-0.11806188
103	0xbe2deb81	-0.16984369
104	0xbeb16054	-0.34643805
105	0x3e8449e5	0.25837627
106	0x3e24cae5	0.16093023
107	0xbeaace35	-0.33360448
108	0x3eb7a448	0.35867524
109	0x3e2ccc8a	0.168749
110	0x3eb15d22	0.34641367
111	0x3dd739b6	0.10509054
112	0xbdae1c8e	-0.0850154
113	0x3e8ec41f	0.27884004
114	0x3e18add9	0.14910068
115	0xbeb1dd8e	-0.34739345
116	0xbee281a0	-0.4423952
117	0x3eafb9ee	0.3432154
118	0x3e4fe874	0.20303518
119	0xbe6e3f12	-0.23266247
120	0x3d918397	0.07105177
121	0x3e1d56ee	0.15365192
122	0xbe7b7df9	-0.24559774
123	0xbc1dd6dc	-0.009633746
124	0xbe8eb94e	-0.2787575
125	0x3e8c093c	0.27350795
126	0x3dbdfcb5	0.09276716
127	0xbddd5729	-0.1080764
128	0x3e8f1a30	0.27949667
129	0x3d759f11	0.05996615
130	0x3e57c56d	0.21071406
131	0xbdbc01ec	-0.09180054
132	0x3e8d62cd	0.27614442
133	0xbd0caf20	-0.0343467
134	0xbe1d73ec	-0.15376252
135	0xbd8cf479	-0.06882567
136	0xbe9ac1ff	-0.30226132
137	0x3de600b8	0.11230606
138	0xbc3d505a	-0.011554802
139	0xbe876a7e	-0.26448435
140	0xbdb4a6e7	-0.088208966
141	0x3e3522cd	0.17689057
142	0x3e835dec	0.25657594
143	0x3de5db3d	0.11223457
144	0xbdfa4a81	-0.12221242
145	0xbdeb5ffe	-0.114929184
146	0x3d6217cc	0.055198476
147	0xbe5a213e	-0.21301743
148	0xbd02b7fe	-0.03191375
149	0x3e477cf3	0.19481258
150	0x3d940d19	0.07229061
151	0x3d4e384a	0.05034665
152	0x3d205b2b	0.039149445
153	0x3e6a9190	0.2290709
154	0xbe6fe5b3	-0.23427467
155	0xbe2c895b	-0.16849272
156	0xbe107951	-0.14108779
157	0x3e128831	0.14309765
158	0x3e4bcd05	0.19902427
159	0x3cb02d4e	0.021505978
160	0x3e24dd66	0.16100082
161	0xbe4521f1	-0.19251229
162	0x3e026f8d	0.12737866
163	0x3d125c40	0.035732508
164	0x3e0fe15e	0.14050815
165	0xbe1db205	-0.1539994
166	0x3d22e47a	0.039768673
167	0x3dc9c13e	0.09851311
168	0xbdb7cad6	-0.08974235
169	0x3dede551	0.11616004
170	0x3e005539	0.1253251
171	0xbdb0717f	-0.08615398
172	0x3d93369d	0.07188151
173	0xbadbcfcb	-0.0016770301
174	0xbc12951b	-0.008946682
175	0xbd27153e	-0.040791743
176	0x3d23de04	0.040006652
177	0xbd15be84	-0.036558643
178	0x3d59f0a7	0.05320802
179	0xbdbe9198	-0.093051136
180	0xbe360501	-0.17775346
181	0x3d43f2b9	0.0478389
182	0x3e55a87c	0.20865053
183	0xbe7425c0	-0.23842525
184	0xbd92a0fe	-0.07159613
185	0xbd75d625	-0.060018677
186	0xbdf65d3d	-0.120295025
187	0xbe3c35f0	-0.1837995
188	0xbe1c4e29	-0.1526419
189	0x3d11cdd3	0.03559668
190	0xbd26d5e3	-0.040731322
191	0x3d59e543	0.053197157
192	0x3eeb3af9	0.4594343
193	0x3e685833	0.22689895
194	0x3e90ffc8	0.28320146
195	0x3e40b8eb	0.1882054
196	0x3ed12d0d	0.40854684
197	0xbee84258	-0.45363116
198	0xbe429445	-0.19001873
199	0xbecf8fce	-0.40539402
200	0xbdb62676	-0.088940546
201	0x3ee82a77	0.45344898
202	0x3e5baee0	0.21453428
203	0xbe8fb9c1	-0.28071406
204	0xbe0983b8	-0.13429153
205	0x3e9105b5	0.28324667
206	0x3e0bd59a	0.13655701
207	0x3ed27c26	0.41110343
208	0xbe822453	-0.25418338
209	0x3e7bc71d	0.24587674
210	0x3e654be7	0.22392236
211	0xbdddb631	-0.10825766
212	0xbe93be3e	-0.2885608
213	0x3d92bfc8	0.071654856
214	0x3e426ea7	0.18987523
215	0xbeaf4cfd	-0.34238425
216	0x3c1cdddb	0.009574379
217	0x3ed2d5f5	0.4117886
218	0xbeac127b	-0.3360785
219	0xbe7d4dbf	-0.24736689
220	0xbec220b7	-0.37915584
221	0xbe15208c	-0.14563197
222	0x3ec45625	0.38346973
223	0xbe724b25	-0.23661478
224	0x3de07bcd	0.10961113
225	0x3e732ec2	0.23748305
226	0x3e8ac4d8	0.27103305
227	0x3e73b4af	0.23799394
228	0x3e3e7568	0.18599474
229	0xbe8b3de1	-0.27195647
230	0xbd9a5aad	-0.07536826
231	0xbe7548ce	-0.23953554
232	0xbde750ec	-0.112947315
233	0x3e99ab41	0.3001347
234	0x3e5b38c9	0.2140838
235	0xbe23818a	-0.15967384
236	0x3e0fe236	0.14051136
237	0x3eb75bf5	0.35812345
238	0x3dd6b3bf	0.104835026
239	0x3eadb2d8	0.3392551
240	0xbe964abf	-0.29353902
241	0x3b35d423	0.0027744852
242	0x3e8df3ba	0.2772501
243	0xbbd9ee38	-0.0066507123
244	0xbe9d18be	-0.3068294
245	0xbe0ee4b3	-0.1395443
246	0x3e60ed30	0.2196548
247	0xbd8a7ffa	-0.06762691
248	0x3e0e33d3	0.13886957
249	0x3eb5047d	0.35354987
250	0xbc7e0e74	-0.015506376
251	0xbde0330c	-0.109472364
252	0xbd0be4a0	-0.03415358
253	0xbc906693	-0.017627036
254	0x3dde4e30	0.10854757
255	0xbe432c4d	-0.19059868

bias_ih_l0 f4 [128]
0	0x3d767a61	0.060175303
1	0x3eb2e8f7	0.34943363
2	0x3e3fb770	0.1872232
3	0x3e84fc9c	0.25973976
4	0x3d8e2a2c	0.069416374
5	0x3b4e18bf	0.0031447855
6	0x3ec3a408	0.38211083
7	0x3d109fa0	0.03530848
8	0xbe372e49	-0.1788875
9	0x3d8bfd92	0.06835474
10	0x3e02117c	0.12701982
11	0x3e7e6fea	0.2484738
12	0xbe810ef2	-0.25206715
13	0xbc1ee9c0	-0.009699285
14	0x3d290ccd	0.041271973
15	0x3e80006c	0.25000322
16	0x3c7554fa	0.014973873
17	0x3e4b1e91	0.19835879
18	0xbd6b431c	-0.057437047
19	0xbafb4dff	-0.0019173025
20	0xbd0da6cd	-0.0345829
21	0x3e5f4b51	0.21806075
22	0xbda3010a	-0.079591826
23	0x3b89cdf9	0.004205462
24	0xbceb3fa8	-0.028716877
25	0x3dd8751b	0.10569211
26	0xbe7fefae	-0.24993774
27	0x3db188c2	0.086686626
28	0x3e5ee802	0.21768191
29	0x3ea8010f	0.32813308
30	0x3b92091d	0.004456653
31	0x3dd0b2fd	0.10190389
32	0x3dcffb7e	0.1015539
33	0x3db7e013	0.08978286
34	0x3ea72de0	0.32652187
35	0x3e9e8594	0.30961287
36	0x3dd13d58	0.102167785
37	0xbc507d99	-0.012725257
38	0x3dfd43d9	0.123664565
39	0xbc03c718	-0.008043073
40	0x3c0f19de	0.008734195
41	0x3e3ea5d5	0.18617947
42	0xbd0fcf46	-0.03510978
43	0x3eb7ed62	0.35923296
44	0x3c8799a6	0.016552757
45	0x3cac3928	0.021023348
46	0x3eb6fee2	0.35741335
47	0x3e9fbb7d	0.3119773
48	0x3e51f332	0.20502928
49	0x3ebcb831	0.36859277
50	0x3e7c9130	0.2466476
51	0xbe0a0f2d	-0.13482352
52	0xbde2696b	-0.11055263
53	0x3dcbabc7	0.09944873
54	0xbb1c10ba	-0.002381368
55	0x3e63c324	0.22242409
56	0x3e153c81	0.14573862
57	0x3da189af	0.07887589
58	0x3de0c1a4	0.10974434
59	0x3ea259f4	0.31709254
60	0x3e3b5e48	0.18297684
61	0xbd026a9d	-0.031839956
62	0x3eb726bf	0.35771748
63	0xbc4eba5a	-0.012617672
64	0xbcc62412	-0.024187122
65	0x3c919b7c	0.017774336
66	0xbdc4eac4	-0.096150905
67	0x3dde648a	0.1085902
68	0xbde22eb0	-0.11044061
69	0x3c12968d	0.008947027
70	0xbda16763	-0.078810476
71	0x3d163016	0.036666952
72	0x3e16f3fe	0.14741513
73	0xbe561ec6	-0.20910177
74	0x3e0399b9	0.1285161
75	0xbe57d644	-0.2107783
76	0xbe0c0d9f	-0.13677071
77	0x3e2e481f	0.170197
78	0xbca8f08e	-0.020622518
79	0x3ded0980	0.115740776
80	0xbe03aea0	-0.12859583
81	0xbe9b8b0e	-0.30379528
82	0x3e088b39	0.13334359
83	0xbd03f378	-0.03221461
84	0x3c86d6fb	0.016459933
85	0xbcc88a20	-0.024479926
86	0x3cda7596	0.026667397
87	0xb9968a21	-0.00028713144
88	0xbe59f716	-0.21285662
89	0x3d3358c4	0.043785825
90	0xbedb8d6f	-0.42881343
91	0xbe8dff95	-0.27734056
92	0xbd243653	-0.04009087
93	0x3e1c1052	0.152406
94	0x3d379493	0.044819426
95	0x3e41f3b2	0.18940619
96	0xbe1cc0fb	-0.15307991
97	0x3e80172f	0.25017688
98	0x3e1d82f8	0.15381992
99	0xbdda54a4	-0.10660675
100	0x3ddec072	0.1087655
101	0x3dc4a3f8	0.09601587
102	0xbc36d1e5	-0.011158441
103	0x3e895e8a	0.2682994
104	0xbec40479	-0.38284662
105	0x3e8a2753	0.26983127
106	0x3e3ec9c6	0.18631658
107	0x3e5ccbdc	0.21562141
108	0xbe249f5a	-0.16076413
109	0xbcc28beb	-0.023748359
110	0x3f01fea3	0.5077917
111	0x3e2cff39	0.16894235
112	0x3ea2483d	0.31695738
113	0x3e0b628d	0.13611813
114	0xbdddd503	-0.108316444
115	0x3d8b5813	0.06803908
116	0xbce3ca06	-0.027806293
117	0x3c2eb213	0.010662573
118	0xbdb4d4f4	-0.0882968
119	0x3de515b3	0.111857794
120	0x3eb94c31	0.36190942
121	0x3e1fbd33	0.15599518
122	0x3e77513e	0.24152085
123	0xbd121aa3	-0.035669934
124	0x3e47b1fd	0.19501491
125	0x3f034e5d	0.5129145
126	0xbd0b32b4	-0.0339839
127	0x3e3319a2	0.17490247

bias_hh_l0 f4 [128]
0	0x3ea0fb31	0.31441644
1	0x3dadfb96	0.08495252
2	0xbdb04995	-0.08607785
3	0x3eb39139	0.35071734
4	0x3e13720b	0.14398973
5	0xbdc660d7	-0.096864395
6	0x3e99803c	0.29980648
7	0x3e3df7b6	0.18551525
8	0xbb3bada8	-0.0028637443
9	0xbd5b09f8	-0.053476304
10	0x3c7c9f95	0.015418907
11	0xbcbb8601	-0.022891046
12	0xbdfc541f	-0.12320732
13	0x3de81eeb	0.11334022
14	0x3e0b5d2b	0.1360976
15	0xbd263e26	-0.040586613
16	0x3e0afdf1	0.13573433
17	0x3cab2aae	0.020894375
18	0xbd8f903a	-0.07009931
19	0x3d128678	0.03577277
20	0x3df41314	0.11917701
21	0x3e3315e3	0.17488818
22	0xbd5dfe23	-0.05419744
23	0x3d9c10ad	0.07620368
24	0xbd9b9dc2	-0.07598449
25	0xbbbc8eb2	-0.0057543153
26	0xbd5df7ff	-0.054191586
27	0x3e714195	0.23560174
28	0x3de740fb	0.11291691
29	0x3eece2c5	0.4626676
30	0x3d14a91f	0.0362941
31	0x3dc15b55	0.09441248
32	0x3db86e20	0.0900538
33	0xbdedf217	-0.116184406
34	0x3ea95de2	0.3307944
35	0x3e397a04	0.18112952
36	0x3d8c63fd	0.06855009
37	0x3e5a964e	0.21346399
38	0x3e07c904	0.13260275
39	0x3d59c644	0.053167596
40	0x3db6f502	0.0893345
41	0xbd34e500	-0.044163704
42	0xbe0b18ec	-0.13583726
43	0x3e4e3856	0.20138678
44	0x3e3eab56	0.18620047
45	0x3e9e5d1c	0.30930412
46	0x3edc649c	0.4304551
47	0x3e59616b	0.21228568
48	0x3e00f534	0.12593538
49	0x3e08d24a	0.13361469
50	0xbbf62207	-0.0075113806
51	0xbd9dd553	-0.07706704
52	0xbd97e8a0	-0.074174166
53	0x3df8a8bd	0.12141559
54	0xbe0a3f15	-0.13500626
55	0x3de63cda	0.11242075
56	0x3ba2a497	0.0049634683
57	0x3e203ec0	0.15648937
58	0x3d97cb96	0.07411878
59	0x3ddf1a54	0.108936936
60	0x3d51c1f0	0.051210344
61	0x3e9e2f39	0.30895403
62	0x3e08de19	0.13365974
63	0xbdd53a2d	-0.10411487
64	0xbdacd355	-0.08438746
65	0x3dda28de	0.10652326
66	0x3ba95008	0.005167011
67	0x3de7dd13	0.113214634
68	0x3e262c75	0.16227897
69	0xbe0ed208	-0.13947308
70	0x3e221388	0.15827763
71	0x3c01f69c	0.007932331
72	0xbd6f6ca0	-0.058453202
73	0xbe655ae0	-0.22397947
74	0x3e3c8abe	0.18412301
75	0xbe6bed92	-0.23039845
76	0x3dcf6ed4	0.10128561
77	0xbc669229	-0.014072933
78	0x3e56317b	0.20917313
79	0x3d97b038	0.07406658
80	0xbcc42e94	-0.023947991
81	0xbd185e97	-0.037199583
82	0x3e8b99c0	0.2726574
83	0x3e11abfd	0.14225765
84	0x3d4f8ac2	0.05066944
85	0x3d26e770	0.04074806
86	0xbe859450	-0.26089716
87	0x3bf65d06	0.0075184135
88	0xbeb308da	-0.3496769
89	0xbdd16ed1	-0.10226215
90	0xbee146a8	-0.4399922
91	0xbdf8dae0	-0.12151122
92	0xbe3b2e75	-0.1827944
93	0xbd18e072	-0.037323423
94	0x3e4eac74	0.20182973
95	0xbe090d3d	-0.13383956
96	0x3c0d0f3e	0.008609591
97	0x3e160ace	0.14652559
98	0x3e77b1bd	0.24188896
99	0xbd54f9d0	-0.051996052
100	0x3e8f3dc9	0.27976826
101	0xbe2ea320	-0.17054415
102	0xbe27227f	-0.16321753
103	0x3e81a0e3	0.2531806
104	0xbeae8b5d	-0.340907
105	0x3e8aaf65	0.2708694
106	0x3e403935	0.18771823
107	0x3ec9dd9f	0.39426896
108	0xbe76ed23	-0.24113898
109	0x3dc62492	0.09674944
110	0x3e3b8988	0.18314183
111	0x3e69395f	0.22775792
112	0x3ec41403	0.38296518
113	0xbafbf296	-0.0019222077
114	0xbb166093	-0.0022945746
115	0xbdf6bf5d	-0.120482184
116	0xbd5238f1	-0.051323835
117	0x3d49181a	0.04909525
118	0xbe1acae4	-0.15116459
119	0x3e81c359	0.2534435
120	0x3e8f1764	0.27947533
121	0x3e8f3627	0.27971002
122	0x3dc06314	0.09393898
123	0x3dc54857	0.09632938
124	0x3e753cb3	0.23948936
125	0x3ef96a16	0.4871375
126	0xbbb6fffb	-0.0055847145
127	0x3e82b787	0.25530645

weight_ih_l0_reverse f4 [128, 32]
0	0x3e25c459	0.16188182
1	0x3e1ccbd8	0.15312135
2	0x3e2f5f98	0.1712631
3	0x3dbefae6	0.09325199
4	0x3e6bc244	0.23023325
5	0x3e0cf1f7	0.13764177
6	0x3d4007b6	0.046882354
7	0x3e3bf749	0.1835605
8	0x3aa39009	0.0012478839
9	0xbf0e8baa	-0.5568186
10	0x3d0520e1	0.03250206
11	0xbe3c227a	-0.18372527
12	0xbe0848f7	-0.13309084
13	0x3e56c8d1	0.20975043
14	0x3d5b8578	0.053594083
15	0xbc610e3c	-0.013736304
16	0x3e1cdd6d	0.15318842
17	0x3d8cc439	0.06873364
18	0x3e340461	0.17579795
19	0x3d758132	0.059937663
20	0x3e2c8b21	0.16849948
21	0x3d0a59e6	0.03377714
22	0x3e1bc444	0.15211588
23	0x3d8a3c1d	0.06749747
24	0x3db456ba	0.08805604
25	0x3de62db1	0.11239184
26	0x3d832eac	0.06405386
27	0xbd3f8ca4	-0.046764985
28	0x3d67d80e	0.05660253
29	0xbc3b974c	-0.011449646
30	0x3b9282e1	0.0044711684
31	0x3d74e64f	0.059789952
32	0xbd27d2b1	-0.040972415
33	0xbbcaf463	-0.006193684
34	0xbdee1c7d	-0.116265275
35	0xbd7f2ff3	-0.062301587
36	0xbe41263e	-0.18862244
37	0xbc74e128	-0.01494626
38	0xbde3649f	-0.11103176
39	0x3cb3de4c	0.021956585
40	0xbe0f2dec	-0.13982362
41	0x3f5669d9	0.8375526
42	0x3bb82af5	0.0056203553
43	0x3f14415f	0.5791225
44	0x3ea8368e	0.32854122
45	0xbd3dc810	-0.046333373
46	0xbd11f42c	-0.03563325
47	0xbcfe0848	-0.031009808
48	0xbc3d41d3	-0.011551338
49	0xbd5a0a45	-0.05323245
50	0xbdba52d9	-0.09097833
51	0xbe15001e	-0.14550826
52	0xbd83cdea	-0.06435759
53	0xbd92a345	-0.071600474
54	0xbe0cee28	-0.13762724
55	0xbca85aa2	-0.02055103
56	0xbd14f655	-0.036367733
57	0xbcba8465	-0.022768209
58	0xbe0b2f40	-0.13592243
59	0x3dfd9576	0.12382023
60	0xbd0c37d7	-0.03423294
61	0xbeb1850a	-0.34671813
62	0xbd38ac7b	-0.045086365
63	0xbc252f01	-0.010082007
64	0x3da5d743	0.080976985
65	0xbc9ff084	-0.019523866
66	0x3e2043f4	0.15650922
67	0x3c187c22	0.009306939
68	0xbc4e4dd1	-0.012591795
69	0x3e10d6d3	0.14144449
70	0x3e2c63df	0.16834973
71	0xbdb5f282	-0.08884145
72	0xbdbf28b2	-0.09333934
73	0x3f01d79c	0.5071962
74	0xb79618b1	-1.7892891e-05
75	0x3e1ec191	0.15503527
76	0x3e315737	0.17318426
77	0x3cdf2694	0.027240075
78	0x3da78cda	0.08181162
79	0xbb2e8d61	-0.0026634561
80	0x3e2fa161	0.17151405
81	0xbe15a635	-0.14614184
82	0x3e725cf6	0.23668274
83	0x3e099e69	0.13439335
84	0x3cb7ab05	0.022420416
85	0x3c81a206	0.01582433
86	0xbd61ef4e	-0.05515986
87	0xbd5b0bcf	-0.05347806
88	0x3a8195c6	0.0009886555
89	0x3e30620d	0.17224903
90	0xbd9270b6	-0.07150404
91	0xbbe0bb72	-0.0068582827
92	0x3da6036d	0.08106122
93	0xbe1af51b	-0.15132563
94	0xbc47e783	-0.012201193
95	0x3d0a8a70	0.03382343
96	0x3d2513f7	0.040302243
97	0xbd99a954	-0.07503
98	0xbdce6445	-0.10077719
99	0x3cf58150	0.029968888
100	0xbcde52e1	-0.02713913
101	0xbe49a580	-0.1969204
102	0xbe159d71	-0.1461084
103	0xbb9b1117	-0.004732262
104	0xbe2cc1a1	-0.16870739
105	0x3f859ad4	1.0437875
106	0x3c76273a	0.015024001
107	0x3f6237fc	0.88366675
108	0x3f1bc84d	0.6085251
109	0xbcc2e795	-0.023792068
110	0xbe01f95a	-0.12692776
111	0x3d9fe566	0.07807426
112	0xbd67a004	-0.056549087
113	0xbd5f1055	-0.054458935
114	0x3bc27876	0.00593477
115	0xbe883296	-0.26601094
116	0xbe193574	-0.14961797
117	0xbde718be	-0.11284016
118	0xbdc9d705	-0.09855465
119	0x3d82b1b3	0.0638155
120	0xbd86f10c	-0.06588945
121	0x3c2258c0	0.009908855
122	0xbddfa7ae	-0.10920654
123	0x3d340133	0.043946456
124	0xbd549b57	-0.051905956
125	0xbe475eae	-0.19469711
126	0xbe0de2af	-0.13856004
127	0xbd9dbb0f	-0.07701694
128	0x3cf36918	0.029713199
129	0x3d33c579	0.043889496
130	0x3e5b4927	0.21414624
131	0x3e51fe64	0.20507199
132	0x3e8cbb28	0.2748654
133	0x3db6e044	0.08929494
134	0x3e09f256	0.1347135
135	0x3e2690ce	0.16266176
136	0x3d394261	0.04522932
137	0xbede0d7a	-0.43369657
138	0x3da3916d	0.07986722
139	0xbef2b00f	-0.47399947
140	0xbf0111ea	-0.5041796
141	0x3e7a2dbf	0.24431513
142	0x3d6c6e25	0.05772223
143	0x3dce3672	0.10068978
144	0x3de01739	0.10941929
145	0x3d2ff8d6	0.042961918
146	0x3e1f055f	0.15529393
147	0x3e54fcd4	0.20799571
148	0x3df77851	0.120834954
149	0x3d9d2469	0.0767296
150	0xbdec24ae	-0.115304336
151	0x3d6ce5d4	0.05783637
152	0x3cd83dc0	0.026396632
153	0x3db51506	0.088419005
154	0x3ec39d18	0.3820579
155	0x3be2e248	0.0069239475
156	0x3d85418f	0.06506645
157	0x3e26bab3	0.16282158
158	0x3d77e5fe	0.060522072
159	0x3e516dc6	0.20452031
160	0x3d8273e4	0.06369761
161	0x3e0e7c23	0.13914542
162	0x3d729b23	0.05922998
163	0xbdb7672f	-0.089552276
164	0xbdc2932f	-0.09500729
165	0x3c29f411	0.010373131
166	0x3d1224dc	0.035679683
167	0x3e423c64	0.1896835
168	0x3d42c97b	0.047555428
169	0x3f317cce	0.6933106
170	0xbcb6620a	-0.022263546
171	0x3ecfe4ec	0.4060434
172	0x3d3dc20a	0.04632763
173	0xbc955f44	-0.018233903
174	0x3de34f9b	0.11099168
175	0xbe1ebb1a	-0.15501061
176	0x3d912618	0.07087344
177	0xbda50c99	-0.080590434
178	0x3daf03c9	0.08545644
179	0x3c01f1d5	0.007931192
180	0xbd9a8bd8	-0.07546204
181	0x3db5345a	0.08847876
182	0xbe866028	-0.26245236
183	0xbc811ddb	-0.015761307
184	0x3df098c9	0.117478915
185	0x3e2559f9	0.16147603
186	0x3dc3686b	0.095414005
187	0xbd3e4c4c	-0.04645948
188	0x3bc91c61	0.006137416
189	0x3d300a78	0.042978734
190	0xbe132328	-0.1436888
191	0x3dfadac7	0.1224876
192	0x3e01b140	0.12665272
193	0xbc5995f8	-0.013280384
194	0xbd93e749	-0.072218485
195	0xbd9d0e3e	-0.07668732
196	0xbd858953	-0.06520333
197	0xbd922719	-0.071363635
198	0xbd3b64b0	-0.04575032
199	0x3d2ea4f8	0.042637795
200	0x3de27b1f	0.1105864
201	0x3eef76e7	0.46770403
202	0xbcbf681f	-0.023365078
203	0x3f0076e0	0.5018139
204	0x3ee7c169	0.45264748
205	0xbe2f1de5	-0.17101248
206	0x3e0571da	0.13031712
207	0x3bfa87f8	0.0076456033
208	0x3df7cb42	0.12099315
209	0xbda26896	-0.079301044
210	0xbb9a4509	-0.0047079367
211	0x3db58589	0.088633604
212	0xbe096257	-0.1341642
213	0xbe0a4309	-0.13502134
214	0xbe115a48	-0.14194596
215	0xbdbf2883	-0.09333899
216	0x3d372f9e	0.044723146
217	0xbe1f3f15	-0.15551408
218	0xbe03f277	-0.12885462
219	0x3d5f5dd3	0.054532837
220	0x3d32ec73	0.043682527
221	0xbe7ea17b	-0.24866287
222	0x3de2516e	0.11050688
223	0xbe24cb08	-0.16093075
224	0xbe0fc044	-0.14038187
225	0xbdb2786b	-0.08714374
226	0x3c7f0df0	0.015567288
227	0x3d255f60	0.04037416
228	0xbc69f2f1	-0.014279113
229	0xbd8d86fa	-0.0691051
230	0xbe2d2efd	-0.16912456
231	0xbdfee286	-0.1244555
232	0x3c2c5ea5	0.010520612
233	0x3daf5fab	0.08563169
234	0xbe3d888f	-0.18509124
235	0x3e9c4b8c	0.30526388
236	0x3eef2f62	0.46715838
237	0xbdac48a4	-0.084122926
238	0xbd1bdd2c	-0.038052723
239	0x3d84c16e	0.06482206
240	0xbdee94df	-0.11649489
241	0xbe5a2b9a	-0.21305695
242	0x3d197b94	0.03747137
243	0x3ceaa671	0.028643819
244	0x3d972983	0.073809646
245	0xbd8d6da1	-0.06905676
246	0x3e405ad9	0.18784656
247	0xbd0976a2	-0.033560403
248	0x3bf66731	0.0075196256
249	0xbd7d8ea3	-0.061903607
250	0xbdb24dd6	-0.08706252
251	0x3d839735	0.06425325
252	0x3e2b9785	0.16757019
253	0xbca759a8	-0.020428494
254	0xbd1c7eb1	-0.03820676
255	0x3d9c119b	0.076205455

weight_hh_l0_reverse f4 [128, 32]
0	0xbe172d08	-0.14763272
1	0x3e3248c1	0.17410566
2	0xbcdbf71c	-0.02685123
3	0x3e0caf8d	0.13738842
4	0x3dec9280	0.1155138
5	0x3e2b48dd	0.16727014
6	0x3d923e11	0.071407445
7	0x3d936343	0.07196667
8	0x3be5aa83	0.007008852
9	0x3e0eefbf	0.13958643
10	0x3c2bb6cb	0.010480593
11	0xbda463d6	-0.08026855
12	0xbd5e6cd5	-0.05430301
13	0x3dd986a8	0.10621387
14	0xbd60b63b	-0.05486129
15	0xbe12685c	-0.14297622
16	0xbd46ebc1	-0.048564676
17	0x3ddb0d5e	0.10695909
18	0xbde0a920	-0.10969758
19	0x3c992d72	0.018698428
20	0x3bd1f02e	0.0064068055
21	0x3d2cebd3	0.042217087
22	0xbe0bdf54	-0.13659412
23	0xbd8a5e7b	-0.06756302
24	0xbdd9e03d	-0.10638473
25	0x3d5b3fb4	0.05352755
26	0xbe24428c	-0.1604101
27	0x3dfe0f81	0.12405301
28	0x3dda44a9	0.10657627
29	0xbd579746	-0.0526345
30	0x3e14d02f	0.1453254
31	0x3dbaea8e	0.09126769
32	0x3da8f8c0	0.0825057
33	0x3cece22f	0.028916446
34	0x3e0845fe	0.1330795
35	0xbe0d0872	-0.13772753
36	0xbe085b0e	-0.13315985
37	0xbc3c9ce0	-0.011512011
38	0x3e30be30	0.17260051
39	0xbe0d5176	-0.13800606
40	0xbdd6ee60	-0.10494685
41	0xbcc71d84	-0.024306066
42	0xbd01c5e3	-0.03168286
43	0xbdc118f0	-0.094285846
44	0xbe012365	-0.12611158
45	0x3d9827c3	0.07429459
46	0xbdefaa6b	-0.117024265
47	0x3dd622f6	0.10455887
48	0xbd95e0c0	-0.07318258
49	0x3d752b98	0.059856027
50	0x3dc23d84	0.094843894
51	0x3ca1832f	0.019715874
52	0x3d32a83e	0.04361748
53	0xbd530180	-0.051515102
54	0x3dce28dc	0.10066387
55	0x3e0de657	0.13857399
56	0x3d6c498f	0.05768734
57	0xbaad0ad3	-0.0013202078
58	0xbdba6daf	-0.09102952
59	0xbcc5ddf2	-0.024153683
60	0x3dd9bbfa	0.10631557
61	0xbd537ed5	-0.05163463
62	0xbd1b3ed9	-0.037901733
63	0xbdce779a	-0.10081406
64	0x3d57cab7	0.05268356
65	0xbc838297	-0.016053481
66	0xbd4c4c72	-0.04987759
67	0xbe085c8d	-0.13316555
68	0x3cab4fde	0.020912107
69	0x3d80a71c	0.062818736
70	0x3d7161aa	0.05893103
71	0x3dde9e9e	0.108700976
72	0x3e05f7fe	0.13082883
73	0x3d9c60c3	0.07635643
74	0xbdfcf6d9	-0.1235177
75	0x3e15c61e	0.14626357
76	0xbdcab5fb	-0.09897991
77	0x3e1a66cb	0.15078275
78	0xbd9ea826	-0.077469155
79	0xbe2ee566	-0.17079696
80	0x3e050009	0.12988295
81	0x3e1d48fb	0.15359871
82	0x3e23df59	0.16003169
83	0xbdf28958	-0.118426025
84	0xbd2a6a58	-0.041605324
85	0xbb11da6b	-0.0022255431
86	0xbe1b8141	-0.15186025
87	0x3d178de9	0.03700057
88	0x3d88d516	0.06681268
89	0xbdafa614	-0.08576599
90	0x3e095507	0.13411342
91	0x3d7b7ca8	0.06139818
92	0xbe0dcad4	-0.13846904
93	0xbd01bf48	-0.03167656
94	0x3e1f8e47	0.15581618
95	0x3df9673f	0.12177896
96	0xbdc14b58	-0.09438199
97	0xbde548f7	-0.111955576
98	0xbd15f2f3	-0.036608648
99	0x3dd40b54	0.10353723
100	0xbe312c36	-0.17302021
101	0x3da4f752	0.08054985
102	0xbdab4477	-0.08362668
103	0xbe04617f	-0.12927817
104	0x3d250bcc	0.040294454
105	0x3e0f0c94	0.13969642
106	0xbe1a38dc	-0.15060753
107	0xbd2a9a57	-0.041651096
108	0xbda8dd73	-0.08245363
109	0x3c685a2d	0.014181656
110	0xbd87c94b	-0.066301905
111	0x3d106b47	0.035258558
112	0xbe09f36e	-0.13471767
113	0xbb0b2db2	-0.0021236953
114	0xbcb2532b	-0.021768173
115	0xba89d775	-0.0010516482
116	0xbc9f6c15	-0.019460717
117	0xbe19c07c	-0.15014833
118	0x3cdc1f76	0.02687047
119	0xbdf7db0e	-0.12102328
120	0xbda0a1ea	-0.07843383
121	0xbd8eab7d	-0.069663025
122	0x3e251103	0.1611977
123	0xbd8d0f8c	-0.06887731
124	0x3ddc37d2	0.107528344
125	0x3de8a565	0.113596715
126	0x3d030e6d	0.03199618
127	0x3d9561b4	0.07294026
128	0x3c25b493	0.010113853
129	0x3e10eab9	0.1415204
130	0xbd4c0dfa	-0.049818017
131	0x3e11512b	0.1419112
132	0x3db03dbb	0.08605524
133	0xbe0e9fbd	-0.13928123
134	0x3e2683b0	0.16261172
135	0xbd01b671	-0.03166813
136	0xbda47cf8	-0.080316484
137	0xbd024010	-0.031799376
138	0x3d93972e	0.072065696
139	0xbd8150df	-0.06314253
140	0x3df704ca	0.1206146
141	0x3e2109a5	0.15726335
142	0x3d6d4f41	0.05793691
143	0xbd916915	-0.07100121
144	0x3e00ae08	0.12566388
145	0x3e0ee278	0.13953578
146	0xbdd3b8c6	-0.10337977
147	0x3b97305f	0.0046139206
148	0x3dcddcb9	0.10051865
149	0x3dbbb24d	0.091648676
150	0xbe19817f	-0.14990805
151	0xbd9c2377	-0.07623952
152	0xbd1a9b65	-0.037745852
153	0x3dc5e36d	0.09662519
154	0xbe1f55e3	-0.15560107
155	0x3de270e9	0.11056692
156	0x3e2ec5c8	0.17067635
157	0xbdc7f3fa	-0.09763332
158	0x3cfe58a5	0.031048128
159	0xbb8f429f	-0.0043719555
160	0xbdefcb60	-0.117087126
161	0xbd7e3906	-0.0620661
162	0xbdb86276	-0.09003155
163	0xbd8db1df	-0.06918692
164	0x3e1c7cfe	0.15282056
165	0x3da79dc8	0.08184391
166	0xbe0f4187	-0.1398984
167	0xbde02b40	-0.10945749
168	0xbe332cf0	-0.17497611
169	0xbe349fdb	-0.17639105
170	0x3e218269	0.15772404
171	0x3d58e74e	0.052954964
172	0x3e3487b1	0.17629887
173	0x3dc4a562	0.09601857
174	0x3df48f6f	0.1194142
175	0x3c53ff10	0.01293923
176	0x3e17bb1b	0.14817469
177	0x3df48fe8	0.119415104
178	0x3df966b7	0.121777944
179	0x3def6a56	0.11690204
180	0xbdab8160	-0.08374286
181	0xbdb21485	-0.0869532
182	0xbe301dd1	-0.17198874
183	0x3dd69372	0.10477342
184	0xbe1ce1fb	-0.1532058
185	0x3c858136	0.016296964
186	0xbe2f3c3b	-0.1711282
187	0xbdd34d20	-0.10317445
188	0x3d333199	0.043748472
189	0x3e0ea32c	0.13929433
190	0x3e31124d	0.17292137
191	0xbdf3a8cb	-0.11897429
192	0xbdeff7ef	-0.117172115
193	0x3d91950c	0.071085066
194	0xbd58199a	-0.05275879
195	0x3e084236	0.13306507
196	0xbca93d24	-0.020659037
197	0x3c5a43d8	0.013321839
198	0x3e2e20c0	0.1700468
199	0x3d0d3ccd	0.034481812
200	0x3e06f3da	0.1317896
201	0x3dc07f41	0.09399272
202	0xbdd7017a	-0.104983285
203	0x3c824b33	0.015904998
204	0x3df5fd70	0.1201123
205	0x3e34e78a	0.1766645
206	0x3da501d4	0.08056989
207	0xbdbb26df	-0.091382734
208	0x3da46507	0.08027082
209	0xbd0bfe6d	-0.034178186
210	0x3dec5825	0.1154025
211	0x3e0ded25	0.13859995
212	0x3e0730b2	0.1320217
213	0xbb5103d4	-0.003189315
214	0x3e0c09fa	0.13675681
215	0x3cd2a232	0.025712106
216	0x3dc477e8	0.09593183
217	0xbd859045	-0.06521658
218	0x3d908ebb	0.07058474
219	0x3d78f81b	0.060783487
220	0xbd5720a3	-0.05252136
221	0x3e0456b8	0.12923706
222	0x3dbdd860	0.09269786
223	0xbca4d8b5	-0.020122865
224	0x3df1541b	0.1178362
225	0xbc8ee0ff	-0.01744127
226	0x3c463f87	0.012100107
227	0x3db0875f	0.0861957
228	0x3c1063a7	0.0088128215
229	0x3d73388d	0.059380103
230	0xbc9f8332	-0.019471738
231	0x3e044de1	0.12920333
232	0xbcbc006d	-0.022949422
233	0xbdb9dda8	-0.09075481
234	0x3dadded6	0.08489768
235	0xbc148346	-0.009064501
236	0x3c8b736f	0.017022816
237	0x3d1bb47e	0.038013928
238	0x3af74caf	0.0018867458
239	0xbd748106	-0.05969336
240	0x3d351f72	0.04421944
241	0xbe21da68	-0.15805972
242	0xbd428ad5	-0.04749568
243	0x3e313b81	0.17307855
244	0x3be8de67	0.0071065906
245	0xbd6c8095	-0.057739813
246	0x3e14d529	0.14534439
247	0xbe105304	-0.14094168
248	0x3da16653	0.07880845
249	0xbe067b6a	-0.13133016
250	0x3e2c8b4b	0.16850011
251	0xbdd56c76	-0.10421078
252	0x3d80f164	0.062960416
253	0x3d52b379	0.05144069
254	0xbc84e62d	-0.016223038
255	0xbdec2404	-0.11530307

bias_ih_l0_reverse f4 [128]
0	0xbc0a4f45	-0.008441751
1	0x3e445b44	0.1917544
2	0x3e697987	0.22800265
3	0x3ed56a88	0.4168284
4	0xbe81c22a	-0.25343448
5	0x3e035d40	0.12828541
6	0x3e1b9e59	0.15197124
7	0xbdd215e6	-0.10258083
8	0xbda864c6	-0.08222346
9	0x3eef126d	0.46693745
10	0x3ce2ce8c	0.02768638
11	0x3f1754bf	0.5911369
12	0x3e12094c	0.14261359
13	0xbdc536b1	-0.09629572
14	0x3ea9d729	0.33171967
15	0xbdd372f2	-0.103246585
16	0x3ee6094c	0.44928968
17	0x3e31b7d1	0.17355277
18	0x3eb0d123	0.3453456
19	0x3e5f9c9e	0.21837088
20	0x3ed8e5f1	0.4236293
21	0x3e306f42	0.17229941
22	0x3e812ef4	0.25231135
23	0x3e5315c5	0.20613773
24	0x3e339ac7	0.17539512
25	0x3d9e3e64	0.07726744
26	0x3f066467	0.5249695
27	0x3dbc0b4e	0.09181844
28	0x3e889e33	0.26683196
29	0x3e3790f3	0.17926387
30	0x3e8f370e	0.2797169
31	0xbd95a4ad	-0.073068
32	0x3dc29376	0.09500782
33	0x3db98f1d	0.090605
34	0xbe24f3f5	-0.16108687
35	0x3de8af21	0.11361528
36	0xbdf780b9	-0.12085099
37	0xbdf8aa01	-0.12141801
38	0xbc3bd945	-0.011465375
39	0xbd11f4a0	-0.035633683
40	0x3d708c56	0.058727585
41	0xbd62cfcf	-0.055373963
42	0x3e137d1b	0.14403193
43	0x3defd2d8	0.11710137
44	0xbd81ccfb	-0.06337925
45	0xbd3db7df	-0.04631793
46	0x3ce52605	0.02797223
47	0x3e2c7398	0.1684097
48	0x3cd94b40	0.02652514
49	0xbd013225	-0.031541962
50	0x3dec4e2b	0.11538347
51	0xbe161822	-0.14657643
52	0xbaaee54b	-0.0013343481
53	0x3daf9511	0.08573354
54	0x3ddea70f	0.10871708
55	0xbdcb7171	-0.099337466
56	0x3dad8f2a	0.08474572
57	0xbdac8660	-0.084240675
58	0x3de9250c	0.11384019
59	0xbd2b880a	-0.041877784
60	0xbc97386b	-0.01845952
61	0x3d14ab29	0.036296044
62	0x3dbd3774	0.092390925
63	0x3da785c8	0.081798136
64	0x3df5d899	0.12004203
65	0xbde92a8a	-0.11385067
66	0x3e686937	0.22696386
67	0x3e279e20	0.16368914
68	0x3da973f5	0.0827407
69	0x3ee3daea	0.44502956
70	0x3e96f5d6	0.29484433
71	0xbec82042	-0.3908711
72	0x3e019d0d	0.12657566
73	0xbe68f469	-0.22749485
74	0xbe816edb	-0.2527989
75	0xbd88bbf2	-0.06676473
76	0x3e2e3705	0.17013176
77	0x3e7fe425	0.24989374
78	0xbee2870d	-0.4424366
79	0xbd1359f8	-0.035974473
80	0x3dbfb893	0.093613766
81	0xbe03ff3f	-0.12890337
82	0xbe2c278e	-0.16811964
83	0xbe8178e4	-0.25287545
84	0xbe95bfd3	-0.29247913
85	0x3e829476	0.25503892
86	0xbcb71f24	-0.022353716
87	0x3e37228b	0.17884271
88	0x3d25e854	0.04050477
89	0xbdbfd66e	-0.09367071
90	0xbe614b61	-0.22001411
91	0x3ca7791a	0.020443488
92	0x3e15691a	0.14590874
93	0x3e6dee33	0.23235397
94	0xbe0010d1	-0.12506415
95	0x3df2c43d	0.11853836
96	0x3dc3ca8e	0.095601186
97	0x3e40bac7	0.1882125
98	0x3e99b760	0.30022717
99	0x3edc296d	0.43000355
100	0xbe6ea2ef	-0.23304342
101	0x3d81c3aa	0.06336148
102	0x3e8559d7	0.26045105
103	0x3dfc6100	0.12323189
104	0x3ee2c934	0.4429413
105	0x3e1fd0ab	0.15606944
106	0x3eff0575	0.4980885
107	0x3e3cf6c4	0.18453509
108	0xbc22df84	-0.009940986
109	0xbc9b6974	-0.018971182
110	0x3e8c0e1e	0.2735452
111	0xbe015a5a	-0.12632123
112	0x3eadec71	0.33969453
113	0x3e40c45d	0.18824907
114	0x3e9ba29c	0.303975
115	0x3e99262a	0.2991193
116	0x3edb05c2	0.4277783
117	0x3eb37e28	0.35057187
118	0x3f098565	0.5371917
119	0x3ea5ec0b	0.3240665
120	0x3dc50012	0.09619154
121	0xbeba9209	-0.3643954
122	0x3ec786a2	0.38969904
123	0xbe14bc19	-0.14524879
124	0x3e88a2a6	0.2668659
125	0x3ea394ae	0.3194937
126	0xbd85bb6a	-0.06529887
127	0xbd743f4b	-0.059630673

bias_hh_l0_reverse f4 [128]
0	0xbce70fff	-0.02820587
1	0x3ed1ab66	0.4095108
2	0x3e9129fb	0.2835234
3	0x3f0358be	0.51307285
4	0xbe2e5a84	-0.17026716
5	0x3e21354c	0.15742987
6	0x3e1af4db	0.15132467
7	0xbdd052bb	-0.101720296
8	0xbe4213e8	-0.18952906
9	0x3ef20693	0.4727064
10	0x3e09303b	0.13397305
11	0x3f17f28a	0.5935446
12	0x3e18cb49	0.14921297
13	0x3ccafd4d	0.024778986
14	0x3ea069d7	0.3133075
15	0x3dc71f0f	0.09722721
16	0x3ea7082a	0.32623416
17	0x3dd6e4a1	0.10492826
18	0x3e4121e5	0.18860586
19	0x3e3312a6	0.17487583
20	0x3e2a0fe2	0.16607621
21	0x3e8cf13a	0.2752779
22	0x3eb6aa77	0.3567693
23	0x3e1ff021	0.15618946
24	0x3daf9c69	0.08574755
25	0x3e36f480	0.17866707
26	0x3ebee23d	0.3728198
27	0xbc21443a	-0.009842927
28	0x3eddb6ba	0.43303472
29	0x3cac3215	0.021019975
30	0x3e76096f	0.24027036
31	0xbe9f8810	-0.31158495
32	0x3d792b81	0.060832504
33	0xbdcf77da	-0.10130282
34	0xbcd190ad	-0.025581682
35	0xbe273369	-0.16328205
36	0x3db43abd	0.08800266
37	0x3dd82fab	0.10555967
38	0x3d14c02d	0.036316086
39	0x3e329255	0.17438634
40	0xbe0e3164	-0.13886029
41	0xbcc22064	-0.023697086
42	0xbd85f379	-0.06540579
43	0x3db244c0	0.08704519
44	0x3d810a35	0.06300775
45	0xbe2d9ae0	-0.16953611
46	0xbe300207	-0.17188273
47	0x3b029479	0.0019924922
48	0x3e1fde99	0.15612258
49	0xbe09fa74	-0.13474447
50	0xbe307c3d	-0.17234893
51	0x3b9c51a6	0.0047704754
52	0xbdcc7838	-0.099838674
53	0x3df19992	0.11796869
54	0xbdf22f33	-0.11825409
55	0xbca1cce6	-0.019751024
56	0xbe148eac	-0.1450755
57	0x3e052a85	0.13004501
58	0xbcd0f6f8	-0.025508389
59	0x3e324345	0.17408474
60	0xbdb861eb	-0.09003051
61	0xbdf7ac0b	-0.120933615
62	0xbdf828e1	-0.12117172
63	0x3d71f85d	0.05907475
64	0x3ea09db9	0.31370333
65	0xbe1c1c73	-0.15245228
66	0x3ec23f5f	0.37938973
67	0x3e8f38ea	0.2797311
68	0x3e5884e7	0.21144448
69	0x3e85b6e7	0.26116106
70	0x3e879710	0.2648244
71	0xbe9356b4	-0.28777087
72	0x3dd96bf5	0.10616294
73	0xbd090d95	-0.03346022
74	0xbcf735e8	-0.030177072
75	0xbe3eac54	-0.18620425
76	0x3db67547	0.08909088
77	0x3edbd090	0.42932558
78	0xbeb1f5d3	-0.34757861
79	0xbcdc2b23	-0.026876038
80	0x3d965e4f	0.07342207
81	0xbe86f709	-0.26360348
82	0xbda5abb0	-0.080893874
83	0xbe82a617	-0.25517341
84	0xbb251cfa	-0.0025194273
85	0x3e84ffaa	0.25976306
86	0x3d9879fc	0.07445142
87	0x3e2e4a6a	0.17020574
88	0xbe1966c5	-0.1498061
89	0x3c11193c	0.008856114
90	0xbe529cfe	-0.205677
91	0x3cb0ef7f	0.021598576
92	0x3e3749d4	0.17899257
93	0x3d118dc9	0.035535607
94	0xbeb9fd42	-0.36326033
95	0xbd9cab64	-0.07649878
96	0xbbc213ec	-0.005922785
97	0xbcef00db	-0.029175213
98	0x3de94ac6	0.11391215
99	0x3eb16659	0.34648398
100	0xbdef7b1e	-0.116934046
101	0xbcc54d83	-0.024084812
102	0x3e72ec2e	0.23722908
103	0x3e990e6f	0.29893824
104	0x3ef1a048	0.47192597
105	0x3e3d1d7b	0.18468277
106	0x3ef25ea2	0.47337824
107	0x3e96e72b	0.29473242
108	0x3d8f2a43	0.06990483
109	0x3d610b87	0.054942634
110	0x3e9249b0	0.28571844
111	0xbeb551ca	-0.35413963
112	0x3d86f986	0.065905616
113	0x3ee8f177	0.45496723
114	0x3ef31510	0.47477007
115	0x3ec0f125	0.3768398
116	0x3e2cfce8	0.16893351
117	0x3e221538	0.15828407
118	0x3eb65cfa	0.3561781
119	0x3e5b9433	0.21443252
120	0x3dc891ab	0.09793409
121	0xbee9516b	-0.4556993
122	0x3e8d8ffb	0.2764891
123	0xbe3f64e8	-0.18690836
124	0x3ed458a7	0.41473886
125	0x3e2ace0f	0.16680168
126	0x3e180fc8	0.1484977
127	0xbdffcee5	-0.12490634
