CNN_LSTM_model_weight/sCNNLSTM_FL_epoch60_normal_data.pt (torch, 76443 bytes, 12 tensors)

weight f4 [32, 2, 5]
00000000: 9930 8d3e ea91 a8bd 0c0a 71be a437 ae3d
00000010: 5c23 bd3d 9b9b 433f 25c1 cebe 4b0a 8c3d
00000020: dec3 4d3f c51f 4a3f 389b 6abe 4318 243c
00000030: 16a7 643d b930 51bc ac8e b83d 101c e23e
00000040: 19a8 3d3f c85f babe ad0e f7be a6a7 103f
00000050: e1c2 23be 65c5 493e 671a 17bd bfe2 f63d
00000060: b964 8e3d b56b a1be 8ead fcbe 6fdb ffbe
00000070: 2ba4 d0be fc54 b3be a61d 823e 6ab7 993e
00000080: 7010 ffbd 01f3 293e a42c 59be 6d70 1ebe
00000090: cdb8 f4bd ab20 dabd 4887 1ebe caba 2fbe
000000a0: 2573 2f3e 87a0 3abe 97c0 093e bc38 55bf
000000b0: 3b36 43bf 7697 c63d 0681 c03d 015b 713e
000000c0: 5423 003e 83af b73d 0294 103e f54e 16be
000000d0: d3d6 c9bd aef5 6d3e d652 a33e c69f 0ebe
000000e0: f606 203f a3bd 1e3f 08ca 2d3f 5e41 263f
000000f0: 683b f5bc 6475 26be 416f 5a3d 2a08 eb3d
00000100: d4db d53d 28d0 033f 02b1 1a3f 048f 083f
00000110: d087 2d3f 5c39 a03e 38af 193d ca30 4cbe
00000120: ce1d 603e 2479 16bd 0577 b7bc 11fc 5d3f
00000130: c67d cc3e 7256 323e ed57 7ebe 0da7 1f3f
00000140: c8fc 97be 719d 21be 68ba 2c3e 7850 5c3e
00000150: 9afc 67be 0d58 c2bc 6884 a83e 4968 0abe
00000160: 49e6 833e 0542 ffbd 636f 203e 6897 88be
00000170: d351 083e ba65 18bd 7f99 81bd 5156 213f
00000180: e502 363f 36c2 d9bb b2f1 00bf dfca 18bf
00000190: bf8e 223e 74c4 70be 6f52 ca3d 6a7f 813e
000001a0: b98a 413b eaa1 ce3e 37cf 11be 7a81 373f
000001b0: 022f 8fbe 3845 273f 10f0 6dbe ec29 c0bd
000001c0: 6eac 9c3e 6c87 5e3d 5cac 803e 017f 213f
000001d0: b677 0f3f 73e0 b9be c789 013f b847 113f
000001e0: caf1 813e 2cd6 e43d c06d 47be d7b9 ad3d
000001f0: e9e8 fdbd 4db3 91be a313 aebe 4449 d0be
00000200: 8b69 97be 475b 78be 8e60 cabd 954c b83e
00000210: c246 52be ce46 72bd 3c4a 893e 30f1 2c3f
00000220: c0d7 d93e b237 153f 5422 bb3e c8e3 65be
00000230: 9772 5e3e 9487 7ebe 0a79 8f3d 97db 28be
00000240: 9bf1 cd3e b531 5abe 2341 eabd 7c71 1abe
00000250: 5cc8 cbbd 8603 6a3c 0167 4b3e 7a7d 90be
00000260: 0712 873e 124f 393e b42a 1b3e 5ff6 d93e
00000270: 0228 533e 792a fb3e 3cea 27be 0318 1f3f
00000280: f9ff b83d 6362 333e 1314 963e 6dfb f33d
00000290: 842f f83d 7659 01be 5192 0bbf eb52 12bf
000002a0: 9c1c 6fbe 589d 78be da13 0c3e 3030 8bbe
000002b0: bc60 d03d 07ad aebd b43e 9f3d 77d2 f83e
000002c0: 201d 573f c1e8 90be 25cb 07bf 78af 083f
000002d0: 5006 ef3d e822 97be 6c30 74be da45 363e
000002e0: 7b90 2f3e 7b8d 523e 45cb 153f dd22 b7be
000002f0: 0d25 9e3e ab21 493f 4bea 3a3e 4ca8 a8bd
00000300: 3ad9 7abe c1fe 9d3d d1ff f63c 5ab7 523f
00000310: 7c7b f13e 8867 103f 4d29 8bbd 1475 363f
00000320: 72cd 08be 4b35 103d 98d1 ecbc 2e61 393e
00000330: 3eb1 04be 2e4f 213f 7723 e6be 1267 bc3e
00000340: 7b42 473f a8cb 79be b282 abbe dbb1 cbbc
00000350: 942d 51be abf4 10be beac f0be a06c 0c3f
00000360: d188 923e 1471 b5bd aa93 46be e130 2dbb
00000370: de91 8d3e 90e1 943d 96a6 6c3e 54a0 253e
00000380: b4be 9bbc 20be 67bd 5a5c 9fbd 8c1a 78be
00000390: b5c4 c2bd 0e86 963d d680 01be 74e9 ba3d
000003a0: 7498 273e 1143 e1bd f360 6a3c bad7 ad3e
000003b0: 68e3 a5be 6d6b b73e 3ca8 a8be f1e3 d43e
000003c0: fcc0 47be 6824 dbbb efed 35be 142a 403e
000003d0: 49f9 82bd eb6b 953e ebd9 35be 8a89 63be
000003e0: 352d 763e 796f 783e 0fd6 48be 57c5 90bb
000003f0: ebc8 e63d 9766 703e d2de 82bd 4686 f8be
0.2757614 -0.08230956 -0.23538989 0.08506706 0.0923526 0.7640931 -0.40381733 0.06837901
0.80376995 0.78954726 -0.22910774 0.01001555 0.055823408 -0.012767964 0.090115875 0.44162035
0.7408462 -0.364012 -0.48253384 0.5650581 -0.15992309 0.19704206 -0.036890414 0.12054967
0.06952805 -0.31527486 -0.49351162 -0.49972102 -0.4075025 -0.35025775 0.25413245 0.30022746
-0.12454307 0.16596605 -0.21208435 -0.15472575 -0.119493105 -0.10650762 -0.15481293 -0.17161098
0.17133768 -0.18225299 0.13452373 -0.83289695 -0.76254624 0.09696858 0.09399609 0.23569871
0.12513477 0.08969023 0.1411896 -0.14678557 -0.098554276 0.2323825 0.31899136 -0.13928136
0.6251062 0.6200811 0.678864 0.6494349 -0.029935554 -0.16255718 0.053328756 0.114761665
0.104423195 0.51489496 0.6042634 0.53343225 0.6778536 0.31293762 0.037520617 -0.19940487
0.2188637 -0.036736622 -0.02239562 0.8671275 0.39939708 0.17415789 -0.24838229 0.62364274
-0.29685044 -0.15782715 0.16867983 0.21515071 -0.22654954 -0.023723627 0.32913518 -0.13516344
0.2576163 -0.12463764 0.1566749 -0.26678014 0.13312463 -0.03720639 -0.06328105 0.63022333
0.71098167 -0.006645466 -0.503688 -0.59684557 0.15874766 -0.23512441 0.09879004 0.25292522
0.0029532148 0.40357906 -0.14239202 0.7168194 -0.27965552 0.65339994 -0.23236108 -0.09382996
0.30600303 0.054328367 0.251315 0.6308442 0.5604204 -0.36304054 0.50600857 0.5675006
0.25379783 0.111736625 -0.1947546 0.08482712 -0.1239794 -0.28457108 -0.33999357 -0.40680897
-0.2957271 -0.2425357 -0.098816976 0.35995927 -0.20534804 -0.059149556 0.2681445 0.6755552
0.42547417 0.5828811 0.36549628 -0.22450173 0.217234 -0.24856406 0.07005508 -0.16490017
0.40223393 -0.21308024 -0.11438205 -0.15082353 -0.09950325 0.014283067 0.19863512 -0.2822073
0.2638094 0.18096569 0.15153009 0.4257078 0.2062073 0.49055842 -0.16397947 0.62146014
0.09033198 0.17518 0.2931219 0.1191319 0.12118438 -0.12631783 -0.54520136 -0.5715777
-0.23350757 -0.24278772 0.13679448 -0.27185202 0.101747006 -0.08529096 0.077756315 0.48598072
0.84028816 -0.28302577 -0.5304435 0.53392744 0.11671126 -0.2951882 -0.23846596 0.17800084
0.17144959 0.20561783 0.5851329 -0.35768786 0.30887643 0.78567 0.18253438 -0.08235225
-0.24496928 0.07714606 0.03015128 0.8231102 0.47164524 0.56407976 -0.06794987 0.712724
-0.13359621 0.035207074 -0.028908536 0.18103477 -0.12958238 0.63011444 -0.44948933 0.36797386
0.77835816 -0.24394095 -0.3349815 -0.024865082 -0.20427543 -0.14155833 -0.47006792 0.5485325
0.28620008 -0.088594586 -0.19392267 -0.002642684 0.2765035 0.07269585 0.23110422 0.16174442
-0.019011833 -0.0565778 -0.077812865 -0.24228877 -0.09510175 0.07349788 -0.12646803 0.09126559
0.1636675 -0.1099912 0.014305341 0.3395365 -0.3240006 0.35824147 -0.32940853 0.41580155
-0.19507211 -0.0066876896 -0.17766546 0.18766052 -0.063952036 0.29183897 -0.1775891 -0.22220436
0.24040683 0.24261273 -0.19612907 -0.004418056 0.11268791 0.23476635 -0.06390156 -0.48539943

bias f4 [32]
00000000: 3da0 74be 0538 e6bd dd5a 873e 75f9 b53d
00000010: 53fc 7d3e 1ef8 86be ac67 b3be 4865 a6be
00000020: 0cc2 31be 7cd0 a4be 5c0d 85be 76c9 a3be
00000030: d943 823e 0956 5ebe 511d 7d3e 87b9 92be
00000040: b5c1 98be 5f82 b3be b017 55be 480c 6fbe
00000050: 4ebe 80be a760 14be 85dc c3bd eb47 a6be
00000060: efa3 a03c a04a 46be 149a 6dbe 4101 82be
00000070: d2fd 69be de7e 77be baa8 56bc 161c ddbd
-0.23889251 -0.11241154 0.2643651 0.08885471 0.24803285 -0.26361173 -0.35040033 -0.32499146
-0.1735918 -0.3219031 -0.25986755 -0.3198964 0.2544239 -0.21712507 0.24718215 -0.2865717
-0.29835287 -0.35060403 -0.20809817 -0.23344529 -0.2514519 -0.14489995 -0.09563545 -0.32476744
0.01960942 -0.19364405 -0.23203307 -0.25391582 -0.22850731 -0.2416949 -0.013101751 -0.107963726

weight_ih_l0 f4 [128, 32]
00000000: 78ce 743d fd7a 703e 5455 43bb fc6b c63e
00000010: 7330 2a3d 8e95 2e3e acc1 303e eef7 593e
00000020: 53ab 84bd 91bc 45be 1215 b23e 74fa b33d
00000030: 84d0 0b3e 78b6 a53e 567e 0abe 4488 813e
00000040: 7036 be3e 0151 7f3e cb23 f2bc 6fa6 c03e
00000050: bf98 aebc 294e e5bd f7f7 3ebc eb58 323e
00000060: 58fb e9bd 15b1 3ebe d10c 14be 3dd4 4cbe
00000070: 9323 8c3d df95 acbc e759 7dbb dcfc 86bd
00000080: ef1b 803e 1ab6 89bc 245e e1bc e39a 2fbc
00000090: 8899 a13e 5409 813d f1af 3a3e 35b8 b73e
000000a0: dbbe 603d 18e3 173f 2058 9a3d 0b39 b73d
000000b0: 29e7 85bd 3fc4 863e b29d d4bd e78b b93d
000000c0: 90f0 9ebe 9eae 383e ed9c 383c 6d8f d43d
000000d0: 5334 f63e d391 b63d 60a1 d8bd 99d9 833d
000000e0: 1cdc ddbb b9ed 0f3f 7c99 a4bd b491 883e
000000f0: cf7b 503e 1f0e d03d d5c0 35bd 7291 bd3e
00000100: 9a65 3c3e b5eb 503e 8a97 9cbe 0340 1fbe
00000110: 7ed6 0dbe bbc0 253e 1545 0d3e 15d9 8c3e
00000120: 683e 043e 6720 20bc 7677 073e 0f41 ec3d
00000130: e9bd 8abe bb92 33bc 868b 23be 5b17 be3d
00000140: 1fae cdbd 5083 a33e db77 e93d 3f22 f03d
00000150: c09f 693e 7e89 ebbc db6c ebbe bafd 803e
00000160: 24c1 a33e 719b c53d 760f 09be 1ae8 69be
00000170: 475b f4bd 909f 553d ecd8 97bd 7602 bebb
00000180: 25e9 4cbe b39d cfbe 0f99 a7bb 42ac 91bd
00000190: 4a4c 543e c694 7bbe fb46 7fbd 3ad1 29bf
000001a0: 6c45 303e ee7f 44be 4016 9cbc 2736 27bf
000001b0: 17d5 813d b66f c2be b852 3e3d 1777 3fbe
000001c0: 4b59 0f3e 20a7 c7be ca3d 29be 5118 6bbe
000001d0: c652 14be 58f1 ad3d 4dec 9a3d a729 b8ba
000001e0: 2571 f9bd 0989 93bd 3be8 1f3d ac8f 483e
000001f0: 5b21 e8bc 1f14 a4be f8cc 023e c211 45be
00000200: 32fd 903e 3ea2 8b3e db05 793d 115c 943e
00000210: cd7f 00be b004 f83d be6d 843d e73b c3bc
00000220: b79f 81be 751f 643e 7d2a 213e 58b8 7e3e
00000230: 90e0 3d3d a75e c43e b08a 923e 8a90 b53e
00000240: f9f2 863d 2e2c 453d e11c 3d3e 8408 153e
00000250: 2eff f73d 44f9 53be 2169 d7bb 85cd d13d
00000260: 0c31 b0be c3eb a63e 1d57 363e d5d0 123e
00000270: 0f0a 52bd 4543 bf3d ac8e 28be a207 c03c
00000280: 18b7 39bd 54ff c3bd 31c1 413c 7336 c7bd
00000290: 1e83 013d 6d34 40bd 22e2 c8bd 747f b8be
000002a0: 149e aebe 18e8 01bf b223 f7bc daa4 0f3c
000002b0: 6c29 31bd 12df 023c c37b a83d 970f 21be
000002c0: 2065 cdbd 211c 63be ba57 c73d 1132 15bd
000002d0: 8ef2 1cbe 7dd0 dabe e6cf a53b 290d acbe
000002e0: 8046 92be e5de 96be 912b b2bd d58c e6bd
000002f0: c666 98be 7ce7 8cbe 75d7 c6bd 7a96 cfbd
00000300: a80a 283d 9c38 17bd 0ab7 7fbe 9f91 66be
00000310: 83ef 17be 54a3 ffbc 1cbd c9bd b839 353e
00000320: 8395 9f3e 2993 233e 9a20 f83d d472 44be
00000330: 35ec a3be 1040 b3bd 6a09 d5bc 6053 283d
00000340: a3e6 64be 0006 593e 0fbd 223d 6ee3 6d3e
00000350: 9d85 283e f837 033f fea8 54be c38f b63e
00000360: 7c8a 8a3e 7b42 193e 2807 2d3e 0c27 ce3d
00000370: e804 40bd c868 9c3e 170d ae3d f324 3ebe
00000380: 5401 273e 43c9 693d 63c1 a2be cc53 abbe
00000390: 8713 f73e 95f3 383e bd81 d83d a930 043e
000003a0: c9be 813e 3221 513e 71c3 f7bd ae65 5d3e
000003b0: c782 07be 8c83 8b3e 2581 27be edd9 0c3e
000003c0: 2de5 e0bd f4c3 43bc f382 803d cf48 913e
000003d0: 79b1 bc3d 09ea 6e3e 9af2 96bd 033e 0c3e
000003e0: 37b4 c03e 8c61 4c3c 6846 673e 8df6 543e
000003f0: ef49 7b3e 0b46 033e 07f1 363d e56f b63d
0.059767216 0.23484416 -0.0029805498 0.3875426 0.04155011 0.17049238 0.1726138 0.21285984
-0.0647799 -0.19310214 0.347817 0.087880045 0.13653761 0.32365775 -0.13524756 0.25299275
0.37150908 0.24933244 -0.029558083 0.3762698 -0.02131307 -0.111965485 -0.011655799 0.17416732
-0.11424893 -0.18622239 -0.14458014 -0.20002837 0.06842723 -0.021067558 -0.0038658322 -0.06591198
0.25021312 -0.016810466 -0.02751071 -0.01071808 0.31562448 0.06300607 0.18231179 0.35882726
0.054869514 0.5933089 0.0753634 0.08946427 -0.06538231 0.263216 -0.103816405 0.090598874
-0.3104291 0.18035361 0.011267883 0.10378919 0.48086795 0.089145325 -0.10577655 0.06437988
-0.006770624 0.5622211 -0.08037087 0.26673663 0.20359729 0.101589434 -0.044373352 0.37025028
0.18398133 0.20402415 -0.30584365 -0.15551762 -0.13851354 0.16186802 0.13795884 0.2750937
0.12914431 -0.00977335 0.13229164 0.115358464 -0.27098015 -0.010960276 -0.15971193 0.092817985
-0.100429766 0.3193612 0.11399814 0.11725282 0.22814846 -0.028752085 -0.45981488 0.25193578
0.31983292 0.09648789 -0.13384804 -0.22842446 -0.11931472 0.052154124 -0.074144214 -0.005798633
-0.20010813 -0.40550002 -0.0051146816 -0.07112934 0.20732227 -0.24568471 -0.06232355 -0.6633488
0.17213982 -0.19189426 -0.019053578 -0.65317005 0.06339472 -0.37975854 0.046465605 -0.18697773
0.13998906 -0.38994694 -0.16527477 -0.22958495 -0.144847 0.08493298 0.07564602 -0.0014050499
-0.12179784 -0.07203872 0.03903983 0.19586056 -0.028336218 -0.320466 0.12773502 -0.19245055
0.28318173 0.27272218 0.0607966 0.2897649 -0.12548752 0.12110269 0.06466244 -0.023832275
-0.25317165 0.22277625 0.15738864 0.24875009 0.046356738 0.38353464 0.28621435 0.35461837
0.06589312 0.048137836 0.18468048 0.1455403 0.121092185 -0.20700556 -0.0065738116 0.10244278
-0.3441242 0.32601747 0.17806669 0.14337476 -0.051279124 0.093390025 -0.16460675 0.02344114
-0.045340627 -0.09570184 0.011825846 -0.09727182 0.031619184 -0.046924997 -0.098087564 -0.3603474
-0.3410498 -0.5074477 -0.030168388 0.008767331 -0.043252394 0.007987754 0.08226731 -0.15728603
-0.10029054 -0.22178699 0.097335294 -0.0364247 -0.15326902 -0.4273719 0.005060184 -0.3360379
-0.28569412 -0.2946693 -0.08699716 -0.1125733 -0.2976591 -0.2752036 -0.09709064 -0.10136123
0.041025788 -0.03691922 -0.24972168 -0.22516488 -0.1483746 -0.03120581 -0.09850523 0.17697799
0.31168756 0.15974106 0.12115593 -0.19184428 -0.3201615 -0.08752453 -0.026005466 0.041095138
-0.22353606 0.21193695 0.03973108 0.23231289 0.1645722 0.51257277 -0.2076759 0.35656556
0.2705878 0.14966767 0.16897261 0.10066041 -0.04687968 0.30548692 0.084985904 -0.18568783
0.163091 0.057076704 -0.31788167 -0.3346237 0.48257086 0.18061669 0.105716206 0.12909187
0.2534087 0.2042282 -0.12097824 0.21620819 -0.13233481 0.272488 -0.16357858 0.13755007
-0.10981212 -0.011948574 0.062749766 0.2837586 0.09213538 0.23331465 -0.07370491 0.1369553
0.37637493 0.012474429 0.22585452 0.20797177 0.24539922 0.12819688 0.044663455 0.08908061

weight_hh_l0 f4 [128, 32]
00000000: 6bc0 813e 75ff e53c f6fb d33e d4c0 c33e
00000010: fbf1 dd3d 815a 30be 618b f83d d40f 1d3e
00000020: e26c fd3d 090b a23e 32c1 0dbd 9420 5d3c
00000030: 6a36 78be b048 2ebe b655 16be 7b83 243e
00000040: 9b9d 893d 7963 fe3d 37b2 a6bc 569f a1bc
00000050: 887b 183e 456f 27bd b99f a8be 88c6 8f3c
00000060: e308 003e 8fc0 7d3e 8290 51bd 0e83 b9be
00000070: 8356 9dbe ad19 6a3e fc64 5e3d 3ef5 b0bd
00000080: 39ba a63d a09b c2bb 1610 afbd 1efe 3bbe
00000090: ac90 c03d 3f95 8a3e 3121 04bf de38 dd3d
000000a0: 3344 7d3d aeb3 f23e cba0 ee3b b486 a7bb
000000b0: 5850 91be 2aa2 f6bc bb03 843e cbec 98be
000000c0: 5c06 cbbd d49b 44bd 1a58 91bd 7847 26be
000000d0: c845 0d3e 8bfa 0bbd 5504 bdbc 3b20 b33d
000000e0: d126 e2bc 15e8 b33d 8c16 123e e55e dbbd
000000f0: 97f5 0b3e 96bd 13be 98cf 243e d4d1 e63d
00000100: 0cb4 b0bd 92e1 ae3c 1d9d 74bd 935a 2b3d
00000110: dbd0 41bd 94c7 f43d 0425 b53d 9a7c 733e
00000120: c1e3 a3bd 0eae e33d 6a88 3fbe 0537 31be
00000130: dde1 903e 9e73 b13e fef6 30be 6bd8 27be
00000140: 6086 713e 69a1 c3bc 41e3 863e 356d ad3e
00000150: dbb8 b7bd ac2e 12bb 97c2 e73c 1aa4 e8bd
00000160: d7bd 76be 46fe ebbd 87d8 eb3d f89a 863e
00000170: 7fb0 233e af95 a0bd 3854 47bc 2999 5b3e
00000180: d36d 52be 5014 813e 83c9 6d3a 1020 15bd
00000190: 8eef 58be 9a2c 5abe 3bb9 213e 6359 533c
000001a0: 02da 57bd fb7c ddbd 4dfd cebd e66c 193e
000001b0: 6f26 c6bd d958 743d 02af 8c3d 0915 d03e
000001c0: 03ef 0b3e 205d 67bc bba6 95bd b465 b73d
000001d0: f92c 4d3e 86b7 453e 03a1 6fbe c907 c7bd
000001e0: 2f1a 043e 2b1e 4a3f e022 33be 5c4c 053d
000001f0: 4497 51b9 ee19 a03e b426 0cbe 2f37 713d
00000200: fb81 eebd b7f5 1ebe 685b d43e 7833 923e
00000210: c2ea 513e 0228 c1bd cccf 933b 9888 133e
00000220: 2e66 4abe 7f75 983e a63e a2be 45d8 9fbe
00000230: 8775 493e 4123 b43d 5c0f 203e 707d bc3d
00000240: e01c b0bd 2e97 963c e183 283e 741f 7bbe
00000250: a493 0e3f c0a2 ff3d 9d82 e8be c811 2c3e
00000260: 5b3d 9dbc 4e76 bd3d c32c 233e 6239 51be
00000270: 5f10 293e 2920 053f 2e41 5f3d 2f7b de3c
00000280: 1992 00bc 737d 373d 1297 55be 3b16 7c3e
00000290: 534d 2f3d 18ba 2cbd 7f3f a93d bbd6 023e
000002a0: df9e 10bc 28ff 10be 7416 dbbe eb68 3c3d
000002b0: 6dfa 2a3e 3a96 2a3e a9e0 14be d198 8f3e
000002c0: 074e 663e 9350 a53e e7d1 f73d 945a 833d
000002d0: 8611 eb3d f625 ca3d 2843 97bd e144 be3e
000002e0: 48fb a4bd 3f19 223e 09c0 16be d8f3 0bbe
000002f0: 30df 643c ecfb 8dbe 7bbc bcbd 30ac 3b3d
00000300: 2c48 47be 680d 713d b4d5 1a3d e246 b1be
00000310: c10c ebbd a97d 1a3f ae2e 6cbe 3add b03d
00000320: d2cf a7bd 56f8 fd3d 4684 29bd ce69 d4bc
00000330: 4606 0ebe 8b0a 5d3f e715 ccbd 7fd6 e8bc
00000340: 7903 8a3d 06ff ef3e 863c a93e fe12 ff3d
00000350: df4b a8bd 621c 8e3e b8f5 633e 83e9 493d
00000360: 61a4 d6be cdc3 de3e 7a8f 87be 01c9 903e
00000370: bc3f 103f c889 23be 158e 7a3d c579 753e
00000380: 8edf b2bd f2db de3c 27ab 9fbe 65fd ee3c
00000390: 98f8 50be 6fe1 6b3d aa86 13bd 7ec3 13bd
000003a0: d4e5 91bd 3094 62be c4e9 273e 60e7 773c
000003b0: 5706 713e ce91 803e 8a3d 98be 9c2a 26be
000003c0: 88fd 113a 7832 ce3e 8e78 ea3d 49d2 103e
000003d0: d105 a0be c991 b9bd 0b80 0dbe ab2d 873e
000003e0: 49d9 9c3d ffd0 493e 6a4a 78bd cc43 fcbd
000003f0: bfc7 4eba c1f8 a0bd f562 a23d 01d9 7c3e
0.25342116 0.028075913 0.41403168 0.38233054 0.1083717 -0.17222025 0.121359594 0.15338069
0.123742834 0.31649044 -0.034608074 0.013496537 -0.24239507 -0.17019916 -0.14681134 0.16065781
0.06719514 0.12421317 -0.020348651 -0.019729298 0.14890873 -0.0408776 -0.3293436 0.017550722
0.1250339 0.24780487 -0.051163204 -0.362328 -0.30730066 0.22861357 0.054295525 -0.08640526
0.08140988 -0.005938962 -0.0854799 -0.18358657 0.09402594 0.2706699 -0.51613146 0.10801862
0.061832618 0.4740271 0.0072823516 -0.0051124934 -0.2838161 -0.030106623 0.25784096 -0.2986816
-0.09913322 -0.04800017 -0.07096882 -0.162382 0.1379615 -0.034174483 -0.023073355 0.08746382
-0.0276064 0.087845005 0.14266413 -0.10711459 0.13667904 -0.1442779 0.16094816 0.1127049
-0.08628091 0.021347795 -0.059720147 0.041834425 -0.04731832 0.11952129 0.08844951 0.23778
-0.08002425 0.11117183 -0.18704382 -0.17306145 0.2829732 0.3465852 -0.1728172 -0.1639115
0.23586416 -0.023880677 0.26345256 0.3387238 -0.08970805 -0.002230565 0.02829103 -0.11359425
-0.24095856 -0.11523108 0.11515909 0.26290107 0.15985297 -0.0784105 -0.012166075 0.21445145
-0.20549707 0.2521081 0.000907086 -0.03640753 -0.21185133 -0.21306077 0.15793316 0.012899729
-0.052698143 -0.10814854 -0.10106907 0.14982948 -0.096752994 0.059655044 0.068693176 0.4064105
0.13665394 -0.014121324 -0.07307192 0.08954945 0.20036687 0.1930829 -0.23401265 -0.09718282
0.12900613 0.7895228 -0.17493773 0.032543525 -0.00019988144 0.31269783 -0.13686639 0.058890518
-0.116458856 -0.1552342 0.41475987 0.28554893 0.20499709 -0.09431459 0.0045108553 0.14407575
-0.19765541 0.29777142 -0.31688422 -0.31219688 0.1967374 0.08795787 0.15630859 0.09203613
-0.085992575 0.018382635 0.16456558 -0.24523717 0.5569403 0.12482214 -0.4541215 0.16803658
-0.019194296 0.092510805 0.15935044 -0.20432046 0.16510151 0.520022 0.05450552 0.027158348
-0.007847332 0.044797372 -0.2085841 0.24617855 0.04279835 -0.04216966 0.08264064 0.12777226
-0.00882694 -0.14159834 -0.42790568 0.045998495 0.16697092 0.1665887 -0.14538826 0.28046277
0.22490703 0.32288036 0.121005826 0.06413761 0.11477952 0.09870522 -0.07385856 0.37161925
-0.080557406 0.15829943 -0.14721693 -0.13667238 0.013969228 -0.27731264 -0.09215637 0.045818508
-0.19461125 0.058850676 0.03780146 -0.34624392 -0.11477042 0.6034799 -0.23064682 0.086359456
-0.081939355 0.12400882 -0.04138591 -0.025929358 -0.1386958 0.8634421 -0.09965115 -0.028422592
0.067389436 0.46874255 0.33053988 0.12454794 -0.08217596 0.2775603 0.22261703 0.04929496
-0.41922286 0.4350876 -0.2647665 0.28278354 0.5634725 -0.15970528 0.061170656 0.23972233
-0.08734046 0.027204487 -0.31185266 0.029173562 -0.20407331 0.057588037 -0.036017098 -0.036075108
-0.07123914 -0.22126842 0.16397768 0.015130848 0.23537575 0.2511124 -0.2973445 -0.16227192
0.000556909 0.4027288 0.11448775 0.14142717 -0.31254438 -0.090610094 -0.13818376 0.2640203
0.07658631 0.19708632 -0.06061784 -0.12317619 -0.0007888041 -0.07859946 0.07929031 0.24692155

bias_ih_l0 f4 [128]
00000000: ca60 2b3d a53a ea3d 9e88 20be 8158 a3bd
00000010: 68d3 313e 0b8e af3d ae6f 83be 88e7 b43d
00000020: cbd9 fabc 3b44 9ebd 9948 3ebe a72d 843d
00000030: 70f7 f6be abf4 44be 4296 78be 64b9 cbbe
00000040: feb1 b2bc ebb4 81be 35d7 3ebd 9637 203e
00000050: 6b13 703e ddaa 03bb b281 d6be bcd4 e0be
00000060: 0675 263d a372 d1be ae5e 95bd b2fa 33bd
00000070: c01d ad3c 6fc7 59be 5824 7cbc 1543 cc3c
00000080: cd2b 6f3e 4530 3e3d 7c1f cc3d 37e8 a53b
00000090: 951c 153e 44f7 593e b31c a7bd 6116 673e
000000a0: da36 ac3e ed6d c23d 737d 883d d5bb 573e
000000b0: 1224 8a3e 9dcf d63d a674 aebd c767 af3e
000000c0: 638e 573d 1866 a13d 8f65 56bc 1c02 4a3e
000000d0: b1d2 b53e 8f59 7a3e d6db 28bc a9b9 ca3e
000000e0: 572e 6a3e 3373 b53e ba93 cc3c 4c06 003e
000000f0: c788 843e cebe 4f3e 67ed 883e a74a f43d
00000100: 8b77 44bd 1237 71bd 9e42 b83d 5337 6d3d
00000110: 832b 5f3c 50b7 fabd d41c 7f3d 4096 153e
00000120: 646d f63d 5932 88bd a9d2 96be 81f3 7a3d
00000130: 9f76 96bd b104 b2bd 50cc 1b3a b168 733e
00000140: 9ceb 6d3c 105b 313d 8e05 3fbe 0f3c e7bd
00000150: f71c d7bc 142c 92be 9112 c7bd 5899 283d
00000160: aa9f 973e 7b5b 1d3d 6b30 103e 9b17 cfbe
00000170: 85d1 e6be 27ad 923e 0af3 9e3d ad86 4d3e
00000180: d878 253e 9f14 813c ab8f 423e 7a9a 7d3d
00000190: f24f 513e b53b b93e 0116 b13d 2267 efbd
000001a0: 28df c53e 32f7 9b3d bdfb b83d 6ab6 9bbd
000001b0: 5051 993e 1eb4 083f c28e 8cbd 0eb3 c2bd
000001c0: b164 91bd a530 c53d 70b8 023b e603 8fbd
000001d0: bf8a 4e3e 27f0 a0bc 3e02 1e3e d2d9 bcbd
000001e0: 97b1 1b3e 5037 833e 00cd 92bd 2ade 583d
000001f0: ee8c 2e3e 520a b83e 83fb 34be f0d7 aa3d
0.041840352 0.11436967 -0.15677115 -0.07975865 0.17365801 0.085720144 -0.25671142 0.088332236
-0.03062143 -0.07727858 -0.18582381 0.0645402 -0.48235655 -0.19233958 -0.24276069 -0.3978988
-0.021813389 -0.25333342 -0.046591956 0.15646204 0.23444907 -0.0020090856 -0.41895825 -0.43912303
0.040638946 -0.40907773 -0.07293449 -0.043940254 0.02113235 -0.21267484 -0.015389524 0.024934331
0.23356552 0.046432752 0.09966943 0.0050630826 0.14561684 0.2128573 -0.08159771 0.2256713
0.33635598 0.09493623 0.066645525 0.21067746 0.26980644 0.10488818 -0.08518343 0.34258863
0.052626025 0.07880801 -0.013085737 0.19727367 0.35512307 0.24448226 -0.010306319 0.39594772
0.2286924 0.35439453 0.024972785 0.12502402 0.25885603 0.2028763 0.26743624 0.11928301
-0.047965568 -0.05889041 0.08997081 0.05791409 0.013621214 -0.12241995 0.062283352 0.14608097
0.12032583 -0.06650228 -0.29457596 0.06126738 -0.07346844 -0.08692301 0.00059432257 0.23770405
0.014521506 0.043299735 -0.18654463 -0.11290752 -0.026258929 -0.28549254 -0.09720338 0.041161865
0.29614002 0.03841732 0.1408097 -0.40447697 -0.45081726 0.2864773 0.077612 0.20070906
0.1615938 0.015756903 0.19000117 0.0619149 0.20440653 0.36178365 0.08646775 -0.11689593
0.38646817 0.07615508 0.0903239 -0.07603152 0.2994485 0.53399837 -0.068631664 -0.09506808
-0.070992835 0.09628419 0.001994636 -0.069831654 0.20170115 -0.019645764 0.15430543 -0.092212334
0.15204464 0.25628138 -0.07168007 0.052946247 0.17045948 0.35945374 -0.17674069 0.08341968

bias_hh_l0 f4 [128]
00000000: c3d7 bb3c bd24 563d 9209 17bc 1196 9c3d
00000010: cdde b2bc cafb a6bd b534 babd bceb 863c
00000020: 19cf 31be 86d4 2d3e 5fff 9dbd 1b87 803d
00000030: 2109 0bbf cbbd 32be f322 4dbe b679 aabe
00000040: bdc5 76be 7475 1bbe 6004 84be d3e0 863d
00000050: 5d92 903e b2bd c4bd 45b6 cfbe 8f34 41be
00000060: 03be 763c a9ed 7bbe 0654 a6bc a8ab c53d
00000070: 278e 14bb 26af 18be ea24 353b ec9d 9a3d
00000080: 3f20 e03e 1aca 5b3a 05c9 b53d 0ac0 1abc
00000090: 69b2 bf3e 5ac1 213e 0443 66bd 6bee d43e
000000a0: 0091 d83d 1fa2 183e 4e1b 073e 4983 033f
000000b0: e9b7 9e3e fefa dd3d e62a ca3d 6e46 433e
000000c0: ad51 7d3d d573 ac3e c440 d63d bf39 453e
000000d0: 184a 743e 1081 5abd 1188 a93e b42b 703e
000000e0: 6862 123c 18d4 863e ace1 243e b0d3 0c3e
000000f0: a875 393d e69c 3c3e 2f99 703e 2913 4d3e
00000100: faa7 243e ac85 b63d b921 023e 836c 6d3e
00000110: eeab a63e f9da 76be c8e0 dabd 6652 943e
00000120: 6076 dcbd 6467 00be ddb7 eebc ae0d 273e
00000130: 9cf1 25be 4930 86be cb93 173e 3a8e d93c
00000140: c1dc 0a3d a68b 9f3d 43c8 24bd cb71 d0be
00000150: 144d 7d3e 14e6 92be c7d5 7abe a512 313e
00000160: 2ec3 ce3e fa8a 2e3e b924 16bc d0ff 8dbe
00000170: 3bf6 f8be 00b0 8f3e 7ef3 47ba 2a19 9b3e
00000180: 4798 1a3d d3d8 47bd 7805 a23e e47b ad3b
00000190: 506c 013d 8cb8 bc3e c9b7 91bd af53 28be
000001a0: b9f2 733e 674c 443d e3a1 423e d944 b53d
000001b0: 960c 023e f8a0 ac3e ed2e aa3d 87ff 2d3d
000001c0: ee86 9d3d ed71 703d 43e6 a23c c57e 1d3e
000001d0: 5238 c53e 277a 693e 5f88 783c 7652 8fbd
000001e0: f81b fb3d 271f 653e 9288 293d e7f8 863d
000001f0: 406a 6a3e cb53 8c3e 5d04 66bd d8e1 f03d
0.022930032 0.05228113 -0.00921859 0.076458104 -0.021834755 -0.08153494 -0.09092084 0.016469829
-0.17364158 0.16975603 -0.07714724 0.06275769 -0.54310805 -0.17455213 -0.20032863 -0.33295983
-0.24098869 -0.15181524 -0.25784588 0.065858506 0.28236666 -0.09606494 -0.40568748 -0.18867706
0.015059951 -0.24602379 -0.020303737 0.096518815 -0.0022667737 -0.14910564 0.002764041 0.075496525
0.43774602 0.00083843025 0.08876232 -0.0094452 0.37440804 0.15796414 -0.056216255 0.41588148
0.105745316 0.14905594 0.1319401 0.513722 0.30999687 0.108388886 0.098714635 0.19069836
0.06184547 0.33682123 0.10461572 0.1926031 0.2385639 -0.05334574 0.33111623 0.23454171
0.008934595 0.2633369 0.16101712 0.13752627 0.04527822 0.18419227 0.23495935 0.2002684
0.16079703 0.08912215 0.12708177 0.23185925 0.32553047 -0.24106969 -0.10687405 0.28969115
-0.10764766 -0.1253944 -0.029140407 0.16313812 -0.16205448 -0.26208714 0.14802472 0.026557077
0.033901934 0.07790308 -0.040230047 -0.40711817 0.24736434 -0.2869116 -0.24495612 0.17292269
0.40383285 0.17045203 -0.009164029 -0.27734232 -0.4862536 0.28063965 -0.0007627531 0.30292636
0.03774288 -0.048790764 0.31644797 0.00529431 0.031597435 0.36859548 -0.07115132 -0.16438173
0.2382306 0.047924425 0.19007067 0.08851022 0.12700114 0.3371656 0.08309732 0.042480018
0.076917514 0.058702398 0.019885188 0.1538039 0.3851953 0.22800504 0.015169232 -0.0699815
0.12261194 0.22375165 0.04139001 0.06590443 0.22892094 0.2740768 -0.056156505 0.11761826

weight_ih_l0_reverse f4 [128, 32]
00000000: c853 883e 6e17 9e3e 2c89 4ebe 699b 85be
00000010: c3f7 3ebc 0f2c 0f3c 5729 d03b 0713 e83e
00000020: aebb 863e d552 5c3e 890b 293e f079 033e
00000030: 4dff aebe 5444 d13d a223 5ebe c6ef 0e3d
00000040: 3db7 92be 6fce 413f c3c2 f73d 394e 883e
00000050: 3c51 9fbd 44ae e23e 3ecb febd c839 403e
00000060: 1a51 933e 99e8 53bc 4025 b13d 8435 043e
00000070: 0098 cfbe ec01 c53e b13c 58be 024d 1e3e
00000080: 2926 97be 14e6 89be c6eb 7d3e 22ba 9bbd
00000090: c476 5abd 0efd 3b3e 1a3b 97be 1c28 8cbe
000000a0: 7ddf 773c 5729 393d 06c5 b5bd 6087 1dbc
000000b0: a3b6 0abe 1e8a a23c 8db9 fc3d 0da9 a0be
000000c0: 89bd 393d 3805 6dbe 1a40 15be 942f fabd
000000d0: 784d b33d 0168 2dbe 08a8 88be 8af7 35be
000000e0: 90aa b53d f8fc 65be 76cc 0fbe cca7 53be
000000f0: 78f9 6fbe 270a 07bf 8103 06be df50 d2bd
00000100: 5f7b 27bf 8b3f 1abf 18ab d1bc b3f1 4d3d
00000110: 6144 96bd 53c7 96be fe5e 67bd c4cc 033e
00000120: 1726 7bbe 9d6a 04be 8571 d4bd 520b 91bd
00000130: a227 e1bd 92a2 b3be 3250 8c3d 9149 503e
00000140: f28e 81be 8631 b8be 5d0c 52bc 9252 cdbd
00000150: fcbc 6dbe 212a 6cbe f970 613e cee6 09be
00000160: e720 003e f80b f6be 7c2c 05bf e1fd a43d
00000170: f4b6 38be f9c9 0dbe 4c74 b43d a32e 153d
00000180: 4434 27be 8c5a f3bd b8bf aabe ee2f 41be
00000190: 2555 d33d dc10 8d3d 0eae f13c 869c 95be
000001a0: 07fd 133d 5f16 58bd 9827 e4bd 94ec 9ebc
000001b0: 707c 843a 7fce 7cbd 9b63 3dbe 3897 f33c
000001c0: cf4c 0abe a4cd a7be 7eb2 67be d363 1cbe
000001d0: b411 79be ec92 cabe 0610 f3bd 270d aabd
000001e0: 438b 5a3d a2ab 73be 87a6 3cbe 32a2 cebd
000001f0: af6f 90bc 79d9 333e e2f6 083e 80c7 49be
00000200: f4fa 873d 7911 0f3f d347 48be 25ac 5bbe
00000210: 6739 9cbe 8865 8d3c 4f1e a83d 6454 ce3e
00000220: d116 ae3e 2b16 8f3e e3ba 1b3e 1d56 c33e
00000230: 01bc 62be 4cab 163e 6e2a ecbb ad86 e63b
00000240: d084 d1be 334c fe3e 3504 7f3e d358 243e
00000250: 0bb9 de3c 1175 483f 1162 2fbe 8924 d43e
00000260: b9ea 4a3d 3254 443e 9eef 53be 598b e33d
00000270: 3392 7fbe 6a95 df3e 5c1c 96be 2c1c fa3d
00000280: b58c c63d c245 b33e 0d57 84bd 2b9b 9cbe
00000290: c0b3 f2bd 1012 5a3b 9ff7 a83d 0528 4a3d
000002a0: 5351 8a3e 510d 173d 9aae 6b3e 67ca ab3e
000002b0: bd67 e4be 898c 193e db6f 38bc d5d4 233e
000002c0: a897 91be 725c 4e3e 9889 d03e 23b1 453e
000002d0: 7e91 d23c c55e dc3e 6bc6 bebe d595 b53d
000002e0: faf1 b0bd d12a 10be be76 86be a4d3 1f3e
000002f0: a16c 83bd ef90 053f f232 52be 0968 033c
00000300: c2a1 6d3e 51b5 393e fdf4 02be c99f 23be
00000310: 48ca f7bd 5ee1 f13c f8d2 0d3e 1069 c3bd
00000320: f71e 7f3e 1f7e 4a3e 1e1c 4fbe ce1e 49be
00000330: 8817 31be 7f68 4abe 4280 f7bc cb81 e5bc
00000340: 34e2 a2be 8c9a 643d f98e 8e3e 696a 03be
00000350: 4a95 9abe 1701 b8be a4fe 86be 46e8 e53d
00000360: 89d2 35be 22d6 603e f3b0 053d 5f07 9abe
00000370: 7c49 3b3d 5354 0e3e 4ac8 2dbe adc8 0dbd
00000380: e802 65bc a9a7 2f3f b718 9a3b 4e34 c53c
00000390: 8e52 4ebe 6464 b53d 8685 d0bc 060c 26bc
000003a0: aea7 0d3e d7cd 3b3e aebd 56be 505c 15bd
000003b0: e74f fe3d 8e87 243e 6098 bcbd 69aa 1c3d
000003c0: 527e d7be 01f5 443f 4e53 563d 1b4f 10bd
000003d0: 5a61 eabd b53a 403f 8b8d 30be 660d 103e
000003e0: 6be8 cebd 7d05 983d 5ee9 1bbe aba2 13be
000003f0: 68ab c4be 3020 f83c 2cbd 9ebd 91f6 c03e
0.2662642 0.3087725 -0.20169514 -0.2609513 -0.011655751 0.008738532 0.0063525843 0.45327017
0.26315063 0.21515973 0.16508307 0.12839484 -0.34179154 0.10218111 -0.2169328 0.034896635
-0.28655425 0.7570562 0.12097695 0.2662218 -0.07779166 0.4427358 -0.12441109 0.18772042
0.28772813 -0.012933874 0.08649683 0.1291104 -0.40545654 0.3847803 -0.21116902 0.15459064
-0.295213 -0.26933348 0.24796972 -0.076038614 -0.05333592 0.18358251 -0.29537278 -0.2737435
0.015128967 0.04520544 -0.0887547 -0.009614795 -0.13546233 0.01984125 0.123400785 -0.31378976
0.04534677 -0.23146522 -0.14575234 -0.12216106 0.0875501 -0.16934206 -0.26690698 -0.1777021
0.08870423 -0.22459781 -0.1404284 -0.20669478 -0.23435009 -0.52749866 -0.13087274 -0.10269331
-0.65422624 -0.6025321 -0.02559428 0.05027933 -0.07337261 -0.29448947 -0.056487076 0.1287108
-0.24526249 -0.12931295 -0.10373215 -0.07082237 -0.109938875 -0.3508497 0.068512335 0.20340563
-0.2530437 -0.35975283 -0.01282033 -0.10025515 -0.23216623 -0.23062946 0.22015752 -0.13466951
0.12512551 -0.48056006 -0.52021 0.08056236 -0.18038541 -0.13846578 0.08811244 0.03642143
-0.16328532 -0.11882505 -0.33349395 -0.1886594 0.103189744 0.06887981 0.029501941 -0.2922098
0.036129978 -0.05275571 -0.111403644 -0.019399919 0.0010107886 -0.061720368 -0.18495028 0.029735193
-0.13505863 -0.3277408 -0.22626683 -0.15272455 -0.2432316 -0.39565217 -0.118682906 -0.0830329
0.053355467 -0.23795941 -0.184229 -0.1008953 -0.01763138 0.17563428 0.13375428 -0.1970501
0.066396624 0.55886036 -0.19558649 -0.21452387 -0.30512545 0.017260328 0.08208906 0.4029876
0.34001783 0.279466 0.1520801 0.38151637 -0.2214203 0.14713782 -0.0072072065 0.0070350976
-0.4092164 0.4966751 0.24903949 0.16049509 0.027187845 0.7830363 -0.17127253 0.41434124
0.049540255 0.19172743 -0.20696875 0.11110563 -0.24958114 0.4366868 -0.2931851 0.122124046
0.096948065 0.35014158 -0.06461916 -0.30587134 -0.11850691 0.0033274926 0.08250355 0.04935457
0.2701517 0.036877934 0.23015824 0.33552858 -0.44610396 0.14995016 -0.011257137 0.15999158
-0.28436017 0.20152453 0.40729976 0.19305854 0.025704142 0.43041053 -0.37260756 0.08866469
-0.08639903 -0.14078833 -0.26262468 0.15608078 -0.06417204 0.52174276 -0.20527247 0.008020409
0.23206237 0.18135573 -0.12788768 -0.15978922 -0.12099129 0.029526409 0.1385001 -0.095415235
0.24914156 0.19774674 -0.2022557 -0.19640657 -0.17294133 -0.19766425 -0.030212525 -0.028015992
-0.31813204 0.05581145 0.27843454 -0.12833561 -0.30192024 -0.3593833 -0.2636615 0.11225943
-0.17756094 0.21956685 0.032639455 -0.3008375 0.045724377 0.13899355 -0.16970935 -0.034615207
-0.013977744 0.68615204 0.0047026533 0.024072792 -0.2014868 0.088570386 -0.025454294 -0.010134703
0.13833496 0.1834024 -0.20970795 -0.03646499 0.12417584 0.16067335 -0.09208751 0.038248453
-0.42088562 0.76936346 0.05232554 -0.03523169 -0.114443496 0.7508958 -0.17241494 0.14067611
-0.10102924 0.07422922 -0.15225741 -0.14417522 -0.38412023 0.030288786 -0.077509254 0.37688115

weight_hh_l0_reverse f4 [128, 32]
00000000: ec4c acbd 1563 0f3e e548 1b3e b8fb 29be
00000010: 2d3b 0e3e be16 99bd 383b 8d3d bdca 053e
00000020: f3f3 e4bc 60dd c9bd 5fad 03bc 80c9 e63d
00000030: c1f3 8f3d b9f5 02bd 99f1 f2bd 9e86 f63d
00000040: 8950 b0bd 586c b9bc b128 063e 1026 00bd
00000050: 62d1 293e 0c91 4ebd 2711 1bbc ddda 02be
00000060: 96d7 383d 3da1 063e 6f04 c33d ed61 e73d
00000070: cfa4 0cbe fa19 2abd db97 d6bd db20 323e
00000080: 5f5f eebd c86e d53d 8cd3 e1bd 50fe 2d3d
00000090: 89b6 6d3d 844e cb3d e24c 26be 9df7 903b
000000a0: 52dd 2dbe 69e1 c0bd fb24 02be 7bf9 8c3d
000000b0: c0b4 12be 5848 6c3d 52c7 1c3e fe5c c03d
000000c0: a93c aa3d 7fc1 7a3d 5c77 143e b45e 8a3d
000000d0: e922 073d ce36 aa3d 1e66 23be ec42 e7bd
000000e0: c1c9 b83c 78a4 8b3d d08c 063e ee11 32be
000000f0: e1f5 0f3e ab84 adbd 88be c4bd 1b40 0fbd
00000100: 8a18 e53d 31e2 f13d 7187 a93d 22fc 343d
00000110: aca4 45bc cb80 00bd bb62 17bd 1a2f 95bc
00000120: 5230 20be fb5b a63c 5bd1 3c3d 4e0c 1c3e
00000130: 025b ddbb 47c3 a13d 02b6 343e 1142 3abc
00000140: b8b3 18be d2f7 86bd 4e70 163d 3ce8 8cbd
00000150: 61c7 fd3d 8145 27be 2ea6 ea3c 983b 943c
00000160: d8fa 6cbc 0287 333e 9138 20be ff0f ecbd
00000170: e422 2fbe e20e 803a 62ae 9b3d 0892 023e
00000180: 28bf b4bd 7add d13d 34f3 783d 8872 1dbe
00000190: c6e9 48bd a4f8 a13d 0a96 f43d 0918 f5bd
000001a0: a823 fabd 6312 673d 98f6 4cbc 1638 e73c
000001b0: 0075 2dbe b1dd bb3b 909f f43d 2ba0 2b3e
000001c0: 1274 da3d ca27 3fbd a3c2 ef3c fa2d 04bc
000001d0: 4038 033e 084e bebd 025c f1bd c228 0a3e
000001e0: d832 303e dfc9 20be b824 603d 7ac0 d0bd
000001f0: 997f 00be 5197 29bd e841 113e fc16 e73d
00000200: 0bb5 173d 015f 853c cc4b 0fbe ad31 95bd
00000210: 4d11 f0bd bece 0fbd b879 29be 0007 0c3e
00000220: 7e22 d9bd 7539 8ebb 1a80 8a3b 5bf1 003e
00000230: 00af ae3d 51de 2bbe ee56 c63d 0734 2f3d
00000240: 3ed2 22be f0f8 093e bff2 72bd 6187 26be
00000250: 2660 86bd fa31 9d3c 1840 aebc fc28 cbbc
00000260: bd04 2b3e 257d e63c 841b 1fbe 5c72 3c3d
00000270: 37b5 1c3d f77e 25be 44d1 a3bb 9534 153e
00000280: 9015 94bd ed3b 03be a84e 223e cc2a 90bd
00000290: 546f b2bd 45ff 303d 783d 24be 7a7f 68bd
000002a0: c89a 07be 93e3 be3c 0256 233e 933b f2bd
000002b0: 9a47 ad3d ce57 01be 8383 273e 0960 dfbc
000002c0: fb33 1e3c 5bfc 923d 3e55 2f3e 07c5 ff3d
000002d0: 4633 ea3c 544f 1cbd 59c1 8dbd 0e00 4cbd
000002e0: 46fa 86bc cd48 c3bc 87a5 f43d 64d3 11bd
000002f0: 86e7 a23c d0a2 52bd 6080 26bd cbdc dfbd
00000300: 6bd9 e2bd 4b33 513d 6105 fd3d a499 323e
00000310: e6a3 04be 7a30 fbbd 8719 1f3e c525 f3bc
00000320: 89b1 fb3d 68f0 0d3e 75fa 2f3e e0ee 90bd
00000330: f443 063d bbb4 1cbd 938a a1bd bafa 54bd
00000340: 5a52 00be 73b9 c6bd c738 303e 424e 4cbd
00000350: fadd dbbd b63f 49bd a41f c6bd 7164 c6bd
00000360: 70d2 f7bd 640e 9f3b 3530 7a3d aef1 563d
00000370: c6e3 68bd 45be 7ebd f383 143e 67e4 053d
00000380: dafd 28bb 789f 60bd a5de 1dbe 47e2 bd3c
00000390: dba7 263e 33a5 99bd 7db7 dcbc 194e 6a3c
000003a0: 7a8b 21be 6869 67bd 04f2 66bd c9f3 1fbe
000003b0: 0c71 ecbc 880c 563d ed3c debb ec06 0abc
000003c0: e144 88bd d359 0bbe 31ac fa3c 907a cabd
000003d0: 7ec4 babd 6010 2d3e c079 b23c 5529 26be
000003e0: 5055 babd af5e 173e 13db 6b3d df62 3c3d
000003f0: 4edf 86bd 0e63 f5bc 8815 1fbe eb33 0d3c
-0.08413109 0.1400264 0.15164526 -0.1659993 0.13889761 -0.07475041 0.06896061 0.1306562
-0.027948355 -0.09856677 -0.00803694 0.11268902 0.07028914 -0.03197262 -0.11862487 0.12037395
-0.08609111 -0.02263467 0.1310146 -0.0312863 0.1658378 -0.050431296 -0.009464539 -0.12778802
0.045127474 0.13147445 0.0952233 0.11297975 -0.13734744 -0.04152868 -0.10478183 0.17395346
-0.11639284 0.104215205 -0.110266775 0.04247886 0.058035407 0.09927085 -0.16240266 0.004424049
-0.16978958 -0.094179936 -0.1270942 0.06883522 -0.14326763 0.05768618 0.1531041 0.09392737
0.08312351 0.06121969 0.14498657 0.067563444 0.032992277 0.083112344 -0.15956923 -0.11292061
0.022557141 0.06818479 0.13139653 -0.17389652 0.14058639 -0.0847257 -0.096066535 -0.034973245
0.11186321 0.11810721 0.082777865 0.044185765 -0.012063187 -0.031372827 -0.03695939 -0.018210936
-0.15643433 0.020307532 0.046098094 0.15239069 -0.0067552337 0.07898574 0.17647555 -0.0113682905
-0.14912307 -0.06590237 0.036728196 -0.06880233 0.12391544 -0.16335107 0.028643694 0.018094823
-0.014464103 0.1753197 -0.15646578 -0.115264885 -0.17103153 0.000977006 0.0760162 0.12751019
-0.08825523 0.102473214 0.06077881 -0.15375721 -0.04905107 0.079087526 0.1194268 -0.11967475
-0.12213832 0.05641402 -0.012509964 0.028224986 -0.16939163 0.005733215 0.11944497 0.16760318
0.1066667 -0.046668805 0.029267615 -0.008067602 0.12814426 -0.09292227 -0.11785127 0.1349211
0.17206895 -0.15702008 0.054722518 -0.10192962 -0.12548675 -0.041404072 0.14185297 0.11283681
0.03703789 0.016280653 -0.13993758 -0.072848655 -0.1172205 -0.035109274 -0.16550338 0.13674545
-0.10602282 -0.0043403455 0.0042266967 0.1259207 0.08529472 -0.16784026 0.09684549 0.042774227
-0.15900514 0.13473868 -0.059313532 -0.1626258 -0.065613076 0.01918887 -0.021270797 -0.024799816
0.16701026 0.028135845 -0.1553784 0.0460075 0.038258757 -0.16161714 -0.0049993116 0.1457084
-0.07230675 -0.12815829 0.15850317 -0.07039413 -0.087126404 0.043212194 -0.16039073 -0.056762196
-0.13242638 0.023301875 0.15950778 -0.11827769 0.084609225 -0.12631151 0.16358761 -0.027267473
0.009655948 0.07177039 0.17122361 0.12488752 0.028588902 -0.03816159 -0.06921644 -0.04980474
-0.016476762 -0.023838425 0.11945634 -0.03560199 0.01988579 -0.0514248 -0.04064977 -0.10930785
-0.110766254 0.051074307 0.123545416 0.17441422 -0.12953147 -0.122651055 0.15537082 -0.029681096
0.122897215 0.13861239 0.17185386 -0.07076812 0.03277965 -0.038258296 -0.07887759 -0.051996924
-0.12531415 -0.097033404 0.17209159 -0.04987932 -0.10735698 -0.049133025 -0.09674004 -0.096871264
-0.12100685 0.0048540104 0.06108113 0.052476577 -0.056857847 -0.062193174 0.1450346 0.032688525
-0.0025786073 -0.05483958 -0.15416963 0.023179187 0.1627497 -0.075022124 -0.026942963 0.0143008465
-0.15775862 -0.056497008 -0.056383148 -0.1562034 -0.028862499 0.052258044 -0.0067821653 -0.008424502
-0.066537626 -0.13608484 0.030599685 -0.09886658 -0.09119509 0.16900778 0.02178657 -0.16226704
-0.09098303 0.14782213 0.057581972 0.04599273 -0.06585561 -0.02995446 -0.15535557 0.008618335

bias_ih_l0_reverse f4 [128]
00000000: 22a6 15bf 639f 5fbe 3762 ebbd 728f 87bc
00000010: 2b13 24bf 535b a3be 18d7 b9be 144f 9dbe
00000020: c804 9fbe 18fb 79bd 4747 29be 1d0b 803e
00000030: 8f25 253e 4325 bb3c 1a2c 9cbe fe69 b1bd
00000040: 9b6c 9bbe b627 d5bd 1c8e 62be 9fc6 80be
00000050: ea99 f2be 4839 88be 9456 f13d 7e12 21be
00000060: 58ef 6dbd 76f1 c3bd e3d1 0cbe 102c d03d
00000070: 422d 9bbd 2110 0a3e 4e7c 093e ba24 dfbe
00000080: 891c 6ebd c711 0c3e 14ce 283d 2a83 12be
00000090: dea9 debd 954f 0bbe 1229 023e ab74 98bd
000000a0: 8695 2dbe 69cd 22be 9bb3 8dbd 5c6b 4c3d
000000b0: d98c 0bbd 21e1 e93d c013 f9bc 798b abbd
000000c0: 5c84 ec3d 3834 06be 1928 543d 8510 f8bd
000000d0: c193 bf3d bc19 653c 6a9e 74bd 2138 84bd
000000e0: 2754 8e3d d92a bfbd 671e 183c f14d 6fbd
000000f0: 5549 7a3d 88b9 c5b9 a162 053c a351 11be
00000100: d77e 59bd c719 9ebd 64fe 87bb 0362 c03c
00000110: 4d37 f23d 6b02 73bc 8f25 333d 4e26 05be
00000120: ab0d 96be 0306 0c3e 60a0 043e 1c85 f63c
00000130: 3bca fc3d c0f7 643e 6ab2 873d 0c7c 4cbd
00000140: a9d4 973e 18c2 8d3d a720 1fbe 1e36 003e
00000150: 30fa c6bd d419 a5bd 0c03 30bd 1f2b cfbd
00000160: 2470 9b3d 350e 563e adcb 22be 7a65 f2bd
00000170: 0920 9fbc eca8 d13c d0ed 013d 273a fd3d
00000180: bf56 f6be ebd2 0c3c fd16 b03b a260 4a3a
00000190: a248 bbbe 94fe 86be 2ff0 5bbe a4e1 d8be
000001a0: a5f4 14be db23 12be 1ace 293a 3ca0 2abb
000001b0: 42e9 4d3e c77a 2f3e 77bc 7dbe 983a e1bd
000001c0: a0e5 8ebe 36bc cebd 7e25 edbc 6a8c 1f39
000001d0: d5c0 94be 9fa7 aabd b8c8 82bd 48b6 1e3d
000001e0: 9c98 123e cdeb 78be 0f59 ffbd 8603 b33c
000001f0: 2d2a 85bc 3893 923d c610 4fbe c2fa 13be
-0.58456624 -0.21838145 -0.11493342 -0.016547892 -0.6409175 -0.31905612 -0.36296916 -0.30724394
-0.31058335 -0.061030477 -0.16531096 0.2500848 0.16127609 0.022844916 -0.30502397 -0.086627945
-0.30356297 -0.10407965 -0.22124523 -0.25151536 -0.47383052 -0.26606202 0.117840916 -0.1572971
-0.058089584 -0.095675394 -0.1375194 0.10164654 -0.075769916 0.13482715 0.13426325 -0.43582708
-0.058132682 0.13678657 0.041212156 -0.14307848 -0.10872243 -0.13604577 0.1271098 -0.07444128
-0.1695157 -0.1589867 -0.06919023 0.049907073 -0.03406987 0.11419893 -0.030404925 -0.08376212
0.11548683 -0.13105857 0.051796053 -0.12112526 0.09354354 0.013983186 -0.059721388 -0.06456018
0.069496445 -0.093343444 0.009284592 -0.05842394 0.06110509 -0.00037713 0.008141191 -0.14191298
-0.05309948 -0.077197604 -0.004150199 0.023484236 0.11826954 -0.014832119 0.04373699 -0.13002893
-0.29307303 0.13674168 0.12951803 0.030092768 0.1234326 0.22360134 0.06625827 -0.049922988
0.29654434 0.06921786 -0.155398 0.12520644 -0.09715688 -0.08061567 -0.042971656 -0.101156466
0.075897485 0.20903857 -0.15898009 -0.11835761 -0.019424455 0.025593244 0.031720936 0.12364607
-0.48113057 0.008595209 0.005373834 0.0007720088 -0.36578852 -0.26366103 -0.21478342 -0.4235965
-0.1454645 -0.1427149 0.000647755 -0.0026035449 0.20108512 0.1713668 -0.24778925 -0.10997504
-0.27909565 -0.10094492 -0.028948542 0.0001521573 -0.2905337 -0.083327524 -0.0638594 0.038748056
0.14316028 -0.24308701 -0.124681585 0.021852266 -0.016255463 0.07156986 -0.20221242 -0.14451125

bias_hh_l0_reverse f4 [128]
00000000: 6ff4 e7be 63c6 6bbe ed42 d6bd 1732 9dbe
00000010: 48f8 06bf 89ab 04bf bb0c 98be 05d2 83be
00000020: dd98 5bbe a7c6 32be e208 febc 8f9b 813e
00000030: 2702 833c ba30 f0bd 0649 b4be fdd8 70be
00000040: 99f2 01bf e3cc 85be 931d 65be 5b7f 84be
00000050: dcf1 dcbe 1f80 2fbe 3414 f2bd df62 8bbe
00000060: aed2 db3d f73e 86bb f041 16be 1df1 bd3c
00000070: 4dae 96bd e644 2c3e f6bf cabd 7f72 1dbe
00000080: d7d2 373d 7a8c 31be 7ac6 bd3d 37ee d13d
00000090: fe93 83bd 7418 e93d c827 bc3d 8527 0bbe
000000a0: b818 153d 9042 2bbe 8810 e73d 9be9 b8bd
000000b0: 39b7 dcbc bebb 4dbd 4d3a c4bd 6ae1 25be
000000c0: d200 52bd b99b 10be fcd8 2f3e 39e9 a23d
000000d0: 3daf af3d 0a9a 74bd a2a7 d4bd e2a0 21be
000000e0: eece f83d 372e db3d 7bc7 db3d 052d e6bc
000000f0: fc3f 2c3e 8671 2fbd 1fcc 0b3e 5f9a cabc
00000100: e31a 6e3d 1713 f73d cae4 0ebe 8009 3dbd
00000110: edf1 95bd 8f4a d83d 1af4 883d 2410 25bd
00000120: 2fb6 d4bd cee7 a5bc 7a28 af3c f56e 15be
00000130: c023 5e3c d9d1 ba3d 5177 c73d 1a53 e8bd
00000140: cd4d 973e bbb7 883c 6ec6 d3bd 0f29 4cbc
00000150: 8e63 8abd b226 7abc c01d 553e 91ea d3bc
00000160: e6d5 a73c 1a29 053e 7cb1 adba 9ed9 85bc
00000170: b2f7 2f3e 8111 573e acd1 ecbd ff92 bd3d
00000180: aa36 d7be d0ba 10be 33bb 15be 98b0 74be
00000190: 112d b2be db2b afbe db46 97be 727a cfbe
000001a0: 9075 a3be 8bbb ba3d 1790 66be 2402 183e
000001b0: 733a 303e f32e 8a3d 77c9 d3bd 8a90 1dbe
000001c0: eaca adbe b4f3 afbc b730 90bd a7b2 08be
000001d0: f2e4 a6be 9961 8ebe e1bd 33bd 5666 3e3d
000001e0: 1e3d c63c e348 56be ce70 8ebe 9fd0 093d
000001f0: be36 383c 02c9 443c 7806 9f3c 1d7d 9fbe
-0.45303676 -0.23024897 -0.10461984 -0.30702278 -0.527226 -0.5182424 -0.29697213 -0.2574617
-0.21445031 -0.17458592 -0.031010095 0.25313994 0.015992237 -0.11728044 -0.35211962 -0.23520274
-0.507608 -0.2613288 -0.22374563 -0.25878415 -0.43153274 -0.17138718 -0.1182026 -0.2722387
0.10733543 -0.0040968615 -0.1467359 0.02318626 -0.07357464 0.16823158 -0.09899895 -0.15375708
0.044878807 -0.17338744 0.09266372 0.10250514 -0.06424712 0.11381617 0.09187275 -0.13589294
0.036400527 -0.1672461 0.1128245 -0.09028932 -0.026942836 -0.050227873 -0.095814325 -0.1619927
-0.051270314 -0.14121903 0.17172617 0.0795464 0.08578346 -0.059717216 -0.10383536 -0.15784028
0.12148844 0.10702174 0.10731407 -0.028097639 0.16821283 -0.042832874 0.13652085 -0.024731813
0.05813111 0.12064188 -0.13954464 -0.046151638 -0.07321534 0.10561096 0.06687184 -0.040298596
-0.10386311 -0.020252135 0.021381605 -0.14593108 0.013558328 0.091220565 0.09739555 -0.11343975
0.29551545 0.016689172 -0.10340582 -0.012460961 -0.0675727 -0.015268015 0.2081213 -0.025868686
0.020487737 0.1300396 -0.0013251747 -0.01633912 0.17184332 0.21002771 -0.11563429 0.09256553
-0.42033893 -0.14133763 -0.14622192 -0.2389549 -0.34800008 -0.34213147 -0.29546246 -0.40523106
-0.3192563 0.09117802 -0.22515903 0.14844567 0.17209797 0.06747236 -0.10341161 -0.15387169
-0.33943874 -0.021478511 -0.070405416 -0.133494 -0.32596546 -0.27808836 -0.043882255 0.046484314
0.024199065 -0.20926242 -0.27820438 0.033646222 0.01124352 0.012010815 0.019412264 -0.3115014
