xrdtrans_4.pt (torch, 458530 bytes, 31 tensors)

weight f4 [64, 21]
0.111372836 0.15661581 -0.13597573 0.0030368331 -0.010504233 0.0043472797 0.002406742 0.0055042086
0.015121581 0.0039609117 0.13905436 -0.6281048 -0.2187807 0.14454316 0.15060818 -0.36403716
-0.28311506 -0.47255653 -0.15198678 -0.2148348 -0.15644722 -0.23257968 -0.0064387904 -0.06254019
0.045136098 0.1982126 0.044568375 0.14712647 0.11768562 -0.16211052 -0.15623999 0.21412072
-0.10445467 0.51208323 0.3850144 -0.010639739 -0.11565323 0.17561714 0.14378662 -0.15845247
-0.0934817 0.11455505 0.14201829 -0.17067578 0.18848805 0.0471835 0.16573337 -0.25275755
-0.048241306 -0.22058564 0.17200634 0.08728349 -0.2610466 -0.37127188 -0.42346364 -0.1649849
0.008115448 -0.47547033 -0.18369268 -0.2545039 0.011739534 -0.104577325 0.10127052 -0.18892236
-0.09829306 -0.048211344 0.10963105 -0.11853344 0.17535855 -0.05278366 0.043757744 0.14610061
-0.05342203 0.098722264 0.29166904 0.02781781 0.32722786 -0.08572841 0.14074776 0.07949301
0.23396972 0.4819442 0.122743696 0.016349062 0.20357944 -0.043674484 0.09016422 0.07537824
-0.053959303 -0.12220712 0.20932095 -0.018895978 -0.11010086 0.045723118 0.055278067 -0.06291752
-0.6133513 0.31750292 0.52187216 -0.08365338 -0.3148191 -0.5143651 -0.13329872 -0.4048356
-0.0933611 -2.1733893e-37 -9.531749e-38 -1.7231227e-37 -1.884179e-37 1.9269701e-37 -1.9904581e-37 -1.9538347e-37
-1.6180791e-37 -4.19845e-37 -1.627372e-37 -1.8589409e-37 1.9603627e-37 6.421266e-37 1.9860265e-37 -1.1548454e-37
-5.0528966e-37 1.2417948e-37 -1.394344e-37 -2.2867929e-37 -2.2483406e-37 -2.2047943e-37 -0.14470303 -0.20486821
-0.07187778 0.069645934 -0.026301973 -0.0067603523 0.1346442 -0.106626354 0.02243297 0.007895195
0.16496226 -0.1866904 -0.060854185 0.1960033 0.118981466 0.33151826 -0.0073151756 -0.021962395
0.06632913 0.09238729 0.03879653 0.14828622 0.060623046 0.081396826 0.042710222 -0.09504236
0.081280634 0.094612025 0.043919 -0.13788602 0.039152384 -0.29263783 0.04629996 -0.48803946
-0.6050935 0.19647002 -0.23584849 -0.568052 -0.22333445 -0.2879924 -0.24156724 -0.026475431
-0.09332973 -0.07355635 -0.046859097 0.19871469 0.10222913 -0.060342893 0.0017735743 0.03619188
0.09832193 -0.009715434 -0.04880019 0.18593453 -0.3066628 0.14469504 -0.16292031 -0.016708473
-0.053286374 0.35432354 0.17190777 0.5200531 -0.1522479 -0.105956905 -0.16351946 0.19059649
0.12735432 0.029562546 -0.069852196 -0.16003779 -0.14458305 0.07898292 0.18706384 0.14304426
-0.32855883 -0.30150837 0.36218017 0.62373596 -0.0031777055 -0.6335689 -0.58113366 -0.21261172
-0.32253397 0.08659779 0.10011914 -0.1713803 0.16333544 0.17197526 -0.018011374 0.0045375284
-0.17868096 0.13358402 0.017716864 -0.15045817 0.123805895 0.12215715 0.49983382 0.114905916
0.115077406 0.28451186 0.31750757 0.17683917 0.3146362 -0.0045273793 -0.20561555 0.058301643
0.12017526 0.17940798 -0.19217256 -0.063509494 -0.08466724 0.17213011 0.21403322 -0.124197334
-0.04485755 0.24732827 -0.25757772 0.33797014 0.14365736 -0.08969968 0.16490199 0.18763639
-0.10313478 0.087823264 0.0022150427 -0.30569646 0.11189841 -0.055003963 -0.123945594 -0.13445485
00000000: 7117 e43d e55f 203e 393d 0bbe 9b05 473b
00000010: f219 2cbc a073 8e3b 6eba 1d3b a65c b43b
00000020: 82c0 773c 89ca 813b 4464 0e3e 7acb 20bf
00000030: 0c08 60be 1f03 143e 0839 1a3e 1463 babe
00000040: 75f4 90be eef2 f1be 6ca2 1bbe a7fd 5bbe
00000050: b333 20be 5e29 6ebe 7dfc d2bb 1215 80bd
00000060: a1e0 383d 3ef8 4a3e 548d 363d 52a8 163e
00000070: 2905 f13d 4d00 26be 60fd 1fbe 7642 5b3e
00000080: 54ec d5bd e317 033f 9c20 c53e 4d52 2ebc
00000090: 9adb ecbd fbd4 333e cd3c 133e 5d41 22be
000000a0: 5573 bfbd d79b ea3d 3e6d 113e a2c5 2ebe
000000b0: 0303 413e 7c43 413d 02b6 293e 7069 81be
000000c0: ad98 45bd 34e1 61be 6e22 303e b0c1 b23d
000000d0: e6a7 85be 5917 bebe 3ad0 d8be cdf1 28be
000000e0: a8f6 043c d970 f3be ef19 3cbe 564e 82be
000000f0: 2d57 403c a32c d6bd eb66 cf3d dd74 41be
00000100: df4d c9bd 4279 45bd 3e86 e03d a9c1 f2bd
00000110: 3191 333e ae33 58bd 523b 333d 669b 153e
00000120: 0fd1 5abd e62e ca3d a555 953e 2de2 e33c
00000130: 698a a73e 6092 afbd 2e20 103e 3bcd a23d
00000140: c295 6f3e 64c1 f63e 0c61 fb3d 78ee 853c
00000150: 2177 503e 04e4 32bd 05a8 b83d e85f 9a3d
00000160: 6e04 5dbd ba47 fabd 3b58 563e bdcb 9abc
00000170: 8f7c e1bd 2a48 3b3d 416b 623d e7da 80bd
00000180: 9704 1dbf be8f a23e 6a99 053f 7752 abbd
00000190: f82f a1be 6ead 03bf 767f 08be 9d46 cfbe
000001a0: 1b34 bfbd c8e9 9382 4cbd 0182 108a 6a82
000001b0: 073b 8082 8e24 8302 ac76 8782 9af8 8482
000001c0: d43d 5c82 a8dd 0e83 a381 5d82 a306 7d82
000001d0: 566a 8502 1e81 5a03 7629 8702 7d30 1d82
000001e0: f0f0 2b83 3c06 2902 ccc9 3d82 8da1 9b82
000001f0: 9e03 9982 ef0c 9682 082d 14be f9c8 51be
00000200: a834 93bd 87a2 8e3d 3c77 d7bc f285 ddbb
00000210: 2be0 093e eb5e dabd 59c5 b73c d95a 013c
00000220: deeb 283e c52b 3fbe 3d42 79bd 17b5 483e
00000230: 8eac f33d c3bc a93e 24b4 efbb 7bea b3bc
00000240: 91d7 873d 8c35 bd3d 1ce9 1e3d 58d8 173e
00000250: df4f 783d 61b3 a63d eaf0 2e3d 92a5 c2bd
00000260: 7676 a63d f3c3 c13d 69e4 333d fe31 0dbe
00000270: 405e 203d a0d4 95be 07a5 3d3d 4fe0 f9be
00000280: 68e7 1abf 702f 493e 4482 71be db6b 11bf
00000290: c9b1 64be bd73 93be 675d 77be 01e3 d8bc
000002a0: a823 bfbd b6a4 96bd 53ef 3fbd dd7b 4b3e
000002b0: 825d d13d 1c2a 77bd 4777 e83a f03d 143d
000002c0: 025d c93d 7c2d 1fbc b5e2 47bd 9f65 3e3e
000002d0: e802 9dbe f02a 143e 95d4 26be 35e0 88bc
000002e0: d042 5abd e569 b53e 9708 303e 3322 053f
000002f0: e0e6 1bbe efff d8bd a571 27be ba2b 433e
00000300: 2c69 023e 272d f23c ab0e 8fbd f2e0 23be
00000310: 940d 14be ccc1 a13d aa8d 3f3e 327a 123e
00000320: dd38 a8be 4e5f 9abe ae6f b93e 29ad 1f3f
00000330: 0d41 50bb 9231 22bf 2dc5 14bf e3b6 59be
00000340: 2c23 a5be 2f5a b13d 440b cd3d 517e 2fbe
00000350: 6841 273e 481a 303e 978c 93bc 8caf 943b
00000360: 24f8 36be 40ca 083e f522 913c b511 1abe
00000370: f28d fd3d 872d fa3d 38ea ff3e cb53 eb3d
00000380: b4ad eb3d 8aab 913e 5a90 a23e 5415 353e
00000390: ff17 a13e 695a 94bb e28c 52be b4cd 6e3d
000003a0: 721e f63d bab6 373e e2c8 44be 4411 82bd
000003b0: 0566 adbd e042 303e 862b 5b3e 2c5b febd
000003c0: 8dbc 37bd 9f43 7d3e 3ae1 83be 6c0a ad3e
000003d0: ea1a 133e 77b4 b7bd 11dc 283e c123 403e
000003e0: 5438 d3bd afdc b33d 402a 113b 3f84 9cbe
000003f0: fe2a e53d d64b 61bd 30d7 fdbd 88ae 09be

bias f4 [64]
-0.16351143 0.042119745 0.036570106 -0.017360354 0.16702874 -2.27072e-37 -0.009929672 0.14143097
0.09315047 -0.21811572 -0.17164607 -0.3146516 0.21766615 -0.02122818 0.06408763 0.055366777
-0.1530136 -0.32688522 0.098088935 -0.034094863 0.111748114 0.090578236 0.08751306 -2.8033673e-37
0.086253226 0.09156712 0.16225976 -0.07328207 -0.21726431 -0.106126934 0.09968407 0.1466454
0.06461539 0.19715513 -0.17566785 -0.16413903 -0.26044714 -0.1391902 0.12098867 0.17876653
0.012730272 0.09444991 0.123004526 -0.117983006 -0.04444809 0.14847048 -0.13972126 0.1336351
-0.113749295 0.0546791 0.20699738 -0.020460881 -0.23317003 0.018050462 -2.644937e-37 0.08801299
-0.28739175 -0.044180147 -0.0798023 -0.10344859 -0.0013827622 -0.16711916 0.18547459 0.010625071
00000000: 8a6f 27be c185 2c3d 89ca 153d 4d37 8ebc
00000010: 9509 2b3e 8689 9a82 10b0 22bc 48d3 103e
00000020: acc5 be3d ba59 5fbe fdc3 2fbe 041a a1be
00000030: e0e3 5e3e b8e6 adbc 6040 833d 46c8 623d
00000040: 99af 1cbe 805d a7be dae2 c83d 0ea7 0bbd
00000050: 32dc e43d 1581 b93d 0c3a b33d 8cc9 be82
00000060: 88a5 b03d 8b87 bb3d 6c27 263e e914 96bd
00000070: 897a 5ebe 1459 d9bd 2927 cc3d 362a 163e
00000080: 1355 843d 09e3 493e 46e2 33be 1014 28be
00000090: 5459 85be e087 0ebe e8c8 f73d 930e 373e
000000a0: a192 503c f46e c13d cce9 fb3d 13a1 f1bd
000000b0: 330f 36bd a508 183e 1713 0fbe a4d7 083e
000000c0: 64f5 e8bd 31f7 5f3d 1ff7 533e 949d a7bc
000000d0: 20c4 6ebe 90de 933c 4d01 b482 2840 b43d
000000e0: 0325 93be 3ef6 34bd 636f a3bd dbdc d3bd
000000f0: cd3d b5ba 4921 2bbe 0ded 3d3e c714 2e3c

pe f4 [100, 64]
0.0 1.0 0.0 1.0 0.0 1.0 0.0 1.0
0.0 1.0 0.0 1.0 0.0 1.0 0.0 1.0
0.0 1.0 0.0 1.0 0.0 1.0 0.0 1.0
0.0 1.0 0.0 1.0 0.0 1.0 0.0 1.0
0.0 1.0 0.0 1.0 0.0 1.0 0.0 1.0
0.0 1.0 0.0 1.0 0.0 1.0 0.0 1.0
0.0 1.0 0.0 1.0 0.0 1.0 0.0 1.0
0.0 1.0 0.0 1.0 0.0 1.0 0.0 1.0
0.84147096 0.54030234 0.68156135 0.731761 0.53316844 0.84600914 0.4093089 0.9123959
0.3109836 0.9504153 0.23492105 0.9720145 0.17689219 0.9842302 0.13295726 0.99112177
0.099833414 0.9950042 0.07491915 0.9971896 0.05620449 0.9984193 0.042157155 0.999111
0.031617504 0.99950004 0.023711512 0.99971884 0.01778186 0.99984187 0.013334819 0.99991107
0.009999833 0.99995 0.0074988706 0.99997187 0.0056233825 0.9999842 0.0042169513 0.9999911
0.0031622713 0.999995 0.0023713717 0.9999972 0.0017782785 0.99999845 0.0013335211 0.9999991
0.0009999998 0.9999995 0.000749894 0.9999997 0.0005623411 0.9999999 0.0004216964 0.99999994
0.0003162278 0.99999994 0.00023713727 1.0 0.00017782794 1.0 0.00013335208 1.0
0.9092974 -0.41614684 0.99748 0.070948265 0.9021307 0.43146282 0.7469035 0.6649324
0.5911271 0.8065784 0.45669332 0.8896242 0.34820527 0.93741834 0.26355368 0.96464473
0.19866931 0.9800666 0.1494172 0.98877424 0.1122313 0.9936821 0.084239356 0.99644554
0.063203394 0.9980007 0.04740969 0.99887556 0.035558093 0.9993676 0.026667267 0.99964434
0.019998666 0.9998 0.014997319 0.9998875 0.011246587 0.99993676 0.008433828 0.9999644
0.006324511 0.99998003 0.0047427304 0.99998873 0.0035565514 0.9999937 0.0026670396 0.9999964
0.0019999985 0.99999803 0.0014997876 0.99999887 0.0011246821 0.99999934 0.0008433927 0.99999964
0.0006324555 0.9999998 0.0004742745 0.9999999 0.00035565588 0.99999994 0.00026670416 1.0
0.14112 -0.9899925 0.7782725 -0.6279267 0.9932532 -0.11596616 0.9536345 0.3009673
0.8126489 0.58275366 0.652904 0.7574407 0.5085361 0.86104065 0.3894703 0.92103904
0.2955202 0.9553365 0.22307542 0.9748012 0.16790329 0.9858035 0.12617177 0.9920084
0.094726086 0.99550337 0.071081206 0.9974705 0.053323086 0.9985773 0.039994974 0.99919987
0.0299955 0.99955004 0.022494925 0.999747 0.016869437 0.9998577 0.012650555 0.99992
0.009486687 0.999955 0.007114062 0.9999747 0.005334813 0.99998575 0.0040005534 0.999992
0.0029999954 0.9999955 0.0022496805 0.9999975 0.0016870227 0.99999857 0.0012650889 0.9999992
0.00094868324 0.9999996 0.00071141176 0.99999976 0.0005334838 0.9999999 0.00040005625 0.99999994
00000000: 0000 0000 0000 803f 0000 0000 0000 803f
00000010: 0000 0000 0000 803f 0000 0000 0000 803f
00000020: 0000 0000 0000 803f 0000 0000 0000 803f
00000030: 0000 0000 0000 803f 0000 0000 0000 803f
00000040: 0000 0000 0000 803f 0000 0000 0000 803f
00000050: 0000 0000 0000 803f 0000 0000 0000 803f
00000060: 0000 0000 0000 803f 0000 0000 0000 803f
00000070: 0000 0000 0000 803f 0000 0000 0000 803f
00000080: 0000 0000 0000 803f 0000 0000 0000 803f
00000090: 0000 0000 0000 803f 0000 0000 0000 803f
000000a0: 0000 0000 0000 803f 0000 0000 0000 803f
000000b0: 0000 0000 0000 803f 0000 0000 0000 803f
000000c0: 0000 0000 0000 803f 0000 0000 0000 803f
000000d0: 0000 0000 0000 803f 0000 0000 0000 803f
000000e0: 0000 0000 0000 803f 0000 0000 0000 803f
000000f0: 0000 0000 0000 803f 0000 0000 0000 803f
00000100: a46a 573f 4151 0a3f ce7a 2e3f b054 3b3f
00000110: ba7d 083f 0e94 583f f090 d13e c792 693f
00000120: 3e39 9f3e 6b4e 733f 258f 703e f1d5 783f
00000130: 3a23 353e 83f6 7b3f f325 083e 28ba 7d3f
00000140: 7675 cc3d 98b8 7e3f 366f 993d d147 7f3f
00000150: ae36 663d 6898 7f3f fbac 2c3d bdc5 7f3f
00000160: 5b81 013d 3cdf 7f3f a53e c23c 93ed 7f3f
00000170: 43ab 913c a3f5 7f3f 497a 5a3c 2cfa 7f3f
00000180: 57d6 233c b9fc 7f3f 16b9 f53b 28fe 7f3f
00000190: 5a44 b83b f7fe 7f3f 5a2e 8a3b 6bff 7f3f
000001a0: 1c3e 4f3b acff 7f3f 0469 1b3b d1ff 7f3f
000001b0: 2015 e93a e6ff 7f3f 8bc9 ae3a f1ff 7f3f
000001c0: 6d12 833a f8ff 7f3f 8994 443a fbff 7f3f
000001d0: 136a 133a feff 7f3f 2217 dd39 ffff 7f3f
000001e0: 60cb a539 ffff 7f3f 0da8 7839 0000 803f
000001f0: 5377 3a39 0000 803f 6dd4 0b39 0000 803f
00000200: b7c7 683f 3311 d5be d95a 7f3f 534d 913d
00000210: 0af2 663f b2e8 dc3e 1135 3f3f 0339 2a3f
00000220: 1b54 173f ec7b 4e3f b5d3 e93e 69be 633f
00000230: f647 b23e a6fa 6f3f 82f0 863e f5f2 763f
00000240: f86f 4b3e a5e5 7a3f d300 193e 4f20 7d3f
00000250: 86d9 e53d f361 7e3f af85 ac3d 0e17 7f3f
00000260: c870 813d f97c 7f3f aa30 423d 4fb6 7f3f
00000270: 5da5 113d 8ed6 7f3f 5075 da3c b1e8 7f3f
00000280: 3ed4 a33c e5f2 7f3f 51b7 753c a1f8 7f3f
00000290: 9b43 383c dbfb 7f3f 0a2e 0a3c abfd 7f3f
000002a0: d83d cf3b b1fe 7f3f e868 9b3b 43ff 7f3f
000002b0: 0815 693b 96ff 7f3f 80c9 2e3b c4ff 7f3f
000002c0: 6812 033b dfff 7f3f 8594 c43a edff 7f3f
000002d0: 126a 933a f5ff 7f3f 2017 5d3a faff 7f3f
000002e0: 5fcb 253a fdff 7f3f 0ca8 f839 feff 7f3f
000002f0: 5377 ba39 ffff 7f3f 6dd4 8b39 0000 803f
00000300: c381 103e 2670 7dbf de3c 473f cebf 20bf
00000310: d745 7e3f ab7f edbd 6421 743f 6318 9a3e
00000320: c209 503f 582f 153f b724 273f a2e7 413f
00000330: 6c2f 023f 296d 5c3f a768 c73e 37c9 6b3f
00000340: 6c4e 973e ef90 743f e26d 643e 928c 793f
00000350: d7ee 2b3e 9e5d 7c3f 2c33 013e 43f4 7d3f
00000360: c0ff c13d 4fd9 7e3f 0693 913d 3a5a 7f3f
00000370: 4f69 5a3d c3a2 7f3f c5d1 233d 90cb 7f3f
00000380: 1fb9 f53c 83e2 7f3f 4747 b83c 6bef 7f3f
00000390: c631 8a3c adf6 7f3f 4644 4f3c c2fa 7f3f
000003a0: 0d6e 1b3c 0dfd 7f3f 141d e93b 58fe 7f3f
000003b0: a8cf ae3b 11ff 7f3f 1317 833b 7aff 7f3f
000003c0: 929b 443b b5ff 7f3f 606f 133b d6ff 7f3f
000003d0: 171f dd3a e8ff 7f3f 57d1 a53a f3ff 7f3f
000003e0: 0eb1 783a f9ff 7f3f 097e 3a3a fcff 7f3f
000003f0: 7ed9 0b3a feff 7f3f a4be d139 ffff 7f3f

in_proj_weight f4 [192, 64]
-2.1556542e-37 -1.3624592e-37 -1.874086e-37 2.9913886e-37 -7.859689e-38 -3.0955418e-37 1.795659e-37 2.3707167e-38
-1.3689745e-37 -2.2008859e-37 -1.5585101e-37 -1.028429e-37 -1.7858854e-37 1.949164e-37 2.2706672e-37 -4.633696e-39
2.0990514e-37 1.1568894e-37 -2.0814466e-37 -1.8677709e-37 -1.3783728e-37 -2.1419132e-37 -1.952309e-37 -2.7215602e-37
-5.518304e-38 -2.007925e-37 -2.018349e-37 1.5074081e-37 -2.172659e-37 -2.007459e-37 2.1580093e-37 1.8277405e-37
4.3278722e-38 -2.6245175e-37 -1.5178335e-37 -4.6294646e-37 -3.050775e-37 1.9124964e-37 1.9018748e-37 4.0435008e-37
-3.3078144e-37 9.396707e-38 -1.9649065e-37 -1.0191075e-37 -2.408029e-37 1.447096e-37 -4.2292076e-37 -2.0801435e-37
2.173247e-37 -2.1619769e-37 -1.6730693e-37 -3.3529007e-37 -1.2545095e-37 2.2573113e-37 2.738943e-37 2.823039e-38
3.9702054e-37 -3.0785128e-37 8.3251926e-38 -2.7725374e-37 1.4778233e-37 1.6943772e-37 -2.4232114e-37 2.1092192e-37
-4.6903155e-37 -2.2034728e-37 -5.3079706e-38 2.642398e-37 1.5383838e-37 1.9586298e-37 3.7298412e-38 1.045606e-37
-2.5946465e-38 7.677909e-38 -5.4035154e-37 -2.5982706e-37 -4.4260687e-38 1.5207935e-37 9.357617e-38 -2.0241028e-37
1.423391e-37 1.5310328e-37 -5.976012e-38 2.2155836e-37 -3.567384e-37 2.1480522e-37 -5.408046e-38 1.8059103e-37
2.1895862e-37 1.8246688e-37 2.4642715e-37 -1.8917253e-37 -6.416562e-39 -1.9598845e-37 1.1826112e-37 4.767634e-37
1.9110334e-37 -1.7473593e-37 -1.8601168e-37 5.078509e-37 9.723032e-38 -2.7793156e-37 3.981374e-37 3.4809057e-37
2.2266413e-37 9.0326264e-38 -4.4717968e-37 1.4508232e-37 -6.9415214e-37 -1.1521855e-37 -1.2383235e-38 -5.9337425e-37
1.8509949e-37 2.107319e-37 1.5557879e-37 -3.5439116e-37 1.5043609e-37 -1.4624223e-37 -4.8694014e-37 -2.5056634e-37
2.279565e-37 2.0828703e-37 4.4884984e-37 -4.300019e-37 -9.3136417e-38 8.045528e-38 -4.010074e-37 -1.7768039e-38
2.1235503e-37 -1.2316362e-37 -7.873299e-38 -1.0713637e-37 -1.7427679e-37 4.474808e-39 -3.2887116e-38 -1.1748623e-37
5.5782764e-37 4.5044644e-38 2.2452052e-37 -1.9758407e-37 2.1902748e-37 -1.985188e-37 2.3655387e-37 1.9305389e-37
1.2622472e-37 -3.240116e-37 1.5407717e-37 3.4065016e-37 1.5723003e-37 -1.8410374e-37 1.9814558e-37 -1.1776247e-37
-9.930527e-38 3.9831427e-38 -3.9018633e-37 -1.7866784e-37 1.1618593e-37 -2.0268051e-37 -2.131296e-38 -2.0181705e-37
-2.0556553e-37 2.657861e-37 3.1411058e-37 -6.2639504e-38 1.9049962e-37 4.8271145e-38 -2.1310214e-37 -1.6847911e-37
2.270485e-39 2.875631e-37 1.1406034e-38 1.7949124e-37 1.5289371e-37 1.2751217e-37 6.205184e-38 3.4149437e-37
1.947697e-37 5.190573e-37 1.9827476e-37 6.6953875e-37 -1.2076239e-37 -2.5731979e-37 -2.2640008e-37 -1.69624e-37
-4.6476577e-37 -3.969488e-37 -1.819148e-37 4.86974e-37 -1.817358e-37 -3.7094083e-37 1.0156856e-37 -4.7986096e-37
-1.3247177e-37 -1.7469996e-37 2.490311e-37 -1.0991628e-37 2.0568095e-37 -1.5395417e-37 -1.723413e-37 1.7578182e-37
1.1709701e-37 -5.3055617e-37 -6.355054e-38 -1.8241203e-37 -2.0346425e-37 4.719415e-37 -2.0855617e-37 8.6928093e-38
-7.1082967e-38 4.25517e-37 -2.1557896e-37 -8.912571e-38 6.3557786e-38 -1.4516796e-37 2.0039963e-37 -2.125259e-37
-2.5451674e-37 -2.1611941e-37 2.191509e-37 2.0851424e-37 3.66106e-40 1.6835473e-37 -2.9205656e-37 1.2381131e-37
-3.007031e-37 1.0553518e-37 3.5060864e-37 1.437677e-37 1.3683653e-37 2.3086933e-37 2.3992239e-37 -2.1227622e-37
-2.6546308e-37 -6.1220474e-37 2.2415556e-37 2.470356e-37 2.1617412e-37 1.287328e-38 -2.1970216e-37 1.0367057e-37
1.3654881e-37 1.8517075e-37 -1.9475686e-37 -2.0510308e-37 -1.1318133e-37 -4.2246795e-38 -7.7391125e-38 1.486577e-37
2.5604382e-37 -3.4598431e-37 8.544946e-38 1.0311148e-37 -2.0902808e-37 2.040495e-37 -2.6470115e-37 9.798273e-38
00000000: cbb4 9282 c672 3982 5e16 7f82 5795 cb02
00000010: 0af6 d581 f2ab d282 9669 7402 f812 0101
00000020: cd55 3a82 d7c8 9582 2722 5482 85fb 0b82
00000030: 0615 7382 3aa7 8402 9a88 9a02 dc74 3280
00000040: a2da 8e02 b677 1d02 eaa7 8d82 513a 7e82
00000050: 489d 3b82 64c5 9182 05de 8482 4438 b982
00000060: f738 9681 fda6 8882 995c 8982 822d 4d02
00000070: 0fdd 9382 de9e 8882 d3dd 9202 76c7 7802
00000080: bca1 6b01 8b9d b282 c798 4e82 5388 1d83
00000090: ff9f cf82 6328 8202 556f 8102 dc97 0903
000000a0: 411e e182 7dcd ff01 80b9 8582 b7b6 0a82
000000b0: c8e1 a382 f0f7 4402 98e9 0f83 3691 8d82
000000c0: 4ee7 9302 f322 9382 f5b9 6382 c52f e482
000000d0: 47c1 2a82 e99f 9902 1e67 ba02 6cb3 1901
000000e0: 5e19 0703 4283 d182 20a2 e201 6ab0 bc82
000000f0: a026 4902 6ea0 6602 4cea a482 c88b 8f02
00000100: 699a 1f83 e9f5 9582 287f 9081 11d5 b302
00000110: da64 5102 254c 8502 6612 4b01 0d52 0e02
00000120: 1844 0d81 3703 d101 42df 3783 42d4 b082
00000130: 65fa 7081 ebff 4e02 13bd fe01 d8c0 8982
00000140: f0bd 4102 b564 5002 baae a281 e9c8 9602
00000150: 98c8 f282 5930 9202 9438 9381 cace 7502
00000160: f903 9502 6e5c 7802 aab5 a702 81be 8082
00000170: c4de 4580 0162 8582 fcf7 2002 f33b 2203
00000180: e60e 8202 96d6 6d82 9c2f 7d82 0ed0 2c03
00000190: d257 0402 8226 bd82 a97a 0703 eee5 ec02
000001a0: 9089 9702 38e4 f501 d82a 1883 cf79 4502
000001b0: 2e35 6c83 ced3 1c82 6cd7 8680 30ea 4983
000001c0: c2f1 7b02 ad6a 8f02 4cc3 5302 a62f f182
000001d0: 54c3 4c02 fb0d 4782 78b2 2583 d086 aa82
000001e0: a023 9b02 b8c0 8d02 56bc 1803 7352 1283
000001f0: 9c8a fd81 2605 db01 ac74 0883 107a c180
00000200: 7785 9002 42a4 2782 e354 d681 94d3 1182
00000210: 9936 6d82 f2b9 3000 f30d 3381 fae9 1f82
00000220: a4d1 3d03 123f 7501 fecc 9802 0078 8682
00000230: f80f 9502 da1a 8782 7ffd a002 bb62 8302
00000240: e5ce 2b02 c882 dc82 0fb8 5102 a1d5 e702
00000250: ab02 5602 ca96 7a82 d4d9 8602 3b4a 2082
00000260: d62a 0782 e8dc 5801 06c6 0483 a830 7382
00000270: e324 1e02 edef 8982 dc13 e880 7d59 8982
00000280: 91e6 8b82 78e2 b402 c8c5 d502 5d85 aa81
00000290: b7a5 8102 1468 8301 a107 9182 6752 6582
000002a0: 30b9 1800 8fb4 c302 6233 7c00 924f 7402
000002b0: af1b 5002 828f 2d02 d2eb a801 b668 e802
000002c0: ab8d 8402 45a0 3003 56f0 8602 0dd5 6303
000002d0: 8d5f 2482 6e1f af82 7514 9a82 56e1 6682
000002e0: cf26 1e83 1e13 0783 0e9c 7782 6bb5 2503
000002f0: af5d 7782 0273 fc82 7a3f 0a02 c949 2383
00000300: ad4f 3482 0dca 6d82 567b a902 3c9c 1582
00000310: adfa 8b02 338d 5182 2e94 6a82 0643 6f02
00000320: 5a62 1f02 f689 3483 4300 ad81 5149 7882
00000330: 7978 8a82 e797 2003 9cef 8d82 0aa4 ec01
00000340: 9981 c181 c2cb 1003 27b7 9282 8e9f f281
00000350: 5005 ad01 a797 4582 8a62 8802 3ca3 9082
00000360: 1237 ad82 5015 9382 7925 9502 4ee8 8d02
00000370: 8efc 0300 1027 6502 6ec3 c682 f285 2802
00000380: dea5 cc82 a5a5 0f02 a49c ee02 bbaf 4302
00000390: 9240 3a02 1c1f 9d02 6048 a302 bc77 9082
000003a0: 31aa b482 8e52 5083 688d 9802 ac1f a802
000003b0: d81e 9302 782d 8c00 8485 9582 ec1b 0d02
000003c0: 51dc 3902 970a 7c02 6e8b 8482 ff95 8b82
000003d0: f00d 1a82 7003 6681 bead d281 a657 4a02
000003e0: 2041 ae02 f876 eb82 959d e801 1b59 0c02
000003f0: d441 8e82 70de 8a02 7225 b482 005e 0502

in_proj_bias f4 [192]
0.0 0.0 0.0 0.0 0.0 0.0 0.0 0.0
0.0 0.0 0.0 0.0 0.0 0.0 0.0 0.0
0.0 0.0 0.0 0.0 0.0 0.0 0.0 0.0
0.0 0.0 0.0 0.0 0.0 0.0 0.0 0.0
0.0 0.0 0.0 0.0 0.0 0.0 0.0 0.0
0.0 0.0 0.0 0.0 0.0 0.0 0.0 0.0
0.0 0.0 0.0 0.0 0.0 0.0 0.0 0.0
0.0 0.0 0.0 0.0 0.0 0.0 0.0 0.0
0.0 0.0 0.0 0.0 0.0 0.0 0.0 0.0
0.0 0.0 0.0 0.0 0.0 0.0 0.0 0.0
0.0 0.0 0.0 0.0 0.0 0.0 0.0 0.0
0.0 0.0 0.0 0.0 0.0 0.0 0.0 0.0
0.0 0.0 0.0 0.0 0.0 0.0 0.0 0.0
0.0 0.0 0.0 0.0 0.0 0.0 0.0 0.0
0.0 0.0 0.0 0.0 0.0 0.0 0.0 0.0
0.0 0.0 0.0 0.0 0.0 0.0 0.0 0.0
-0.093218125 -0.06708896 0.058367036 0.02238254 0.07980434 0.027023409 0.100521654 0.03726436
0.07264789 -0.0009210844 -0.01900495 -1.8392666e-05 0.010549312 -0.02177975 -0.009427392 -4.058884e-05
-0.037677396 0.059377287 0.115050025 0.011475388 0.061506215 0.011717128 -0.0070568253 -0.04642863
0.034202393 0.06821351 0.0060004196 0.06389724 0.038297925 0.0034800682 -0.040381808 0.07282532
0.0047826995 0.056344 0.019837795 0.09866435 0.021189686 0.011178969 -0.090506986 -0.024109941
-0.032717884 0.04297317 0.023308668 -0.052342065 0.062168606 -0.033493765 0.05547997 -0.023944428
-0.0035956344 -0.043722592 -0.061712097 0.02297908 -0.0075627337 -0.100992344 -0.067056425 0.025215516
0.080121845 0.055728376 -0.049041763 0.045350883 0.008575445 -0.02084853 0.095409654 0.048393626
00000000: 0000 0000 0000 0000 0000 0000 0000 0000
00000010: 0000 0000 0000 0000 0000 0000 0000 0000
00000020: 0000 0000 0000 0000 0000 0000 0000 0000
00000030: 0000 0000 0000 0000 0000 0000 0000 0000
00000040: 0000 0000 0000 0000 0000 0000 0000 0000
00000050: 0000 0000 0000 0000 0000 0000 0000 0000
00000060: 0000 0000 0000 0000 0000 0000 0000 0000
00000070: 0000 0000 0000 0000 0000 0000 0000 0000
00000080: 0000 0000 0000 0000 0000 0000 0000 0000
00000090: 0000 0000 0000 0000 0000 0000 0000 0000
000000a0: 0000 0000 0000 0000 0000 0000 0000 0000
000000b0: 0000 0000 0000 0000 0000 0000 0000 0000
000000c0: 0000 0000 0000 0000 0000 0000 0000 0000
000000d0: 0000 0000 0000 0000 0000 0000 0000 0000
000000e0: 0000 0000 0000 0000 0000 0000 0000 0000
000000f0: 0000 0000 0000 0000 0000 0000 0000 0000
00000100: 0000 0000 0000 0000 0000 0000 0000 0000
00000110: 0000 0000 0000 0000 0000 0000 0000 0000
00000120: 0000 0000 0000 0000 0000 0000 0000 0000
00000130: 0000 0000 0000 0000 0000 0000 0000 0000
00000140: 0000 0000 0000 0000 0000 0000 0000 0000
00000150: 0000 0000 0000 0000 0000 0000 0000 0000
00000160: 0000 0000 0000 0000 0000 0000 0000 0000
00000170: 0000 0000 0000 0000 0000 0000 0000 0000
00000180: 0000 0000 0000 0000 0000 0000 0000 0000
00000190: 0000 0000 0000 0000 0000 0000 0000 0000
000001a0: 0000 0000 0000 0000 0000 0000 0000 0000
000001b0: 0000 0000 0000 0000 0000 0000 0000 0000
000001c0: 0000 0000 0000 0000 0000 0000 0000 0000
000001d0: 0000 0000 0000 0000 0000 0000 0000 0000
000001e0: 0000 0000 0000 0000 0000 0000 0000 0000
000001f0: 0000 0000 0000 0000 0000 0000 0000 0000
00000200: 25e9 bebd f065 89bd 4612 6f3d 975b b73c
00000210: 7570 a33d 3260 dd3c 4cde cd3d 83a2 183d
00000220: 6bc8 943d ed74 71ba 45b0 9bbc f349 9ab7
00000230: 06d7 2c3c 726b b2bc 5975 1abc ef3d 2ab8
00000240: 9d53 1abd 9935 733d 599f eb3d 4403 3c3c
00000250: f1ed 7b3d 32f9 3f3c f13c e7bb f22b 3ebd
00000260: cf17 0c3d 86b3 8b3d 2b9f c43b 8edc 823d
00000270: 49de 1c3d db11 643b 6567 25bd 7125 953d
00000280: 31b8 9c3b f7c8 663d df82 a23c 8910 ca3d
00000290: fe95 ad3c ff27 373c ba5b b9bd 3682 c5bc
000002a0: 3003 06bd a204 303d d2f1 be3c a264 56bd
000002b0: 82a4 7e3d c230 09bd f73e 633d 1b27 c4bc
000002c0: bca4 6bbb 7616 33bd d3c5 7cbd a03e bc3c
000002d0: cfd0 f7bb 13d5 cebd e154 89bd c590 ce3c
000002e0: ec16 a43d 7043 643d 04e0 48bd d9c1 393d
000002f0: 0680 0c3c 89ca aabc 2366 c33d 6538 463d

weight f4 [64, 64]
0.110821865 0.024411323 -0.14184475 0.0672758 -0.0016754884 -0.07059318 -0.01166791 0.060588542
0.024064736 -0.06435203 -0.043448444 -0.114150986 -0.025219735 -0.025036447 0.08193568 0.05948024
0.07589908 0.05077121 0.08195227 0.03827782 -0.09019857 0.043544203 0.04287993 0.13973346
0.007793844 -0.09245604 -0.08946604 -0.06108595 -0.13859802 -0.031536523 -0.026767755 -0.06151998
0.021939734 0.15509066 0.09634764 -0.0074289576 -0.050761018 -0.11698453 0.10759222 0.071992956
-0.031588424 -0.031601667 -0.007922534 0.13297327 0.023975452 0.039005958 -0.036921185 0.03864828
-0.12449612 0.026769923 -0.040468875 -0.011692886 -0.04448165 -0.003296012 -0.092817664 0.013427134
-0.11442402 0.1299481 0.08702361 -0.03361324 0.13378577 -0.072349764 -0.10534421 -0.13999628
0.068266466 -0.07123657 -0.009374032 -0.0077755256 -0.06479506 0.1493913 -0.11743849 -0.038052112
-0.070998125 -0.06599057 0.14022915 0.018035254 0.14471477 0.12636061 0.109661885 0.13576242
-0.11965674 0.1735518 -0.002675276 -0.052371774 -0.114325024 -0.10968639 0.15890855 -0.028989099
0.06438944 0.034351524 -0.1257142 0.08991316 0.0026678527 -0.081282124 -0.057938352 0.07880591
-0.067655884 0.022245606 -0.020824548 -0.11855316 -0.06652862 0.069975756 0.13563292 0.09838128
-0.03253804 0.09850155 -0.08866118 -0.06281268 0.008968745 0.051158328 -0.1523305 -0.120892026
-0.03535633 0.004446637 -0.094846 0.052558154 0.056653205 -0.09098275 -0.05842422 0.097212546
0.092484094 -0.0071429787 0.08662671 -0.085416384 0.045388993 0.030145336 -0.018435568 -0.017159585
-0.04574158 -0.09447815 -0.032789174 -0.02082613 0.020371206 0.14021121 -0.088649884 -0.10727211
-0.020857811 -0.035143603 -0.062391974 -0.08646586 0.02215814 -0.062640995 -0.07168435 0.05368731
0.055760354 0.06478267 -0.0147600295 -0.09771987 -0.15981756 -0.08818294 -0.09877284 -0.07977835
-0.105122246 0.18294504 -0.052328546 -0.098839104 -0.09602848 -0.101613276 -0.043221623 0.05735962
0.08884287 -0.08007276 -0.13562411 -0.08642456 -0.0398367 0.118277825 0.079456165 -0.036776274
-0.039451096 -0.00024508865 -0.106619194 -0.029896814 0.033631846 -0.11393359 -0.038703945 -0.095366664
0.06174656 -0.12449535 -0.07018874 -0.04924952 0.0045463047 -0.07643695 -0.029199786 -0.08956908
-0.07971755 -0.05962459 -0.014026734 0.06653425 0.023748664 0.0042998525 0.039309774 0.06876454
-0.013273843 0.008767333 -0.14870815 0.023611171 0.12314074 -0.16514818 -0.047696307 0.0021055469
-0.003952766 -0.050214767 0.025718529 -0.05451175 -0.20223792 0.12850259 -0.05214395 0.105413996
0.11644595 -0.045070328 0.032041844 -0.120762534 -0.072213076 -0.08817239 0.087600075 0.08744999
-0.09955811 -0.061874397 -0.019027978 -0.042486083 -0.06971199 0.012212533 0.12034584 -0.047316954
-0.0490796 0.068656154 0.06847412 -0.05945228 0.100892924 -0.023784475 0.0008873612 0.0579199
0.049193785 0.0790969 -0.053433917 -0.060357954 -0.14121683 0.01882808 -0.04044132 0.00852494
-0.07385389 -0.12259922 -0.040599763 0.0033330903 0.14240754 -0.01867984 0.093024164 0.04153402
0.03013333 -0.030775556 -0.052946847 -0.04218422 -0.040306143 -0.030229757 0.013262837 -0.13221067
00000000: 93f6 e23d 41fa c73c c03f 11be e5c7 893d
00000010: 109c dbba 2893 90bd c32a 3fbc b12b 783d
00000020: 6923 c53c ffca 83bd fff6 31bd fec7 e9bd
00000030: 9e99 cebc 3c19 cdbc e5cd a73d 8da1 733d
00000040: fa70 9b3d 79f5 4f3d 97d6 a73d 34c9 1c3d
00000050: 07ba b8bd 685b 323d dea2 2f3d 4a16 0f3e
00000060: 8163 ff3b 9859 bdbd f939 b7bd 4335 7abd
00000070: a4ec 0dbe 712c 01bd 0d48 dbbc 60fc 7bbd
00000080: f5ba b33c 16d0 1e3e e951 c53d 9d6e f3bb
00000090: c9ea 4fbd 9695 efbd 4f59 dc3d 0b71 933d
000000a0: dd62 01bd c070 01bd 84cd 01bc 252a 083e
000000b0: 2b68 c43c b6c4 1f3d ab3a 17bd a94d 1e3d
000000c0: d2f7 febd 994c db3c b1c2 25bd 8593 3fbc
000000d0: 6432 36bd e801 58bb 3017 bebd 7bfd 5b3c
000000e0: 2457 eabd 1d11 053e 6f39 b23d 09ae 09bd
000000f0: 23ff 083e 1d2c 94bd b5be d7bd 2f5b 0fbe
00000100: 4acf 8b3d 7be4 91bd 8a95 19bc d6c9 febb
00000110: 46b3 84bd 08fa 183e 9783 f0bd 88dc 1bbd
00000120: 7767 91bd 1026 87bd 3b98 0f3e abbe 933c
00000130: 1c30 143e ad64 013e 6996 e03d 4e05 0b3e
00000140: 980e f5bd 90b7 313e af53 2fbb c983 56bd
00000150: 3d23 eabd 42a3 e0bd ecb8 223e 8c7a edbc
00000160: 9cde 833d 2fb4 0c3d 39bb 00be 6424 b83d
00000170: 24d7 2e3b 3e77 a6bd c450 6dbd fe64 a13d
00000180: 2b8f 8abd 6b3c b63c 3e98 aabc 00cc f2bd
00000190: 2840 88bd 734f 8f3d 5be3 0a3e 207c c93d
000001a0: 9c46 05bd 2ebb c93d fe93 b5bd efa3 80bd
000001b0: a5f1 123c 658b 513d 87fc 1bbe 3d96 f7bd
000001c0: cdd1 10bd 18b5 913b 9f3e c2bd 3847 573d
000001d0: 310d 683d 2a55 babd 3c4e 6fbd 5f17 c73d
000001e0: 4d68 bd3d a60f eabb 5869 b13d c9ee aebd
000001f0: cfe9 393d 5af3 f63c 3006 97bc 4292 8cbc
00000200: 865b 3bbd c37d c1bd f14d 06bd 8f9b aabc
00000210: 84e1 a63c 8793 0f3e 128e b5bd 7bb1 dbbd
00000220: 00de aabc bdf2 0fbd ba8e 7fbd 0315 b1bd
00000230: fd84 b53c ec49 80bd 3fcf 92bd 3ae7 5b3d
00000240: f864 643d c7ac 843d 0dd4 71bc 5b21 c8bd
00000250: 37a7 23be 4299 b4bd 6a49 cabd d562 a3bd
00000260: 554a d7bd f255 3b3e 7556 56bd 286c cabd
00000270: 94aa c4bd 9f1a d0bd 2809 31bd ecf1 6a3d
00000280: 40f3 b53d 30fd a3bd 0ce1 0abe 5cff b0bd
00000290: cf2b 23bd a53b f23d eab9 a23d b8a2 16bd
000002a0: 7997 21bd 3e7f 80b9 2a5b dabd 2aea f4bc
000002b0: 8cc1 093d 0456 e9bd 0788 1ebd 994f c3bd
000002c0: f6e9 7c3d 6bf7 febd 1dbf 8fbd ddb9 49bd
000002d0: 2bf9 943b fa8a 9cbd 6434 efbc fe6f b7bd
000002e0: f442 a3bd ea38 74bd 63d0 65bc 1c43 883d
000002f0: 8f8c c23c c7e5 8c3b 4903 213d 6cd4 8c3d
00000300: 887a 59bc dca4 0f3c f346 18be 376c c13c
00000310: 3631 fc3d 9b1c 29be 345d 43bd 37fd 093b
00000320: 3486 81bb 00ae 4dbd aaaf d23c b647 5fbd
00000330: 7517 4fbe 2f96 033e e594 55bd 4be3 d73d
00000340: 377b ee3d aa9b 38bd 4f3e 033d 5952 f7bd
00000350: 73e4 93bd ba93 b4bd ab67 b33d fb18 b33d
00000360: 1fe5 cbbd 0270 7dbd 90e0 9bbc e305 2ebd
00000370: 29c5 8ebd 1317 483c e177 f63d 6ccf 41bd
00000380: b107 49bd 999b 8c3d 293c 8c3d 3c84 73bd
00000390: f3a0 ce3d a9d7 c2bc cd9d 683a 6b3d 6d3d
000003a0: 6c7f 493d 8efd a13d 86dd 5abd e739 77bd
000003b0: 259b 10be 583d 9a3c cca5 25bd 31ac 0b3c
000003c0: b540 97bd 4d15 fbbd f04b 26bd fa6f 5a3b
000003d0: 48d3 113e 7706 99bc 7483 be3d 941f 2a3d
000003e0: 2cda f63c 051d fcbc cbde 58bd 5cc9 2cbd
000003f0: 0e18 25bd 65a4 f7bc 5f4c 593c 3c62 07be

bias f4 [64]
-0.07996511 -0.021547696 -0.023699211 -0.027056793 -0.00086498784 -0.09359228 -0.07182716 -0.058190893
-0.052804805 -0.008531385 0.011939097 -0.056678127 0.095527664 -0.0441951 -0.014292012 0.018239338
0.04286305 -0.10400652 -0.025299737 0.001174648 0.03839047 -0.12496987 0.037041634 0.022361843
0.07434352 0.030539647 0.055881187 -0.0070874477 0.04248391 -0.0028259892 -0.03368282 -0.005866252
-0.07408785 0.0697681 -0.010742975 -0.048390064 -0.09490338 0.0031276 -0.0040209214 0.0547629
0.041805413 0.06458477 -0.017873457 -0.0075697037 -0.006035703 -0.04499579 -0.022210909 0.082966365
0.004135551 0.08731529 0.018503536 0.02378959 -0.070861004 0.08230371 -0.015482495 0.13708888
-0.03996148 0.04087865 -0.08626238 0.05646077 -0.008455529 0.06323438 0.043381352 0.03657364
00000000: bfc4 a3bd cb84 b0bc d924 c2bc 35a6 ddbc
00000010: 5ac0 62ba 4fad bfbd 1e1a 93bd 9359 6ebd
00000020: da49 58bd 39c7 0bbc 349c 433c 5327 68bd
00000030: 02a4 c33d ec05 35bd 0b29 6abc aa6a 953c
00000040: 2a91 2f3d 5f01 d5bd 6541 cfbc a5f6 993a
00000050: 533f 1d3d 34f0 ffbd f8b8 173d 2f30 b73c
00000060: 6a41 983d 482e fa3c ace3 643d d23d e8bb
00000070: 9c03 2e3d 3b34 39bb fff6 09bd b039 c0bb
00000080: 5fbb 97bd 94e2 8e3d 4e03 30bc a934 46bd
00000090: b45c c2bd 6cf8 4c3b efc1 83bb 104f 603d
000000a0: 273c 2b3d 0545 843d 5b6b 92bc 470b f8bb
000000b0: 25c7 c5bb 814d 38bd a7f3 b5bc 45ea a93d
000000c0: 8483 873b 5cd2 b23d ba94 973c 63e2 c23c
000000d0: 931f 91bd d98e a83d 4aaa 7dbc 0761 0c3e
000000e0: a6ae 23bd 5f70 273d 55aa b0bd 6943 673d
000000f0: 0f89 0abc 0781 813d a5b0 313d 3ece 153d

weight f4 [256, 64]
0.034055773 0.054700874 -0.15618311 0.08316435 -0.13335189 0.016684296 0.13493903 0.018225724
0.0055167195 -0.14700137 0.045839302 0.048528828 0.06170308 0.011951949 -0.123130575 0.09981895
0.126163 0.028331902 0.024560956 0.07307148 -0.010960354 -0.017410303 0.11687646 0.06755818
-0.07541917 0.06026152 0.13542351 0.10317657 -0.044849683 0.1332576 -0.16675207 0.032571975
-0.021150285 -0.05482671 0.03827629 -0.03774946 -0.18490808 0.04619235 -0.118180364 0.079069555
0.09043481 0.014882409 -0.09019588 -0.012840684 0.046346392 0.009456433 -0.0036446985 -0.065335214
0.04055164 -0.0035278676 -0.031488124 -0.07859141 0.06236073 -0.11282413 -0.023773436 0.06721338
0.019263575 -0.19742182 -0.06972934 0.04112645 0.033959422 0.036123764 0.073634736 -0.21385425
0.08089645 -0.14295483 -0.07973882 0.04750968 -0.033477083 0.03779853 0.012485272 0.08840835
0.087677896 -0.030842634 0.07187423 0.10678216 -0.1671218 0.12652402 -0.054052595 -0.1344202
0.081286706 0.071078666 -0.074135035 -0.038310524 0.047393695 -0.012386013 -0.08292556 0.026744304
0.03587415 -0.010632557 -0.117805086 0.063691996 0.04993621 0.0419974 0.04333799 -0.08404112
-0.07936791 -0.030999675 -0.0995125 -0.1284454 0.07775786 0.08036308 0.1344163 -0.0857616
-0.06845622 -0.03832554 0.09795753 -0.051529672 0.06429186 -0.06924775 0.13834475 -0.02284319
0.08876449 0.008416804 0.10637605 -0.2126691 0.016365556 -0.05086569 0.076425545 -0.06665849
-0.090598896 0.06786849 0.12903865 -0.019239224 -0.015892228 0.002455398 -0.059234437 0.19433123
0.005186997 0.019314498 -0.0891191 0.051435836 0.06564177 0.10135329 0.015323823 0.005796755
-0.018461207 0.004021352 -0.013344731 0.09185416 0.13337599 0.005889751 -0.03136339 0.022193255
0.04073334 0.10056095 0.068271406 -0.03801727 0.050975665 -0.14297067 0.09409499 0.11563374
-0.07933177 0.066691995 -0.04665325 -0.09946185 -0.061475743 -0.09715966 0.057182208 -0.012440733
0.027063262 0.11871283 0.13183698 0.014481982 -0.09339649 -0.02555931 0.14518322 0.021351
0.0010159613 0.1275502 -0.030493384 -0.025567628 -0.085897796 -0.08003202 0.12181142 0.036703512
-0.0072950455 0.08255592 0.06324859 -0.115740255 0.21533093 0.02811105 -0.117895335 -0.021162042
-0.043673668 -0.09536347 -0.004732488 -0.12921387 0.08357671 -0.012606841 0.06791448 -0.15568966
0.10341767 0.038173385 -0.0741109 -0.07670926 0.03264222 -0.04304455 0.0018500554 0.07108267
0.028021831 0.04720096 0.023766277 0.03347478 0.084357426 0.05383306 -0.09390831 0.104062125
0.02135558 -0.14865686 -0.01744475 0.05251032 -0.07658071 -0.057517886 -0.023537876 0.008406437
0.0570659 -0.08159679 -0.04092804 0.09667552 0.074784115 -0.010829964 0.07736503 0.011833257
-0.035469655 0.09146043 -0.016624417 0.009609503 0.056718968 0.08951212 0.13703758 -0.12215735
-0.084614344 -0.08716549 0.026124239 -0.039627295 -0.015050171 -0.03377055 0.039243102 0.048633996
0.023962477 0.07585599 0.124707185 -0.08044572 -0.022224471 0.118108034 0.14645027 -0.03920139
0.066084065 0.0013376244 -0.09461625 -0.105905466 0.027424373 -0.10104471 -0.097029254 0.13143533
00000000: 117e 0b3d 060e 603d 77ee 1fbe 1252 aa3d
00000010: 668d 08be 81ad 883c 752d 0a3e 1d4e 953c
00000020: 99c5 b43b 8787 16be fec1 3b3d 2ac6 463d
00000030: 5ebc 7c3d 1cd2 433c e22b fcbd e16d cc3d
00000040: e030 013e 4e18 e83c 0f34 c93c 80a6 953d
00000050: 0e93 33bc 0da0 8ebc ed5c ef3d f15b 8a3d
00000060: 5e75 9abd c9d4 763d 76ac 0a3e 3d4e d33d
00000070: 4db4 37bd ae74 083e 0ec1 2abe 316a 053d
00000080: 5d43 adbc f991 60bd 99c7 1c3d 2e9f 1abd
00000090: 8b58 3dbe 3134 3d3d 8c08 f2bd 38ef a13d
000000a0: e335 b93d 59d5 733c 9eb8 b8bd bb61 52bc
000000b0: b7d5 3d3d 28ef 1a3c e5db 6ebb 78ce 85bd
000000c0: 7a19 263d cc33 67bb b1f9 00bd 88f4 a0bd
000000d0: f76d 7f3d 5610 e7bd 82c0 c2bc 2ba7 893d
000000e0: a5ce 9d3c f228 4abe 42ce 8ebd 3574 283d
000000f0: 0919 0b3d 83f6 133d cfcd 963d 9cfc 5abe
00000100: 0aad a53d c062 12be 1b4e a3bd 8399 423d
00000110: 441f 09bd a2d2 1a3d 078f 4c3c 700f b53d
00000120: 7890 b33d b1a9 fcbc cc32 933d 9bb0 da3d
00000130: fa21 2bbe 838f 013e 4166 5dbd 73a5 09be
00000140: a579 a63d b191 913d 1cd4 97bd 7feb 1cbd
00000150: e41f 423d b4ee 4abc e0d4 a9bd df16 db3c
00000160: c6f0 123d 2d34 2ebc cb43 f1bd f370 823d
00000170: e989 4c3d 7705 2c3d 2d83 313d c01d acbd
00000180: a58b a2bd 08f3 fdbc 36cd cbbd 3187 03be
00000190: 833f 9f3d 6695 a43d 6da4 093e c7a3 afbd
000001a0: c632 8cbd 3efb 1cbd f59d c83d c710 53bd
000001b0: 73ab 833d c4d1 8dbd 3faa 0d3e a421 bbbc
000001c0: 28ca b53d a2e6 093c b0db d93d eec5 59be
000001d0: 0f11 863c 8b58 50bd ff84 9c3d 3f84 88bd
000001e0: ea8b b9bd a3fe 8a3d b522 043e 949b 9dbc
000001f0: 6b30 82bc beea 203b cf9f 72bd c4fe 463e
00000200: aff7 a93b 7039 9e3c 1384 b6bd 62ae 523d
00000210: 316f 863d 5092 cf3d c610 7b3c b5f2 bd3b
00000220: f53b 97bc 8cc5 833b dca3 5abc 091e bc3d
00000230: b793 083e d0fe c03b e676 00bd a1ce b53c
00000240: 01d8 263d e6f2 cd3d e1d1 8b3d ffb7 1bbd
00000250: dccb 503d e766 12be e0b4 c03d 62d1 ec3d
00000260: b278 a2bd d095 883d 7a17 3fbd a8b2 cbbd
00000270: fdcd 7bbd a5fb c6bd e437 6a3d 37d4 4bbc
00000280: c6b3 dd3c b61f f33d 4600 073e d645 6d3c
00000290: a946 bfbd c261 d1bc e9aa 143e 4be8 ae3c
000002a0: 012a 853a 859c 023e 43cd f9bc 3473 d1bc
000002b0: 2feb afbd d4e7 a3bd 4478 f93d 6c56 163d
000002c0: 470b efbb 1413 a93d 7a88 813d 3a09 edbd
000002d0: b67f 5c3e 2549 e63c 1c73 f1bd 055c adbc
000002e0: 29e3 32bd ec4d c3bd fd12 9bbb a450 04be
000002f0: 442a ab3d ec8c 4ebc bf16 8b3d 1c6d 1fbe
00000300: a5cc d33d b25b 1c3d 75c7 97bd bf19 9dbd
00000310: d9b3 053d 7b4f 30bd 8f7d f23a ca93 913d
00000320: 0a8e e53c cb55 413d 7fb1 c23c da1c 093d
00000330: 96c3 ac3d 0e80 5c3d 0053 c0bd 861e d53d
00000340: e6f1 ae3c 8139 18be 4be8 8ebc 1015 573d
00000350: 59d6 9cbd e097 6bbd 81d2 c0bc 27bb 093c
00000360: efbd 693d 381c a7bd 29a4 27bd d1fd c53d
00000370: 6a28 993d 2970 31bc 8f71 9e3d 47e0 413c
00000380: a148 11bd 9b4f bb3d ee2f 88bc 2d71 1d3c
00000390: 2652 683d 2152 b73d 9453 0c3e a22d fabd
000003a0: 494a adbd d283 b2bd 8002 d63c 3b50 22bd
000003b0: fe94 76bc fd52 0abd 60bd 203d 7134 473d
000003c0: f54c c43c 635a 9b3d 7b66 ff3d bac0 a4bd
000003d0: 1810 b6bc a0e2 f13d 0ff7 153e a391 20bd
000003e0: 1557 873d 3a53 af3a 2ac6 c1bd f7e4 d8bd
000003f0: 14a9 e03c 87f0 cebd 46b7 c6bd fc96 063e

bias f4 [256]
-0.008039726 -0.137592 -0.037763253 0.089577295 -0.0652885 -0.006169799 -0.10893268 0.009226706
0.022913931 0.099834986 0.10717097 -0.073570006 0.005496445 -0.03416261 0.06910231 -0.09189439
0.07848441 -0.06806549 -0.10414217 -0.067959905 0.07692509 0.0046562077 -0.023010021 -0.05963781
0.0763481 -0.05466525 -0.08508778 -0.056642123 0.0061688176 -0.12048012 -0.0073445733 -0.02297392
-0.0518652 0.037896533 -0.054804258 0.11028383 0.043264497 0.035474412 0.01666005 0.04379042
0.08899487 0.057943776 -0.015910465 -0.050478656 -0.13569346 0.009939126 0.026902502 0.003961599
-0.08547466 0.077893786 0.09130914 -0.10196205 0.087930106 -0.037983082 -0.11728898 -0.036144078
-0.019768309 -0.03578718 0.07889968 -0.12396726 -0.12375992 0.046954256 -0.09937245 -0.065990776
0.035529237 0.051884923 0.05832004 0.019916778 0.08594487 0.014013739 0.08261894 0.0050642197
-0.08975537 0.015654074 0.018384604 -0.13426359 0.0023138383 -0.09302305 0.1030712 -0.020343477
0.0149202375 -0.087167636 0.03930431 0.024143716 0.057020087 0.042924445 -0.016558075 -0.005964583
0.08666815 0.07384489 -0.085302174 -0.09010495 0.07869344 -0.024337612 -0.017314732 0.083920136
-0.05740106 -0.06922869 0.053123727 -0.043236915 -0.07440801 0.08185936 -0.006311152 0.015060843
0.042498335 -0.08879996 -0.1155307 0.021590224 -0.05519835 0.019023 -0.060199 0.058089912
0.10318147 -0.08157954 0.014474908 -0.08081239 0.032942053 -0.043635897 -0.12810369 -0.1516077
0.09406881 0.023913799 -0.088296704 0.059145574 -0.051861048 0.056498937 -0.064508244 -0.06685985
-0.017945977 0.044321325 -0.039562974 -0.071752034 -0.012999408 0.051900554 -0.013360677 0.02042652
0.044449173 0.005764899 0.020719191 -0.12559727 0.07509404 -0.06606759 -0.064338565 0.11433307
0.019905305 -0.08339188 0.100861795 0.08482306 -0.013418232 0.1137845 0.056237765 0.049178928
-0.0589562 0.09752686 0.11453997 0.032586403 0.06951107 -0.089972 -0.12092532 -0.14627941
0.093693346 -0.009008806 -0.110264175 -0.03613152 0.07696465 -0.06454792 0.027404392 -0.10608748
-0.06737876 0.08874846 -0.031650472 -0.09638058 -0.017507063 -0.034085054 0.07524045 0.0756368
-0.12199422 0.10459585 0.102781385 0.07682387 -0.015975624 0.09766053 -0.07892728 0.043258328
0.01628914 0.09360277 -0.063702494 0.0728541 0.08413865 -0.033025563 -0.032088157 0.03503775
0.07597188 0.058929678 -0.024806758 0.015087898 -0.08491138 0.026425473 0.11400143 -0.006733254
-0.07298453 -0.016437681 0.020017702 0.08748545 -0.01574455 0.09442105 0.09536778 0.09502775
-0.07764065 0.013724726 0.06148376 -0.0863261 -0.074355 -0.10150202 0.03947519 0.037957788
0.09164496 0.044187076 0.053856753 0.003988486 0.09407147 -0.07228934 -0.025145864 0.07031122
-0.13899764 -0.062811606 -0.06711819 -0.13271776 -0.079348356 -0.13516232 0.022977984 -0.029052647
0.0688217 -0.06649754 0.051333968 -0.05250734 0.008490054 -0.08820014 -0.13221194 -0.08160732
-0.059372295 0.018431481 -0.10143154 -0.017454887 -0.00531358 -0.021651162 -0.009034662 0.025009863
-0.106284976 -0.061572183 0.027770575 0.023140924 0.0524122 -0.0702451 0.050964322 -0.11707592
00000000: 0eb9 03bc ebe4 0cbe a4ad 1abd 4d74 b73d
00000010: fab5 85bd 062c cabb 1918 dfbd 9c2b 173c
00000020: ffb5 bb3c 4976 cc3d 747c db3d dfab 96bd
00000030: 861b b43b 18ee 0bbd 8385 8d3d 2033 bcbd
00000040: 6fbc a03d eb65 8bbd 7d48 d5bd 902e 8bbd
00000050: e78a 9d3d 1a93 983b 837f bcbc c746 74bd
00000060: 655c 9c3d abe8 5fbd 8142 aebd 9201 68bd
00000070: cb23 ca3b 48be f6bd bfaa f0bb cd33 bcbc
00000080: 9b70 54bd 6539 1b3d 6e7a 60bd 7ddc e13d
00000090: 1d36 313d 9e4d 113d a87a 883c 955d 333d
000000a0: f142 b63d 7456 6d3d aa56 82bc b5c2 4ebd
000000b0: 3af3 0abe b7d7 223c a362 dc3c 4dd0 813b
000000c0: 570d afbd c786 9f3d 4900 bb3d 7bd1 d0bd
000000d0: b314 b43d 2694 1bbd 3435 f0bd d00b 14bd
000000e0: 26f1 a1bc 9495 12bd 2896 a13d 8ce2 fdbd
000000f0: d775 fdbd 1b53 403d c883 cbbd 2c26 87bd
00000100: 1b87 113d 4985 543d ffe0 6e3d 8328 a33c
00000110: dd03 b03d e299 653c 1e34 a93d c1f1 a53b
00000120: aad1 b7bd f93c 803c 4f9b 963c 657c 09be
00000130: c4a3 173b de82 bebd fe16 d33d 5da7 a6bc
00000140: 0374 743c f284 b2bd 8efd 203d 0bc9 c53c
00000150: e58d 693d 8bd1 2f3d cda4 87bc 8c72 c3bb
00000160: 127f b13d fd3b 973d e8b2 aebd f288 b8bd
00000170: 072a a13d ac5f c7bc a0d7 8dbc 52de ab3d
00000180: 601d 6bbd c5c7 8dbd 4498 593d 3119 31bd
00000190: 3a63 98bd e1a5 a73d c8cd cebb c1c1 763c
000001a0: bc12 2e3d c1dc b5bd 5c9b ecbd fbdd b03c
000001b0: aa17 62bd 1fd6 9b3c 3a93 76bd b0ef 6d3d
000001c0: ce50 d33d 2d13 a7bd 2a28 6d3c f780 a5bd
000001d0: 3fee 063d 8ebb 32bd 9d2d 03be 0d3f 1bbe
000001e0: 26a7 c03d dfe6 c33c e7d4 b4bd a142 723d
000001f0: 406c 54bd 6e6b 673d e61c 84bd d1ed 88bd
00000200: 7103 93bc 478a 353d c90c 22bd bbf2 92bd
00000210: 78fb 54bc ad95 543d bee6 5abc 8455 a73c
00000220: 5610 363d 7ae7 bc3b 4bbb a93c 929c 00be
00000230: e7ca 993d 724e 87bd f0c3 83bd 7527 ea3d
00000240: 7310 a33c 5dc9 aabd a190 ce3d b6b7 ad3d
00000250: 25d8 5bbc d907 e93d 9259 663d d86f 493d
00000260: 0e7c 71bd 2abc c73d ef93 ea3d 5279 053d
00000270: d25b 8e3d 3d43 b8bd b2a7 f7bd 45ca 15be
00000280: 4ce2 bf3d ac99 13bc 2fd2 e1bd a5fe 13bd
00000290: a49f 9d3d b331 84bd 2d7f e03c 6544 d9bd
000002a0: e0fd 89bd c1c1 b53d eda3 01bd 2e63 c5bd
000002b0: f96a 8fbc c59c 0bbd aa17 9a3d 77e7 9a3d
000002c0: 1bd8 f9bd 5936 d63d 0c7f d23d d555 9d3d
000002d0: 50df 82bc 3e02 c83d a0a4 a1bd a52f 313d
000002e0: cd70 853c cfb2 bf3d 7476 82bd 8834 953d
000002f0: e250 ac3d d045 07bd df6e 03bd be83 0f3d
00000300: 2597 9b3d 3f60 713d 8b37 cbbc 3b33 773c
00000310: 05e6 adbd 3c7a d83c 9579 e93d a1a2 dcbb
00000320: ea78 95bd 51a8 86bc 2afc a33c 922b b33d
00000330: b7fa 80bc d35f c13d 2f50 c33d e99d c23d
00000340: 1002 9fbd acdd 603c 65d6 7b3d bdcb b0bd
00000350: 6f47 98bd 4be0 cfbd bdb0 213d a079 1b3d
00000360: 5ab0 bb3d 82fd 343d e698 5c3d d8b1 823b
00000370: 8ba8 c03d 6f0c 94bd b3fe cdbc 54ff 8f3d
00000380: 6655 0ebe 5fa3 80bd 4375 89bd 2ae7 07be
00000390: 6481 a2bd fe67 0abe 533c bc3c d1ff edbc
000003a0: 64f2 8c3d dd2f 88bd 9143 523d f011 57bd
000003b0: de19 0b3c 46a2 b4bd 9162 07be bd21 a7bd
000003c0: 5d30 73bd 9efd 963c 57bb cfbd 8dfd 8ebc
000003d0: 8a1d aebb c75d b1bc 1e06 14bc 7ce1 cc3c
000003e0: f0ab d9bd 1d33 7cbd 1e7f e33c 0992 bd3c
000003f0: 2dae 563d aadc 8fbd f7bf 503d 80c5 efbd
