xrdtrans_2.pt (torch, 458530 bytes, 31 tensors)

weight f4 [64, 21]
0	0x3d7f7328	0.06236568
1	0x3cda24ea	0.02662893
2	0xbbc16270	-0.0059016272
3	0xbcc8a8e4	-0.024494596
4	0xbc9ad1e7	-0.018898917
5	0xba580fa0	-0.00082420744
6	0x3c4994f0	0.012303576
7	0xbb41098b	-0.002945515
8	0x3bccc8e8	0.006249536
9	0x3aafa49e	0.00134005
10	0x3ebffb14	0.37496245
11	0x3ea6efc3	0.326048
12	0x3e29d3da	0.16584721
13	0x3e074805	0.13211067
14	0xbce9bffd	-0.02853393
15	0x3e5fd939	0.21860208
16	0x3e9ee85d	0.31036654
17	0x3eda989f	0.42694566
18	0x3e915595	0.28385606
19	0x3e8aa184	0.27076352
20	0x3b5f00d5	0.0034027596
21	0x3db75663	0.08952024
22	0x3e269653	0.16268282
23	0xbd3b5f77	-0.04574534
24	0x3e5f2534	0.21791536
25	0xbd4440d2	-0.04791338
26	0xbdbf2273	-0.093327425
27	0x3bddea4d	0.0067723156
28	0x3c9c6c0b	0.019094488
29	0xbda9f851	-0.08299316
30	0xbe2f1119	-0.17096366
31	0xbe07661b	-0.13222544
32	0xbd22d182	-0.039750583
33	0x3d5e966e	0.05434268
34	0x3c416c07	0.011805541
35	0xbe888b39	-0.26668718
36	0xbdf85ccd	-0.12127075
37	0xbe34e2ee	-0.17664692
38	0xbd7ff20c	-0.062486693
39	0xbe0f9aba	-0.14023867
40	0x3d73bc40	0.0595057
41	0x3dcc9d3b	0.09990927
42	0xbea87155	-0.32898965
43	0xbe9260ce	-0.2858948
44	0x3db96906	0.09053235
45	0x3df70c38	0.120628774
46	0x3db3057a	0.08741279
47	0x3d9cf36a	0.07663615
48	0x3d649eda	0.055815555
49	0xbcb0fd5f	-0.021605192
50	0x3d2dc9ac	0.042428657
51	0x3cced683	0.025248772
52	0xbe0ddcf8	-0.13853824
53	0xbe96744d	-0.29385605
54	0x3e7b2905	0.24527366
55	0x3e80da76	0.25166672
56	0x3e3b8fb1	0.18316533
57	0xbe7f7397	-0.24946438
58	0xbd31aa8c	-0.043375537
59	0xbd7081e5	-0.058717627
60	0x3d2b8521	0.04187501
61	0xbe7907a8	-0.24319327
62	0x3df3d552	0.11905922
63	0xbccc2e51	-0.02492443
64	0xbde77cdc	-0.11303112
65	0x3e128758	0.14309442
66	0x3e4922e8	0.19642222
67	0xbde4f997	-0.11180418
68	0xbe0c2f1e	-0.13689849
69	0x3e32ab31	0.17448117
70	0x3ce1172f	0.027476875
71	0x3dfa3a04	0.12218097
72	0xbdddbab5	-0.10826627
73	0x3d24576a	0.040122427
74	0x3e230af8	0.15922153
75	0x3e8148fd	0.25250998
76	0xbe18e1f4	-0.14929944
77	0xbdf858b1	-0.121262915
78	0x3e22aa35	0.15885241
79	0x3ea1471c	0.31499565
80	0x3eabfbfb	0.33590683
81	0x3ea61755	0.32439676
82	0x3dd8d00e	0.10586558
83	0xbe512b38	-0.20426643
84	0x3e08c887	0.13357745
85	0xbe45e990	-0.19327378
86	0xbd9e4965	-0.07728843
87	0x3e6fafdd	0.2340693
88	0x3d92ce99	0.071683116
89	0xbd3b614b	-0.045747083
90	0xbda3c610	-0.07996762
91	0x3e0ac211	0.13550593
92	0xbdfd7882	-0.12376501
93	0x3d44304e	0.04789763
94	0xbd4689d1	-0.048471276
95	0xbe7919b6	-0.24326214
96	0xbe33e1de	-0.1756663
97	0xbe629003	-0.22125249
98	0xbdef46bd	-0.11683414
99	0xbec5844e	-0.38577503
100	0xbe7dbf9b	-0.24780123
101	0xbf049d19	-0.5180221
102	0xbda6e96d	-0.08149991
103	0x3e22c43f	0.15895174
104	0x3df41d90	0.11919701
105	0x3e9e6d94	0.30942976
106	0x3e1ac60c	0.15114611
107	0xbd5d308a	-0.05400137
108	0x3d97371a	0.07383557
109	0x3d812f36	0.06307833
110	0x3ccb03a0	0.024782002
111	0xbe24a5d1	-0.16078879
112	0xbe19444b	-0.14967458
113	0x3d8ce097	0.068787746
114	0xbd8cad20	-0.068689585
115	0xbeecf61d	-0.4628152
116	0xbe232c35	-0.15934832
117	0xbe1f14de	-0.15535304
118	0xbef77058	-0.483279
119	0xbdbd98af	-0.09257638
120	0xbdc9596b	-0.09831508
121	0x3d7da30d	0.061923075
122	0xbb6673f8	-0.0035164338
123	0x3e1570e8	0.14593852
124	0x3ee87458	0.45401263
125	0x3c78bd6a	0.015181879
126	0x3d04b880	0.032402515
127	0x3e839478	0.2569921
128	0x3e605ac2	0.21909621
129	0x3e25a6e3	0.16176943
130	0x3e241c4c	0.1602642
131	0xbe302a2d	-0.17203589
132	0xbe300926	-0.1719099
133	0x3e5f0cc7	0.21782218
134	0xbe204756	-0.15652213
135	0xbd6ba915	-0.057534296
136	0xbe4818f5	-0.1954077
137	0xbe8b5046	-0.2720968
138	0xbe5f936e	-0.21833584
139	0xbd9ceaf0	-0.07661998
140	0xbe111139	-0.14166726
141	0x3d00c02c	0.03143327
142	0x3e979e09	0.2961276
143	0xbe334a20	-0.17508745
144	0xbf0a6d34	-0.5407288
145	0xbe99d2bd	-0.30043593
146	0xbe1f23ae	-0.15540954
147	0xbcb41815	-0.02198414
148	0x3e81f344	0.2538091
149	0x3e5d2b12	0.21598461
150	0x3a99b6d6	0.0011727463
151	0x3d4ba55b	0.049718242
152	0xbe3af463	-0.18257289
153	0xbddefca5	-0.10888032
154	0xbe6137be	-0.2199392
155	0x3e3b2d06	0.18278894
156	0x3daabb16	0.08336465
157	0x3e8b38ad	0.27191678
158	0xbe93d25c	-0.2887143
159	0xbe078380	-0.13233757
160	0x3d1c7bc7	0.03820398
161	0xbdcdb4ad	-0.10044227
162	0xbe1174b6	-0.14204678
163	0xbdc453ea	-0.09586318
164	0x3d92bf11	0.07165349
165	0xbe22e850	-0.15908933
166	0xbe88458b	-0.26615557
167	0xbc474494	-0.012162346
168	0x3d7342e6	0.05938997
169	0x3e0f1ef2	0.13976648
170	0x3e66b235	0.22528918
171	0xbe3cb8a1	-0.18429805
172	0xbe7efed3	-0.24901895
173	0x3d17f934	0.037102893
174	0x3dc88665	0.09791259
175	0x3d9a6894	0.07539478
176	0xbe4ff2d9	-0.20307483
177	0x3e1525ca	0.14565197
178	0xbf49f3ff	-0.78887933
179	0xbf07ff6e	-0.5312413
180	0xbdb90924	-0.090349466
181	0x3e95e8a3	0.2927905
182	0x3d4ea6b5	0.050451953
183	0x3dd0c932	0.10194625
184	0x3e98ccaa	0.29843646
185	0x3e105d9e	0.14098212
186	0xbd8c4899	-0.068497844
187	0x3e2385be	0.15968987
188	0x3dae1e91	0.08501924
189	0xbc3b6f2c	-0.01144008
190	0x3e3ffbe6	0.18748435
191	0xbe39d249	-0.18146624
192	0x3e2a2b50	0.16618085
193	0xbe23c5d9	-0.15993442
194	0xbe04c2e8	-0.12964976
195	0xbe1fe68b	-0.15615289
196	0xbdb9e060	-0.09075999
197	0xbd463d7c	-0.04839848
198	0x3e253de9	0.16136898
199	0xbe094b06	-0.13407525
200	0xbe02bbe3	-0.12766986
201	0xbe17cb99	-0.1482376
202	0x3df86463	0.12128522
203	0x3e9b962b	0.30388007
204	0x3e899357	0.26870224
205	0x3e7eb245	0.24872692
206	0x3e9af044	0.30261433
207	0x3d9f2c4d	0.077721216
208	0x3d02181b	0.03176127
209	0x3d6b0a54	0.057382897
210	0xbe59637f	-0.21229361
211	0xbd912256	-0.07086627
212	0x3e496585	0.19667633
213	0x3e04919f	0.12946175
214	0x3d931f3e	0.07183693
215	0xbccecbc5	-0.02524365
216	0x3d7e2cf6	0.062054597
217	0xbde5dbd4	-0.112235695
218	0xbd99461a	-0.07484074
219	0x3d88d1ba	0.06680627
220	0xbe49b42f	-0.19697641
221	0x3a73fcb7	0.0009307372
222	0xbed1b94e	-0.4096169
223	0x3e5caacf	0.21549533
224	0xbddbb0ad	-0.107270576
225	0xbe9a05e3	-0.30082616
226	0xbea991d3	-0.33119068
227	0xbd7697b1	-0.060203258
228	0x3acf33f3	0.0015808329
229	0xbe6e7d7e	-0.23290059
230	0x3df659c9	0.12028844
231	0xbd94d05b	-0.07266303
232	0xbdabd4fc	-0.08390233
233	0xbe067899	-0.13131942
234	0xbc9b4e0f	-0.01895812
235	0x3dcd5ed1	0.100278504
236	0xbd67a6f9	-0.056555722
237	0x3e57f3f1	0.2108915
238	0xbdf4d484	-0.11954597
239	0x3dbc2fb8	0.09188789
240	0xbd8359ba	-0.06413598
241	0xbe9eaf90	-0.3099332
242	0x3ebccb3f	0.36873814
243	0x3de92d96	0.11385648
244	0x3e46e8f3	0.194248
245	0x3e3dc25d	0.18531175
246	0x3e8bbbe8	0.272918
247	0x3e9f77c1	0.31146052
248	0x3df20ad1	0.11818469
249	0x3e4f4010	0.20239282
250	0x82b4e28e	-2.657866e-37
251	0xbe37f02f	-0.17962717
252	0x3bfe155b	0.0077540106
253	0xbe50bf49	-0.2038547
254	0x3e295e68	0.1653992
255	0x3e149881	0.145113

bias f4 [64]
0	0x3d247584	0.040151134
1	0xbdb3998e	-0.087695226
2	0xbe67e59f	-0.22646187
3	0xbe523e8d	-0.20531674
4	0xbda12603	-0.07868578
5	0xbe8d19b4	-0.27558672
6	0x3e52b1d4	0.20575649
7	0xbe49f5c6	-0.19722661
8	0xbe54b0d8	-0.20770586
9	0x3db9e666	0.09077148
10	0xbd53eca0	-0.051739335
11	0xbe5d6f50	-0.21624494
12	0xbd87aa8d	-0.06624327
13	0xbc7a96e0	-0.01529476
14	0xbdc2a5ec	-0.09504303
15	0xbe66a2d2	-0.22523049
16	0x3db2ea61	0.087361105
17	0xbe4406aa	-0.19143167
18	0x3e13b08e	0.14422819
19	0x3d935277	0.07193463
20	0xbe60dfed	-0.21960421
21	0x3e0efad7	0.13962875
22	0x3d1df22d	0.038561035
23	0x3cacece8	0.02110906
24	0xbe04e71d	-0.12978788
25	0x3d55cde7	0.052198317
26	0x3de2eb5d	0.11080048
27	0x3e2b1b57	0.16709648
28	0x394545f2	0.0001881344
29	0xbdec143a	-0.115272954
30	0xbdec6b8f	-0.11543953
31	0x3e4cd0e0	0.20001554
32	0x3d9ac43e	0.075569615
33	0xbe00b505	-0.12569053
34	0x3e4994e0	0.19685698
35	0xbe265aae	-0.16245529
36	0x3cbee03d	0.023300285
37	0x3e3e80f9	0.18603887
38	0x3bc78344	0.006088646
39	0x3e5200a6	0.2050806
40	0x3ce2a60b	0.027667066
41	0xbe3a3d72	-0.18187502
42	0x3d835d10	0.06414235
43	0x3d6120ca	0.05496291
44	0x3d650d4c	0.055920884
45	0xbdde814e	-0.10864507
46	0x3c11402a	0.008865396
47	0x3e358650	0.17727017
48	0x3ddc25e4	0.107494146
49	0xbe057e19	-0.13036384
50	0xbd7b909e	-0.061417215
51	0x3a5aa688	0.0008340855
52	0xbd1d4c43	-0.038402807
53	0xbde5e910	-0.11226094
54	0x3e0b44c7	0.13600455
55	0x3e7b9e91	0.24572207
56	0xbe5eefdd	-0.21771188
57	0x3db7a182	0.08966352
58	0x3b606573	0.0034240156
59	0x3decff9c	0.11572191
60	0xbe3e0098	-0.18554914
61	0xbbe15427	-0.006876487
62	0x3cb67f95	0.022277633
63	0xbe0bc9e2	-0.13651231

pe f4 [100, 64]
0	0x00000000	0.0
1	0x3f800000	1.0
2	0x00000000	0.0
3	0x3f800000	1.0
4	0x00000000	0.0
5	0x3f800000	1.0
6	0x00000000	0.0
7	0x3f800000	1.0
8	0x00000000	0.0
9	0x3f800000	1.0
10	0x00000000	0.0
11	0x3f800000	1.0
12	0x00000000	0.0
13	0x3f800000	1.0
14	0x00000000	0.0
15	0x3f800000	1.0
16	0x00000000	0.0
17	0x3f800000	1.0
18	0x00000000	0.0
19	0x3f800000	1.0
20	0x00000000	0.0
21	0x3f800000	1.0
22	0x00000000	0.0
23	0x3f800000	1.0
24	0x00000000	0.0
25	0x3f800000	1.0
26	0x00000000	0.0
27	0x3f800000	1.0
28	0x00000000	0.0
29	0x3f800000	1.0
30	0x00000000	0.0
31	0x3f800000	1.0
32	0x00000000	0.0
33	0x3f800000	1.0
34	0x00000000	0.0
35	0x3f800000	1.0
36	0x00000000	0.0
37	0x3f800000	1.0
38	0x00000000	0.0
39	0x3f800000	1.0
40	0x00000000	0.0
41	0x3f800000	1.0
42	0x00000000	0.0
43	0x3f800000	1.0
44	0x00000000	0.0
45	0x3f800000	1.0
46	0x00000000	0.0
47	0x3f800000	1.0
48	0x00000000	0.0
49	0x3f800000	1.0
50	0x00000000	0.0
51	0x3f800000	1.0
52	0x00000000	0.0
53	0x3f800000	1.0
54	0x00000000	0.0
55	0x3f800000	1.0
56	0x00000000	0.0
57	0x3f800000	1.0
58	0x00000000	0.0
59	0x3f800000	1.0
60	0x00000000	0.0
61	0x3f800000	1.0
62	0x00000000	0.0
63	0x3f800000	1.0
64	0x3f576aa4	0.84147096
65	0x3f0a5141	0.54030234
66	0x3f2e7ace	0.68156135
67	0x3f3b54b0	0.731761
68	0x3f087dba	0.53316844
69	0x3f58940e	0.84600914
70	0x3ed190f0	0.4093089
71	0x3f6992c7	0.9123959
72	0x3e9f393e	0.3109836
73	0x3f734e6b	0.9504153
74	0x3e708f25	0.23492105
75	0x3f78d5f1	0.9720145
76	0x3e35233a	0.17689219
77	0x3f7bf683	0.9842302
78	0x3e0825f3	0.13295726
79	0x3f7dba28	0.99112177
80	0x3dcc7576	0.099833414
81	0x3f7eb898	0.9950042
82	0x3d996f36	0.07491915
83	0x3f7f47d1	0.9971896
84	0x3d6636ae	0.05620449
85	0x3f7f9868	0.9984193
86	0x3d2cacfb	0.042157155
87	0x3f7fc5bd	0.999111
88	0x3d01815b	0.031617504
89	0x3f7fdf3c	0.99950004
90	0x3cc23ea5	0.023711512
91	0x3f7fed93	0.99971884
92	0x3c91ab43	0.01778186
93	0x3f7ff5a3	0.99984187
94	0x3c5a7a49	0.013334819
95	0x3f7ffa2c	0.99991107
96	0x3c23d657	0.009999833
97	0x3f7ffcb9	0.99995
98	0x3bf5b916	0.0074988706
99	0x3f7ffe28	0.99997187
100	0x3bb8445a	0.0056233825
101	0x3f7ffef7	0.9999842
102	0x3b8a2e5a	0.0042169513
103	0x3f7fff6b	0.9999911
104	0x3b4f3e1c	0.0031622713
105	0x3f7fffac	0.999995
106	0x3b1b6904	0.0023713717
107	0x3f7fffd1	0.9999972
108	0x3ae91520	0.0017782785
109	0x3f7fffe6	0.99999845
110	0x3aaec98b	0.0013335211
111	0x3f7ffff1	0.9999991
112	0x3a83126d	0.0009999998
113	0x3f7ffff8	0.9999995
114	0x3a449489	0.000749894
115	0x3f7ffffb	0.9999997
116	0x3a136a13	0.0005623411
117	0x3f7ffffe	0.9999999
118	0x39dd1722	0.0004216964
119	0x3f7fffff	0.99999994
120	0x39a5cb60	0.0003162278
121	0x3f7fffff	0.99999994
122	0x3978a80d	0.00023713727
123	0x3f800000	1.0
124	0x393a7753	0.00017782794
125	0x3f800000	1.0
126	0x390bd46d	0.00013335208
127	0x3f800000	1.0
128	0x3f68c7b7	0.9092974
129	0xbed51133	-0.41614684
130	0x3f7f5ad9	0.99748
131	0x3d914d53	0.070948265
132	0x3f66f20a	0.9021307
133	0x3edce8b2	0.43146282
134	0x3f3f3511	0.7469035
135	0x3f2a3903	0.6649324
136	0x3f17541b	0.5911271
137	0x3f4e7bec	0.8065784
138	0x3ee9d3b5	0.45669332
139	0x3f63be69	0.8896242
140	0x3eb247f6	0.34820527
141	0x3f6ffaa6	0.93741834
142	0x3e86f082	0.26355368
143	0x3f76f2f5	0.96464473
144	0x3e4b6ff8	0.19866931
145	0x3f7ae5a5	0.9800666
146	0x3e1900d3	0.1494172
147	0x3f7d204f	0.98877424
148	0x3de5d986	0.1122313
149	0x3f7e61f3	0.9936821
150	0x3dac85af	0.084239356
151	0x3f7f170e	0.99644554
152	0x3d8170c8	0.063203394
153	0x3f7f7cf9	0.9980007
154	0x3d4230aa	0.04740969
155	0x3f7fb64f	0.99887556
156	0x3d11a55d	0.035558093
157	0x3f7fd68e	0.9993676
158	0x3cda7550	0.026667267
159	0x3f7fe8b1	0.99964434
160	0x3ca3d43e	0.019998666
161	0x3f7ff2e5	0.9998
162	0x3c75b751	0.014997319
163	0x3f7ff8a1	0.9998875
164	0x3c38439b	0.011246587
165	0x3f7ffbdb	0.99993676
166	0x3c0a2e0a	0.008433828
167	0x3f7ffdab	0.9999644
168	0x3bcf3dd8	0.006324511
169	0x3f7ffeb1	0.99998003
170	0x3b9b68e8	0.0047427304
171	0x3f7fff43	0.99998873
172	0x3b691508	0.0035565514
173	0x3f7fff96	0.9999937
174	0x3b2ec980	0.0026670396
175	0x3f7fffc4	0.9999964
176	0x3b031268	0.0019999985
177	0x3f7fffdf	0.99999803
178	0x3ac49485	0.0014997876
179	0x3f7fffed	0.99999887
180	0x3a936a12	0.0011246821
181	0x3f7ffff5	0.99999934
182	0x3a5d1720	0.0008433927
183	0x3f7ffffa	0.99999964
184	0x3a25cb5f	0.0006324555
185	0x3f7ffffd	0.9999998
186	0x39f8a80c	0.0004742745
187	0x3f7ffffe	0.9999999
188	0x39ba7753	0.00035565588
189	0x3f7fffff	0.99999994
190	0x398bd46d	0.00026670416
191	0x3f800000	1.0
192	0x3e1081c3	0.14112
193	0xbf7d7026	-0.9899925
194	0x3f473cde	0.7782725
195	0xbf20bfce	-0.6279267
196	0x3f7e45d7	0.9932532
197	0xbded7fab	-0.11596616
198	0x3f742164	0.9536345
199	0x3e9a1863	0.3009673
200	0x3f5009c2	0.8126489
201	0x3f152f58	0.58275366
202	0x3f2724b7	0.652904
203	0x3f41e7a2	0.7574407
204	0x3f022f6c	0.5085361
205	0x3f5c6d29	0.86104065
206	0x3ec768a7	0.3894703
207	0x3f6bc937	0.92103904
208	0x3e974e6c	0.2955202
209	0x3f7490ef	0.9553365
210	0x3e646de2	0.22307542
211	0x3f798c92	0.9748012
212	0x3e2beed7	0.16790329
213	0x3f7c5d9e	0.9858035
214	0x3e01332c	0.12617177
215	0x3f7df443	0.9920084
216	0x3dc1ffc0	0.094726086
217	0x3f7ed94f	0.99550337
218	0x3d919306	0.071081206
219	0x3f7f5a3a	0.9974705
220	0x3d5a694f	0.053323086
221	0x3f7fa2c3	0.9985773
222	0x3d23d1c5	0.039994974
223	0x3f7fcb90	0.99919987
224	0x3cf5b91f	0.0299955
225	0x3f7fe283	0.99955004
226	0x3cb84747	0.022494925
227	0x3f7fef6b	0.999747
228	0x3c8a31c6	0.016869437
229	0x3f7ff6ad	0.9998577
230	0x3c4f4446	0.012650555
231	0x3f7ffac2	0.99992
232	0x3c1b6e0d	0.009486687
233	0x3f7ffd0d	0.999955
234	0x3be91d14	0.007114062
235	0x3f7ffe58	0.9999747
236	0x3baecfa8	0.005334813
237	0x3f7fff11	0.99998575
238	0x3b831713	0.0040005534
239	0x3f7fff7a	0.999992
240	0x3b449b92	0.0029999954
241	0x3f7fffb5	0.9999955
242	0x3b136f60	0.0022496805
243	0x3f7fffd6	0.9999975
244	0x3add1f17	0.0016870227
245	0x3f7fffe8	0.99999857
246	0x3aa5d157	0.0012650889
247	0x3f7ffff3	0.9999992
248	0x3a78b10e	0.00094868324
249	0x3f7ffff9	0.9999996
250	0x3a3a7e09	0.00071141176
251	0x3f7ffffc	0.99999976
252	0x3a0bd97e	0.0005334838
253	0x3f7ffffe	0.9999999
254	0x39d1bea4	0.00040005625
255	0x3f7fffff	0.99999994

in_proj_weight f4 [192, 64]
0	0x02878863	1.991475e-37
1	0x81a87b16	-6.1890073e-38
2	0x82bc3fc2	-2.7660712e-37
3	0x82cf4385	-3.045467e-37
4	0x026010b5	1.6461716e-37
5	0x0318c7be	4.489808e-37
6	0x828e7588	-2.0932484e-37
7	0x8257cb2d	-1.5854014e-37
8	0x0286ec74	1.9825248e-37
9	0x828c2942	-2.0594832e-37
10	0x028eead0	2.09998e-37
11	0x0353e2eb	6.2267816e-37
12	0x820d48be	-1.037992e-37
13	0x016a9bdd	4.309084e-38
14	0x02cbdf94	2.9956497e-37
15	0x82ac45a9	-2.5313112e-37
16	0x014fec48	3.818942e-38
17	0x02536c8b	1.5532982e-37
18	0x8224962c	-1.2091914e-37
19	0x028d9e66	2.0809004e-37
20	0x024066ed	1.413547e-37
21	0x033dedbe	5.5815023e-37
22	0x0247295a	1.4632078e-37
23	0x027d1bd9	1.8595496e-37
24	0x02b57764	2.6664087e-37
25	0x825ca23e	-1.6209609e-37
26	0x82b96f00	-2.7247018e-37
27	0x827f7d79	-1.877045e-37
28	0x83032b11	-3.854688e-37
29	0x02921e38	2.1470117e-37
30	0x8292133e	-2.1463816e-37
31	0x834fff0f	-6.1124626e-37
32	0x82c3b8b0	-2.875868e-37
33	0x02cdbe6e	3.0231344e-37
34	0x822942b8	-1.2435306e-37
35	0x82913677	-2.1337096e-37
36	0x0245f17a	1.4542575e-37
37	0x028f210b	2.1030927e-37
38	0x828fc95f	-2.1127543e-37
39	0x82811164	-1.8964828e-37
40	0x8272f07c	-1.7848368e-37
41	0x0296b2e5	2.21432e-37
42	0x0271821f	1.7743227e-37
43	0x0271b947	1.7759056e-37
44	0x024ae514	1.4906358e-37
45	0x02801cce	1.8824443e-37
46	0x01d03afd	7.6491777e-38
47	0x821c5acf	-1.1487131e-37
48	0x02975a02	2.2239118e-37
49	0x828b5e9d	-2.047852e-37
50	0x02646da8	1.6782264e-37
51	0x026529c1	1.6836246e-37
52	0x830a3e91	-4.062638e-37
53	0x8296ca51	-2.2156643e-37
54	0x027d2778	1.8598831e-37
55	0x829311a2	-2.160983e-37
56	0x828e1ea4	-2.0882612e-37
57	0x82cca9fa	-3.0072668e-37
58	0x028b128a	2.0434855e-37
59	0x026d6289	1.7440288e-37
60	0x021056aa	1.060432e-37
61	0x826857e1	-1.7069888e-37
62	0x82499523	-1.4809948e-37
63	0x8292ed7e	-2.1589086e-37
64	0x811b8935	-2.8567445e-38
65	0x03460505	5.8192733e-37
66	0x03366026	5.3595366e-37
67	0x835368c7	-6.2127605e-37
68	0x01c4890e	7.2195693e-38
69	0x027b3f94	1.8458814e-37
70	0x01b5c8b6	6.6776905e-38
71	0x827e6e14	-1.8692564e-37
72	0x82410784	-1.4181557e-37
73	0x028866a4	2.0042317e-37
74	0x8243a466	-1.4373517e-37
75	0x011fc492	2.934472e-38
76	0x8283dcdc	-1.9375487e-37
77	0x8201f752	-9.548401e-38
78	0x029085b3	2.1235638e-37
79	0x028b230d	2.0444333e-37
80	0x81270149	-3.0673978e-38
81	0x001364f8	1.781095e-39
82	0x008faaa8	1.3193696e-38
83	0x0272a1cb	1.7825784e-37
84	0x8285326d	-1.9571537e-37
85	0x025ea857	1.6358295e-37
86	0x02818a70	1.9034306e-37
87	0x81cd6188	-7.544506e-38
88	0x82bd864d	-2.784814e-37
89	0x0259b806	1.5995454e-37
90	0x82c1dfdd	-2.8487292e-37
91	0x028e5763	2.0915182e-37
92	0x0272a5b9	1.7826912e-37
93	0x032169bc	4.7435025e-37
94	0x82001276	-9.409253e-38
95	0x021f813e	1.1718566e-37
96	0x03298f24	4.9828954e-37
97	0x0232aa68	1.3126279e-37
98	0x82818156	-1.9029082e-37
99	0x02609600	1.6499969e-37
100	0x82818a6a	-1.9034292e-37
101	0x820a50cd	-1.0161827e-37
102	0x828f4f3b	-2.1057438e-37
103	0x82710fc3	-1.7710407e-37
104	0x02f70328	3.62952e-37
105	0x027613b3	1.8078879e-37
106	0x822badc1	-1.2612961e-37
107	0x0318e33e	4.4929647e-37
108	0x8296a30c	-2.2134103e-37
109	0x02c0b948	2.831821e-37
110	0x81c89952	-7.36884e-38
111	0x006860b4	9.585582e-39
112	0x00846c4e	1.2161138e-38
113	0x80017054	-1.32131e-40
114	0x82a45355	-2.4145464e-37
115	0x836623d7	-6.7632067e-37
116	0x830611df	-3.9399576e-37
117	0x8201150e	-9.483466e-38
118	0x82e522d3	-3.3668514e-37
119	0x80e7edac	-2.129926e-38
120	0x826868db	-1.707476e-37
121	0x81a1d440	-5.9446623e-38
122	0x82101aa2	-1.0587092e-37
123	0x8284bca4	-1.9503931e-37
124	0x82c88515	-2.9463744e-37
125	0x825c1dba	-1.6171578e-37
126	0x021fa93f	1.1730046e-37
127	0x02813db8	1.8990271e-37
128	0x82ee301d	-3.4998573e-37
129	0x82cedc24	-3.0395334e-37
130	0x81ef58a7	-8.7921944e-38
131	0x828f9a01	-2.1100355e-37
132	0x8298c21a	-2.2445801e-37
133	0x02941d5d	2.17635e-37
134	0x02647368	1.6783914e-37
135	0x028f68a6	2.1072027e-37
136	0x82d1e232	-3.083962e-37
137	0x81d07189	-7.657005e-38
138	0x834336fa	-5.736846e-37
139	0x00695d4e	9.676199e-39
140	0x828d47a0	-2.0759199e-37
141	0x827a19e2	-1.8374527e-37
142	0x8346549a	-5.828409e-37
143	0x027a7fd6	1.8403786e-37
144	0x80270732	-3.584166e-39
145	0x034652be	5.8281954e-37
146	0x82e12930	-3.308442e-37
147	0x02979ae0	2.227635e-37
148	0x025cc9c4	1.6220951e-37
149	0x01b70777	6.7234295e-38
150	0x0281372c	1.8986514e-37
151	0x008f16ca	1.3140651e-38
152	0x029ec63a	2.332979e-37
153	0x81a7634e	-6.1488607e-38
154	0x82848bfa	-1.9476e-37
155	0x0291462e	2.1346116e-37
156	0x82fb0faf	-3.6890137e-37
157	0x02e7df26	3.407048e-37
158	0x02016ece	9.509223e-38
159	0x0264eadf	1.6818199e-37
160	0x027e854d	1.8699228e-37
161	0x82372ce7	-1.3457603e-37
162	0x82960afa	-2.204682e-37
163	0x028c7efe	2.064404e-37
164	0x028c07f8	2.0575725e-37
165	0x82b987d2	-2.7261264e-37
166	0x02907b0c	2.1229524e-37
167	0x0288bec7	2.0092905e-37
168	0x02ae37b5	2.5598976e-37
169	0x0294c222	2.1858072e-37
170	0x82127190	-1.0758977e-37
171	0x025f8173	1.6420603e-37
172	0x828a4b68	-2.0320559e-37
173	0x02824fd2	1.9147598e-37
174	0x829f9554	-2.344866e-37
175	0x02fa892f	3.6812938e-37
176	0x02884e4e	2.0028349e-37
177	0x0323f278	4.8179735e-37
178	0x02a408d4	2.4102701e-37
179	0x82472866	-1.4631805e-37
180	0x028c3fa4	2.060768e-37
181	0x0291703f	2.1370261e-37
182	0x0285bc08	1.9650518e-37
183	0x82a87750	-2.4753863e-37
184	0x82769cde	-1.8118244e-37
185	0x0280251e	1.8829214e-37
186	0x8200183d	-9.410911e-38
187	0x82063e62	-9.862668e-38
188	0x829c65f4	-2.2980658e-37
189	0x0082bab8	1.2005597e-38
190	0x83209792	-4.719377e-37
191	0x8301800c	-3.8056683e-37
192	0x0341bc2f	5.6933627e-37
193	0x00e88510	2.1353569e-38
194	0x826ebd60	-1.7539826e-37
195	0x8291a92e	-2.140294e-37
196	0x02ec3980	3.4710087e-37
197	0x0131c25c	3.2649212e-38
198	0x82980492	-2.2337016e-37
199	0x02a01ff0	2.3528218e-37
200	0x02dee69c	3.2752332e-37
201	0x82607b43	-1.6492295e-37
202	0x025de977	1.6303517e-37
203	0x017aea33	4.6085778e-38
204	0x819fe954	-5.8742185e-38
205	0x825819cf	-1.587658e-37
206	0x01c6b396	7.2991406e-38
207	0x8226f317	-1.2265517e-37
208	0x02422269	1.4262744e-37
209	0x834c7ac5	-6.0091144e-37
210	0x82881b31	-1.999901e-37
211	0x022a0a6d	1.249262e-37
212	0x0294d173	2.1866863e-37
213	0x82964be4	-2.2084078e-37
214	0x83464b09	-5.8273107e-37
215	0x83211628	-4.733908e-37
216	0x032003da	4.7024195e-37
217	0x02890c04	2.0137237e-37
218	0x82f3720d	-3.5771103e-37
219	0x8272b746	-1.7831949e-37
220	0x028712a8	1.9847175e-37
221	0x8292fbfc	-2.1597404e-37
222	0x828df928	-2.0861097e-37
223	0x032e114e	5.115387e-37
224	0x83345814	-5.2998355e-37
225	0x8284fc74	-1.9540558e-37
226	0x826ff711	-1.7629851e-37
227	0x82d75756	-3.164154e-37
228	0x0274e66a	1.7992414e-37
229	0x01cd25e3	7.535947e-38
230	0x82120036	-1.0726446e-37
231	0x81b4c548	-6.640464e-38
232	0x02748e38	1.7967104e-37
233	0x0312d905	4.315467e-37
234	0x8342bc75	-5.7227814e-37
235	0x81bb26d9	-6.8748695e-38
236	0x8289966a	-2.0216674e-37
237	0x02384a50	1.3539512e-37
238	0x81d084b6	-7.6597564e-38
239	0x0175e9bd	4.5167092e-38
240	0x824fa83b	-1.5256238e-37
241	0x82d3aea4	-3.1103902e-37
242	0x01e0e384	8.2611073e-38
243	0x01e06b42	8.243851e-38
244	0x02da641e	3.2089686e-37
245	0x02ff1fe3	3.7487185e-37
246	0x009c6f48	1.4366258e-38
247	0x80828130	-1.1984958e-38
248	0x8230cbb9	-1.2988903e-37
249	0x02882db2	2.0009632e-37
250	0x8289ee49	-2.026711e-37
251	0x828f6d7a	-2.1074798e-37
252	0x8314a0cd	-4.367788e-37
253	0x032144c6	4.7392596e-37
254	0x8283a4fe	-1.934342e-37
255	0x0282b0e4	1.9203313e-37

in_proj_bias f4 [192]
0	0x00000000	0.0
1	0x00000000	0.0
2	0x00000000	0.0
3	0x00000000	0.0
4	0x00000000	0.0
5	0x00000000	0.0
6	0x00000000	0.0
7	0x00000000	0.0
8	0x00000000	0.0
9	0x00000000	0.0
10	0x00000000	0.0
11	0x00000000	0.0
12	0x00000000	0.0
13	0x00000000	0.0
14	0x00000000	0.0
15	0x00000000	0.0
16	0x00000000	0.0
17	0x00000000	0.0
18	0x00000000	0.0
19	0x00000000	0.0
20	0x00000000	0.0
21	0x00000000	0.0
22	0x00000000	0.0
23	0x00000000	0.0
24	0x00000000	0.0
25	0x00000000	0.0
26	0x00000000	0.0
27	0x00000000	0.0
28	0x00000000	0.0
29	0x00000000	0.0
30	0x00000000	0.0
31	0x00000000	0.0
32	0x00000000	0.0
33	0x00000000	0.0
34	0x00000000	0.0
35	0x00000000	0.0
36	0x00000000	0.0
37	0x00000000	0.0
38	0x00000000	0.0
39	0x00000000	0.0
40	0x00000000	0.0
41	0x00000000	0.0
42	0x00000000	0.0
43	0x00000000	0.0
44	0x00000000	0.0
45	0x00000000	0.0
46	0x00000000	0.0
47	0x00000000	0.0
48	0x00000000	0.0
49	0x00000000	0.0
50	0x00000000	0.0
51	0x00000000	0.0
52	0x00000000	0.0
53	0x00000000	0.0
54	0x00000000	0.0
55	0x00000000	0.0
56	0x00000000	0.0
57	0x00000000	0.0
58	0x00000000	0.0
59	0x00000000	0.0
60	0x00000000	0.0
61	0x00000000	0.0
62	0x00000000	0.0
63	0x00000000	0.0
64	0x00000000	0.0
65	0x00000000	0.0
66	0x00000000	0.0
67	0x00000000	0.0
68	0x00000000	0.0
69	0x00000000	0.0
70	0x00000000	0.0
71	0x00000000	0.0
72	0x00000000	0.0
73	0x00000000	0.0
74	0x00000000	0.0
75	0x00000000	0.0
76	0x00000000	0.0
77	0x00000000	0.0
78	0x00000000	0.0
79	0x00000000	0.0
80	0x00000000	0.0
81	0x00000000	0.0
82	0x00000000	0.0
83	0x00000000	0.0
84	0x00000000	0.0
85	0x00000000	0.0
86	0x00000000	0.0
87	0x00000000	0.0
88	0x00000000	0.0
89	0x00000000	0.0
90	0x00000000	0.0
91	0x00000000	0.0
92	0x00000000	0.0
93	0x00000000	0.0
94	0x00000000	0.0
95	0x00000000	0.0
96	0x00000000	0.0
97	0x00000000	0.0
98	0x00000000	0.0
99	0x00000000	0.0
100	0x00000000	0.0
101	0x00000000	0.0
102	0x00000000	0.0
103	0x00000000	0.0
104	0x00000000	0.0
105	0x00000000	0.0
106	0x00000000	0.0
107	0x00000000	0.0
108	0x00000000	0.0
109	0x00000000	0.0
110	0x00000000	0.0
111	0x00000000	0.0
112	0x00000000	0.0
113	0x00000000	0.0
114	0x00000000	0.0
115	0x00000000	0.0
116	0x00000000	0.0
117	0x00000000	0.0
118	0x00000000	0.0
119	0x00000000	0.0
120	0x00000000	0.0
121	0x00000000	0.0
122	0x00000000	0.0
123	0x00000000	0.0
124	0x00000000	0.0
125	0x00000000	0.0
126	0x00000000	0.0
127	0x00000000	0.0
128	0xbc9da25a	-0.019242454
129	0x3cdcde50	0.026961476
130	0xbd17caa4	-0.037058488
131	0x3c125dec	0.0089335255
132	0xbd8eccad	-0.069726326
133	0xbd95cde0	-0.07314658
134	0xbcc0ee40	-0.023551106
135	0xbd8d53e2	-0.06900765
136	0x3db3bf24	0.087766916
137	0xbd3491d2	-0.044084378
138	0x3d7dce2d	0.061964203
139	0xbd617270	-0.055040777
140	0xbd3e600a	-0.04647831
141	0x3d8df96e	0.069323406
142	0xbcd40206	-0.025879871
143	0x3d94db67	0.0726841
144	0xbc7ec917	-0.015550873
145	0xbd671a99	-0.05642185
146	0xbdaa7820	-0.08323693
147	0x3c6cbf65	0.014449929
148	0xbca897be	-0.020580169
149	0xbc370017	-0.011169455
150	0xbcdeacb7	-0.027181966
151	0x3d8866a7	0.066602044
152	0x3daeb995	0.08531491
153	0x3c903862	0.01760501
154	0xbdbb1470	-0.091347575
155	0xba6b892b	-0.0008984978
156	0x3d294fef	0.041335996
157	0xbb290019	-0.0025787412
158	0x3db38704	0.087659866
159	0x3d9b0757	0.07569759
160	0xbbaa543c	-0.00519803
161	0x3d0093d0	0.031390965
162	0x3d253d4b	0.040341657
163	0x3ca0e363	0.019639676
164	0xbdbd3e80	-0.092404366
165	0x3decf868	0.11570817
166	0x3cb1ca3d	0.02170288
167	0x3d471e13	0.048612665
168	0x3d192c7a	0.03739593
169	0xbdc23555	-0.094828285
170	0xb8a63132	-7.92466e-05
171	0xbc08ac8a	-0.008341918
172	0x3aad58dd	0.0013225336
173	0xbd95a0d3	-0.073060654
174	0xbd46aff1	-0.048507635
175	0xbcf2c58d	-0.029635215
176	0xbd9cf19d	-0.076632716
177	0x3d7b208d	0.06131034
178	0xbd77fe0c	-0.060545012
179	0xbc648e1c	-0.013949897
180	0xbb94c803	-0.004540445
181	0x3b7b4250	0.0038339086
182	0xbd8f65a9	-0.07001812
183	0xbe19f071	-0.15033127
184	0x3d9d2017	0.07672136
185	0xbddc1735	-0.10746614
186	0xbd49c684	-0.049261585
187	0xbdba4b91	-0.090964444
188	0xbdd008da	-0.10157938
189	0x3d0257c5	0.031821985
190	0xbc618c37	-0.01376634
191	0xbd693f91	-0.056945387

weight f4 [64, 64]
0	0x3d99b27e	0.07504748
1	0xbd827cdd	-0.06371472
2	0x3ca9eb20	0.020742
3	0x3cb4a786	0.022052538
4	0xbdbfc9c9	-0.09364659
5	0xbd2ca023	-0.042144906
6	0xbd0e19bd	-0.034692515
7	0xbd80ddb4	-0.062922865
8	0xbcafca01	-0.021458628
9	0xbd2ac2b8	-0.041689605
10	0xbca50044	-0.020141728
11	0xbbdc3c1c	-0.006721033
12	0xbd4f26c7	-0.05057409
13	0x3dbc2e39	0.09188504
14	0xbe317866	-0.17331085
15	0x3ca8c2f8	0.02060078
16	0x3d503184	0.05082847
17	0x3de2fea8	0.11083728
18	0x3dfcf869	0.12352068
19	0x3c9e56bc	0.019328468
20	0xbd18b7a9	-0.037284527
21	0x3c0b2b9f	0.008494287
22	0x3d66ffe6	0.056396388
23	0xbdb78f79	-0.08962912
24	0x3e09947d	0.1343555
25	0xbdc6a554	-0.096995026
26	0x3d362026	0.044464253
27	0x3d242b27	0.040080216
28	0x3cf85415	0.030313531
29	0x3ccbedea	0.02489372
30	0xbe0f8eae	-0.14019272
31	0xbcf449cd	-0.029820347
32	0x3deaac8e	0.114586934
33	0x3e05ef65	0.13079603
34	0xbc1ed130	-0.009693429
35	0xbd7286e8	-0.059210688
36	0xbe67d1ce	-0.22638628
37	0x3e01d574	0.12679082
38	0xbd68c64f	-0.056829747
39	0xbd47eb13	-0.04880817
40	0x3d3fa082	0.04678393
41	0x3c31b8f9	0.010847324
42	0x3bf5726e	0.0074904477
43	0xbc595b9f	-0.013266473
44	0xbd270628	-0.040777355
45	0xbd3acb7c	-0.045604214
46	0x3dc6fc0e	0.09716044
47	0x3d7ec584	0.062200084
48	0x3e4741e2	0.19458726
49	0xbb03d189	-0.0020113906
50	0xbe273a58	-0.1633085
51	0xbe147446	-0.1449748
52	0xbd87471a	-0.066053584
53	0xbd9e4598	-0.07728118
54	0x3da8c624	0.08240917
55	0x3d9e4284	0.077275306
56	0xbdf59589	-0.11991412
57	0xbdf1448f	-0.11780655
58	0x3de8d5d3	0.11368909
59	0xbe24cd9a	-0.16094056
60	0xbd9c58eb	-0.07634147
61	0xbdf05794	-0.11735454
62	0xbd28ff61	-0.041259173
63	0xbdf5241a	-0.119697765
64	0xba9b7711	-0.0011861046
65	0xbd275204	-0.0408497
66	0x3df4edb5	0.119594015
67	0x3d1bdb70	0.03805107
68	0x3dc62af5	0.09676162
69	0x3c83d289	0.016091602
70	0xbd91fd07	-0.07128339
71	0xbd194aee	-0.037424974
72	0xbd830060	-0.06396556
73	0x3dc374fb	0.09543797
74	0xbce4dc5a	-0.027937103
75	0xbd4fedd7	-0.05076393
76	0xbddf4b7b	-0.10903069
77	0xbe179dc5	-0.14806278
78	0x3c9bbbe9	0.019010501
79	0xbd38979c	-0.04506646
80	0xbdb6f2d8	-0.089330375
81	0x3d55f801	0.052238468
82	0x3c47db9b	0.012198354
83	0x3daa0b6d	0.083029605
84	0xbd43dbda	-0.04781709
85	0x3ca7a012	0.02046207
86	0x3e22108c	0.15826625
87	0xbd8cf7d1	-0.06883205
88	0xbe0f6ddc	-0.14006752
89	0x3d10780d	0.03527074
90	0x3d346ec4	0.044050947
91	0x3db8a0a3	0.09015014
92	0xbd5d7319	-0.054064844
93	0x3dc5bcd3	0.09655156
94	0x38f3c9ee	0.00011624755
95	0x3d970f1d	0.073759295
96	0x3e016364	0.12635571
97	0xbc0f874b	-0.008760284
98	0xbe06dacd	-0.13169403
99	0x3dc45eac	0.0958837
100	0x3da723fd	0.08161161
101	0xbd7d5873	-0.06185193
102	0x3e48480c	0.19558734
103	0x3ddb8980	0.107195854
104	0x3da53d92	0.08068384
105	0x3cc2ba5f	0.02377051
106	0xbe1eccce	-0.15507814
107	0xbe292e6b	-0.16521613
108	0x3da3ea8b	0.0800372
109	0xbcc0f949	-0.023556368
110	0x3c74670f	0.014917149
111	0xbd680ce7	-0.05665293
112	0x3d50819f	0.050904866
113	0x3dc9dfc5	0.09857134
114	0xbdd49a51	-0.10380996
115	0xbc5adfed	-0.013359052
116	0xbd8a02ae	-0.06738792
117	0xbc0fc801	-0.008775712
118	0xbd994d37	-0.07485431
119	0x3df6332a	0.120214775
120	0x3d414530	0.047185123
121	0xbd0e2da6	-0.034711502
122	0x3d455e3c	0.048185572
123	0xbd635275	-0.05549856
124	0x3e0d90cb	0.13824765
125	0x3c402eac	0.011729877
126	0xbbe291c7	-0.0069143507
127	0xbcf90389	-0.030397194
128	0x3d78b68e	0.060720973
129	0xbcd42682	-0.025897268
130	0x3cf62c90	0.030050546
131	0xbd4d6797	-0.05014762
132	0xbd06b7da	-0.03289018
133	0xbca7864d	-0.020449782
134	0x3d76bf7c	0.060241207
135	0xbda73ca1	-0.08165861
136	0xbd11872a	-0.035529293
137	0xbb97190f	-0.0046111415
138	0x3cc7d386	0.024392854
139	0x3d263e49	0.040586744
140	0x3deddc3b	0.11614271
141	0xbde24f7c	-0.11050317
142	0x3e0985ca	0.13429943
143	0x3d2487c8	0.040168554
144	0x3dadc67e	0.08485125
145	0x3c14dd64	0.009085987
146	0x3d417bc7	0.047237184
147	0xbd156489	-0.03647283
148	0x3c02deb8	0.007987671
149	0xbc34bd69	-0.011031487
150	0x3cc6dd24	0.02427537
151	0x3ddd3e32	0.108028784
152	0xbc800353	-0.015626585
153	0xbe0095eb	-0.12557189
154	0xbcb3cffa	-0.021949757
155	0x3d988309	0.07446868
156	0xbce279a2	-0.02764589
157	0xbd82f93e	-0.063951954
158	0x3d900058	0.070313156
159	0xbd292e7f	-0.041304108
160	0xbdb351ae	-0.087558135
161	0x3bec7431	0.0072159995
162	0x3d8ff988	0.07030016
163	0x3dd006cd	0.10157547
164	0x3e9d2b9c	0.30697334
165	0x3cea0e8a	0.028571386
166	0x3d1143ba	0.03546498
167	0xbce93b68	-0.02847071
168	0x3e020b1d	0.12699552
169	0x3daef9e7	0.08543759
170	0xbccb4393	-0.024812495
171	0xbd9707da	-0.073745444
172	0xbd86e95d	-0.06587479
173	0xbcb84150	-0.02249208
174	0x3d1b915e	0.03798043
175	0x3c9110b1	0.017708154
176	0xbd4585fa	-0.048223473
177	0xbd7cdc12	-0.061733313
178	0x3e0753c8	0.13215554
179	0xbd8755b3	-0.06608143
180	0x3d785e1a	0.060636617
181	0x3d88ff6c	0.06689343
182	0xbbcb72c2	-0.0062087486
183	0x3de12045	0.10992483
184	0x3d5397d1	0.051658455
185	0x3d402865	0.046913523
186	0xbc1d14cc	-0.009587478
187	0x3dbf374f	0.09336721
188	0x3da9b605	0.082866706
189	0x3d352ff5	0.04423519
190	0xbce57c39	-0.028013336
191	0xbdda436b	-0.1065739
192	0x3d4f8f52	0.05067379
193	0x3dcea501	0.10090066
194	0xbd792c00	-0.060832977
195	0x3b7e3303	0.003878773
196	0xbcf07066	-0.02935047
197	0xbda01d4e	-0.078180894
198	0x3db24593	0.087046765
199	0x3daba71e	0.083814844
200	0xbd8afeab	-0.06786855
201	0xbd0048a8	-0.03131929
202	0xbd84ebbc	-0.06490275
203	0x3d91a88e	0.071122274
204	0x3e2371a9	0.15961327
205	0xbd29472b	-0.041327637
206	0xbd5c3c5c	-0.0537685
207	0x3bcb0e9a	0.006196809
208	0xbbbcfc1a	-0.0057673575
209	0x3c356e99	0.011073732
210	0x3bbb208d	0.0057106675
211	0xbadaab7d	-0.0016683188
212	0x3d854c9f	0.06508755
213	0x3da7f5ea	0.08201201
214	0x3d07a7b8	0.033118933
215	0x3b2601ed	0.0025330738
216	0xbdfdef76	-0.12399189
217	0xbda46e4a	-0.080288485
218	0x3d80acb0	0.062829375
219	0x3e053ba3	0.13011031
220	0xbd90718a	-0.07052906
221	0x3da64ae8	0.08119756
222	0xbd9cf433	-0.07663765
223	0x3a98f20b	0.0011668814
224	0x3dce41dd	0.10071156
225	0xbd81466b	-0.06312259
226	0x3dd64529	0.1046241
227	0xbd9e807b	-0.077393495
228	0x3d9e89a7	0.07741099
229	0xbc3836b0	-0.011243507
230	0x3dc61239	0.096714444
231	0xbdeb3b80	-0.11485958
232	0xbcd19b7b	-0.025586834
233	0x3d504593	0.0508476
234	0x3da9cf68	0.08291513
235	0xbc7fc580	-0.0156110525
236	0x3c7367a2	0.014856251
237	0x3dea2057	0.114319496
238	0xbdc4bd15	-0.09606377
239	0x3d994bbf	0.074851505
240	0x3da7e25b	0.08197471
241	0xbd3e1bb6	-0.046413146
242	0xbca87109	-0.020561712
243	0xbe0e2be5	-0.13883932
244	0xbccc3d06	-0.024931442
245	0x3d1961ff	0.037446972
246	0x3dd45823	0.10368373
247	0x3de81060	0.11331248
248	0x3d0fa2b9	0.035067294
249	0x3daa886e	0.08326803
250	0x3c2531dc	0.010082688
251	0x3d69db9d	0.057094205
252	0x3dd24fa6	0.10269098
253	0xbd98ed57	-0.07467144
254	0x3e1c3610	0.15254998
255	0xbdbdfad8	-0.0927636

bias f4 [64]
0	0x3cf012bf	0.029305814
1	0x3d331c5d	0.04372822
2	0xbdb52dcf	-0.08846628
3	0xbdba5b84	-0.090994865
4	0xbc81414b	-0.015778204
5	0xbd8c7a99	-0.06859321
6	0xbd348e0b	-0.044080775
7	0xbdc8f2fd	-0.09811971
8	0xbdf407bb	-0.11915537
9	0xbdcd6d9d	-0.10030673
10	0xbc461210	-0.012089267
11	0xbd1e826d	-0.038698602
12	0x3d092850	0.03348571
13	0xbdbf2005	-0.09332279
14	0xbc8ada65	-0.016949842
15	0xbd27e048	-0.040985376
16	0x3da5833c	0.080816716
17	0xbddeca2a	-0.108784035
18	0x3e08cd95	0.13359673
19	0xbdb3e165	-0.08783225
20	0x3d1180e6	0.035523318
21	0xbde4b5f6	-0.11167519
22	0xbd2c38c7	-0.042046335
23	0xbda04d10	-0.078271985
24	0x3da5691f	0.08076691
25	0x3dc19977	0.09453099
26	0x3d2376e6	0.039908312
27	0x3da2f95c	0.07957718
28	0x3e139e57	0.1441587
29	0xbccb2b94	-0.024801053
30	0x3d355eef	0.04427999
31	0xbc1680e6	-0.009186005
32	0x3c74747e	0.014920352
33	0x3bba2efe	0.0056818714
34	0x3c4fd868	0.012685873
35	0xbd74aa0a	-0.059732474
36	0xbc18b53a	-0.0093205515
37	0x3da6d126	0.08145361
38	0xbd95b96f	-0.07310759
39	0x3d708c0f	0.05872732
40	0xbc8ad27f	-0.016946075
41	0xbd331e2f	-0.043729957
42	0xbd00ec72	-0.03147549
43	0x3dcf37b3	0.10118046
44	0x3d7361c0	0.059419394
45	0x3d8f3bc4	0.06993821
46	0xbbfe3c16	-0.0077586276
47	0x3de94074	0.113892466
48	0xbded8d80	-0.115992546
49	0xbdb738c1	-0.08946372
50	0xbca2bbeb	-0.019864997
51	0xbc023186	-0.007946378
52	0xbd5f9cde	-0.05459296
53	0x3d20c479	0.03924987
54	0x3d9e699c	0.07734987
55	0x3d8cdbc1	0.06877852
56	0xbcf0abf4	-0.029378869
57	0x3d9711fe	0.073764786
58	0xbd274026	-0.04083266
59	0x3ce6a068	0.02815266
60	0xbdd09834	-0.101852804
61	0x3d8cf2a2	0.06882216
62	0x3d639a69	0.05556718
63	0xbc233914	-0.009962339

weight f4 [256, 64]
0	0xbd179dfb	-0.037015896
1	0xbd7bc344	-0.061465517
2	0x3cb5685a	0.022144485
3	0x3bed29b7	0.007237639
4	0xbe4b2d07	-0.19841395
5	0x3c098480	0.008393407
6	0x3df99c39	0.12188
7	0x3cd7f585	0.02636219
8	0xbcd7bcb7	-0.026335103
9	0xbd777377	-0.06041285
10	0x3d672fd8	0.05644211
11	0x3d952b69	0.072836705
12	0xbdbfa3ce	-0.09357415
13	0x3d9b2660	0.07575679
14	0xbbc75e5c	-0.0060842466
15	0x3b6d34cb	0.0036194797
16	0xbdc44513	-0.09583487
17	0x3e08bbd7	0.13352905
18	0x3d48bf50	0.049010575
19	0xbcffe7f5	-0.031238535
20	0xbe0867fe	-0.1332092
21	0x3dcae1d5	0.09906355
22	0xbd399a80	-0.04531336
23	0xbdebcc42	-0.115135685
24	0xbd938e88	-0.0720492
25	0x3db28d0d	0.087183096
26	0xbdd2bb69	-0.10289652
27	0x3d0662ad	0.03280895
28	0x3e2d4e40	0.16924381
29	0xbe113c76	-0.1418322
30	0xbcc2a829	-0.023761826
31	0x3ca03e24	0.019560881
32	0x3c0063b7	0.007836274
33	0x3d7c6064	0.061615363
34	0x3d15a669	0.036535654
35	0xbbb44467	-0.0055013183
36	0x3d4e5ed0	0.05038339
37	0x3c084c20	0.008318931
38	0x3d2be4da	0.041966297
39	0x3e05cb2e	0.13065788
40	0x3d615035	0.055008132
41	0xbcc7ffe8	-0.024414018
42	0xbcf28a5b	-0.029606989
43	0x3d9c45af	0.076304786
44	0xbe22218e	-0.15833113
45	0x3dd19961	0.10234333
46	0x3b14c138	0.0022698175
47	0x3c4d91b3	0.012546944
48	0xbd181fc4	-0.03713967
49	0xbc4fc4ff	-0.012681245
50	0x3d9c6fe4	0.07638529
51	0xbe246a90	-0.16056275
52	0xbdafea52	-0.08589615
53	0x3d5da482	0.054111965
54	0xbd18142e	-0.03712862
55	0xbe12e2bd	-0.14344306
56	0x3cacb84c	0.021083973
57	0xbe252389	-0.16126837
58	0x3d47f7cb	0.0488203
59	0xbd3176a9	-0.043326054
60	0xbc3747cd	-0.011186552
61	0xbc1be481	-0.009514929
62	0xbd44145b	-0.047870975
63	0x3d89ba12	0.06724943
64	0x3d9be6c3	0.07612374
65	0x3d86063a	0.065441564
66	0x3d6c0d67	0.05762997
67	0x3dfedc91	0.124444135
68	0xbe3430d9	-0.17596759
69	0xbd1ca95d	-0.038247455
70	0xbe12cf06	-0.14336786
71	0xbd36f1fa	-0.04466436
72	0xbe33e92a	-0.17569414
73	0xbcc541c4	-0.024079211
74	0x3dd865d4	0.10566297
75	0x3e636f4a	0.22210422
76	0xbbfc5d4a	-0.0077015506
77	0x3d799ca8	0.060940415
78	0x3ce62889	0.0280955
79	0xbc4283bf	-0.011872231
80	0xbbb3a239	-0.005481985
81	0x3c7e94f8	0.015538447
82	0xbb74513f	-0.0037279872
83	0x3d773beb	0.060359877
84	0xbd3d4ab3	-0.046213817
85	0xbe02f8fe	-0.12790295
86	0xbbc3e7cc	-0.00597856
87	0x3da93138	0.08261341
88	0x3debb790	0.11509621
89	0x3d21d15a	0.039506294
90	0xbb776e9e	-0.0037755142
91	0x3aa104a8	0.0012284713
92	0x3d98f9a3	0.074694894
93	0xbdca9f8b	-0.09893712
94	0xbda0fc50	-0.07860625
95	0x3dd57ada	0.10423823
96	0x3db1a0b8	0.08673233
97	0xbddb3d02	-0.10704996
98	0xbd87ee0d	-0.066372015
99	0x3c43900e	0.011936201
100	0x3d63e832	0.05564136
101	0x3d3d9cb2	0.046292014
102	0x3e0366cd	0.12832184
103	0xbd595403	-0.053058635
104	0x3cac35f3	0.021021819
105	0x3bcb624a	0.0062067853
106	0xbd691214	-0.056902006
107	0x3c454473	0.012040245
108	0xbdaa8872	-0.08326806
109	0x3deef69b	0.1166813
110	0x3d0d6484	0.034519687
111	0x3d346fec	0.04405205
112	0x3e105b13	0.14097242
113	0x3db666e3	0.08906343
114	0xbda6f412	-0.081520215
115	0x3ac520d1	0.0015039687
116	0x3d0eb808	0.034843475
117	0x3d912463	0.07087018
118	0x3d5a0981	0.05323172
119	0x3cca90cf	0.024727253
120	0xbe624ccf	-0.22099613
121	0xbe2a3108	-0.16620266
122	0xbc9743db	-0.018464973
123	0x3d84b999	0.064807124
124	0xbe043d77	-0.12914072
125	0xbd26b18d	-0.04069667
126	0xbd4f228a	-0.05057005
127	0xbdb81700	-0.08988762
128	0xbd79de20	-0.06100285
129	0x3cc70be7	0.024297668
130	0xbda76006	-0.08172612
131	0xbdbb7f9e	-0.091552004
132	0xbdc22ddd	-0.09481404
133	0x3d59fc7c	0.053219303
134	0x3dc1cbc2	0.09462692
135	0x3e0bf01e	0.13665816
136	0x3a6eb958	0.0009106598
137	0xbd4b89d7	-0.049692
138	0xbcbe9051	-0.023262175
139	0x3c9a7d6e	0.018858638
140	0xbd7015f7	-0.058614697
141	0xbd9ee537	-0.07758563
142	0xbc9aa47a	-0.018877257
143	0x3cb2a4ea	0.021807153
144	0xbd63616c	-0.05551283
145	0xbd97800c	-0.0739747
146	0xbe1fcf87	-0.15606509
147	0x3d1447f7	0.036201444
148	0x3c399f2a	0.011329452
149	0x3d7f3124	0.062302724
150	0x3cf0f898	0.029415414
151	0xbd87f548	-0.066385806
152	0x3defb861	0.11705089
153	0x3e1ca24d	0.15296288
154	0x3de82d1a	0.113367274
155	0xbd05b212	-0.032640524
156	0xbe107304	-0.14106375
157	0x3d825a83	0.0636492
158	0x3d622ee9	0.05522052
159	0xbdaa27b7	-0.08308356
160	0x3c55d8e5	0.0130522
161	0xbd5ce3f7	-0.05392834
162	0xbcdf52c2	-0.027261142
163	0x3d498d24	0.049206868
164	0xbcb8b155	-0.022545496
165	0xbd00c69c	-0.03143941
166	0xbd36662b	-0.04453103
167	0x3db0a092	0.08624376
168	0xbdad1fc9	-0.08453328
169	0x3d999fe7	0.07501202
170	0x3d046cce	0.032330327
171	0x3e22e8da	0.15909138
172	0x3d8b0768	0.06788522
173	0xbd9e6e88	-0.07735926
174	0x3ca5a2cc	0.02021923
175	0x3d0b359e	0.03398668
176	0xbdc18bf2	-0.094505206
177	0xbe5039bc	-0.20334524
178	0xbc65e802	-0.014032366
179	0xbd0d9ae7	-0.034571555
180	0xbe3a4097	-0.18188702
181	0xbd7b75f9	-0.061391804
182	0xbd744323	-0.05963434
183	0x3de04c1b	0.10952016
184	0xbdb24e31	-0.0870632
185	0xbd846bf7	-0.06465905
186	0x3a54ef79	0.00081228424
187	0xbdb65bc3	-0.08904221
188	0x3d216e58	0.039411873
189	0x3d90413c	0.070436925
190	0x3d9a3f00	0.075315475
191	0xbdb9088b	-0.090348326
192	0xbd0c6088	-0.034271747
193	0x3e0079fa	0.1254653
194	0x3becc076	0.0072250916
195	0x3d7379c1	0.059442285
196	0xbd0c5792	-0.0342632
197	0xbccf94c8	-0.0253395
198	0x3dc2e538	0.09516376
199	0x3d26dc9c	0.040737733
200	0x3d76ecf2	0.060284562
201	0x3d825f81	0.06365872
202	0x3d72566c	0.05916445
203	0x3de7abe6	0.11312084
204	0xbc8bc93f	-0.017063735
205	0xbde6c8aa	-0.112687424
206	0x3d767110	0.06016642
207	0x3cd66472	0.026170943
208	0xbe2a1418	-0.16609228
209	0xbdcb910c	-0.09939775
210	0x3da0c60e	0.07850276
211	0xbdbc4f05	-0.09194759
212	0x3dd478ee	0.10374628
213	0xbc85fd4c	-0.016356133
214	0xbd225089	-0.039627586
215	0xbd8d1b73	-0.06890001
216	0x3da13b35	0.07872621
217	0xbc962258	-0.018326923
218	0xbd0d5e0f	-0.03451353
219	0x3d80175d	0.06254456
220	0x3c9f840a	0.01947214
221	0xbd72e344	-0.05929877
222	0x3d1ff2b1	0.039049808
223	0xbd78dfdb	-0.06076036
224	0x3d5ef216	0.05443009
225	0x3cdd72bd	0.02703225
226	0xbd65da1f	-0.05611622
227	0xb88f802b	-6.8426445e-05
228	0x3dc1e12d	0.09466777
229	0x3af2d75f	0.001852732
230	0x3db75f51	0.08953727
231	0x3d7df1f0	0.061998308
232	0x3dd45f8d	0.10369787
233	0xbd651ebb	-0.05593751
234	0x3df4706b	0.119355045
235	0x3de167c0	0.11006117
236	0xbc2003d7	-0.0097665405
237	0x3c8f0544	0.017458566
238	0x3cc07031	0.023490997
239	0xbd404d28	-0.046948582
240	0xbd32bc43	-0.04363657
241	0xbd510677	-0.051031556
242	0x3ba723a8	0.005100686
243	0xbc899e2a	-0.016799051
244	0xbd899d13	-0.06719413
245	0xbd907fde	-0.07055639
246	0x3d065ea4	0.0328051
247	0xbdbf9998	-0.093554676
248	0x3b006313	0.0019590303
249	0xbe28822a	-0.16455904
250	0x3d8b41a4	0.06799629
251	0x3dd7ef96	0.10543744
252	0xba33ae61	-0.00068542926
253	0xbd3c8e11	-0.046033923
254	0xbd266554	-0.040623978
255	0xbe3dd636	-0.18538746

bias f4 [256]
0	0xbdbe5134	-0.09292832
1	0xbdbb81d4	-0.09155622
2	0x3d834568	0.064097226
3	0x3d8de50e	0.06928454
4	0xbdf3fbd2	-0.11913265
5	0xbe112840	-0.1417551
6	0xbb151b05	-0.00227517
7	0xbac74336	-0.0015202526
8	0xbc66e925	-0.014093672
9	0xbb1efc5f	-0.0024259312
10	0x3d19add4	0.03751929
11	0x3cc07e22	0.023497645
12	0x3cda12b9	0.026620256
13	0x3d8eaa47	0.069660716
14	0x3d097bcf	0.03356534
15	0x3d3ef266	0.046617888
16	0xbde864c5	-0.11347345
17	0x3d0b359e	0.03398668
18	0x3c53305f	0.012889951
19	0xbd87154b	-0.06595858
20	0xbdca0a1f	-0.09865212
21	0xbdbaa590	-0.0911361
22	0xbdac57ea	-0.08415206
23	0x3da1e18b	0.07904347
24	0xbd483db9	-0.04888699
25	0x3cc95365	0.024575898
26	0x3d1567d1	0.03647596
27	0x3d329233	0.043596458
28	0xbca852c7	-0.020547284
29	0x3d8ceb56	0.06880824
30	0x3cc685d9	0.024233745
31	0xbb71ec95	-0.0036914696
32	0x3d684b45	0.056712408
33	0xbc81985a	-0.015819717
34	0xbe001358	-0.12507379
35	0xba8bac86	-0.0010656274
36	0x3db91803	0.09037783
37	0xbdb5c4e8	-0.088754475
38	0xbd4fb646	-0.05071094
39	0x3d81cd58	0.06337994
40	0xbc6ab2ae	-0.014324827
41	0x3c248cce	0.010043336
42	0xbdbfdd3b	-0.09368368
43	0xbcdf73f8	-0.027276978
44	0x3d01baf5	0.031672437
45	0xbdda1b90	-0.106497884
46	0x3d28f718	0.041251272
47	0x3d043f4a	0.03228692
48	0x3d7bbbc7	0.061458375
49	0xbc378c38	-0.011202864
50	0xba346b24	-0.000688242
51	0x3d13fbf6	0.03612896
52	0x3dba8a4b	0.091084085
53	0xbdbbf9ac	-0.091784805
54	0x3cb81d2d	0.02247485
55	0x3d3f7cd1	0.046749894
56	0xbcd1b789	-0.025600212
57	0x3d8efa82	0.06981374
58	0x3d8b0a1c	0.067890376
59	0xbba2fbba	-0.004973856
60	0xbdaf78ed	-0.08567987
61	0xb9d1b54a	-0.00039998657
62	0xbd917758	-0.07102841
63	0xbdbbcc29	-0.091698
64	0x3dc10368	0.09424478
65	0x3db1d048	0.086823046
66	0xbd41136a	-0.047137655
67	0x3bf65b85	0.007518234
68	0x3d873e86	0.06603722
69	0xbc681cb9	-0.014167004
70	0x3cf25ecf	0.029586224
71	0xbd7988a2	-0.06092132
72	0xbda64a7c	-0.081196755
73	0x3d396a52	0.04526741
74	0xbd7a6082	-0.061127193
75	0x3d18a687	0.037268188
76	0x3da95a4e	0.082691774
77	0x3deda77e	0.11604212
78	0xbdb10b22	-0.086447015
79	0xbd1fb039	-0.03898642
80	0xbe00a136	-0.12561497
81	0x3cf839c0	0.030300975
82	0xbdca47ee	-0.09877001
83	0x3ca793e1	0.020456256
84	0x3d8d179d	0.068892695
85	0x3d91c59f	0.07117771
86	0x3dd3911d	0.103304125
87	0x3d3ca7b7	0.046058383
88	0xbe013d1d	-0.12620969
89	0xbd1c3e62	-0.03814543
90	0x3d289246	0.041155122
91	0x3dfa7a5f	0.12230372
92	0xbcfd2af1	-0.030904265
93	0xbdc9f91a	-0.098619655
94	0x3dbc32bc	0.09189364
95	0x3cb1f862	0.021724883
96	0xbda8e365	-0.08246497
97	0x3daa6a04	0.08321002
98	0x3d2897bf	0.04116034
99	0xbde6e654	-0.112744
100	0x3dbcd007	0.092193656
101	0xbd0917e3	-0.033470046
102	0xbdb33ed5	-0.08752219
103	0x3c872f0c	0.016501926
104	0xbe056ba1	-0.13029338
105	0x3c8cb58a	0.017176408
106	0x3ce2f758	0.027705833
107	0x3dd5f6eb	0.104474865
108	0x3e028e73	0.12749653
109	0xbc93934f	-0.018014578
110	0x3a7a896b	0.000955722
111	0xbdf8fe76	-0.121579096
112	0xbe02a312	-0.12757519
113	0xbd78f4a3	-0.06078018
114	0x3cc73961	0.024319353
115	0x3ceacf6b	0.028663358
116	0xbd800f52	-0.06252922
117	0x3db7a8bd	0.08967731
118	0x3d2b7632	0.041860767
119	0xbde32918	-0.110918224
120	0x3c5a7c87	0.013335354
121	0x3d02abc3	0.031902086
122	0xbd9cacae	-0.076501235
123	0x3cd92b6b	0.026509961
124	0x3d44fbf0	0.04809183
125	0xbd23967d	-0.03993844
126	0xbd9f4637	-0.07777064
127	0xbd6988a9	-0.057015095
128	0x3c009efe	0.007850407
129	0xbdd2fadd	-0.103017546
130	0x3d6ee382	0.058322437
131	0xbd434b2a	-0.047679104
132	0x3d760c27	0.060070183
133	0x3c365938	0.01112967
134	0xbd9177d5	-0.07102934
135	0x3dd9d881	0.10636998
136	0x3cb22f41	0.021751048
137	0x3d59d95f	0.053185817
138	0x3d7a6538	0.061131686
139	0xbde55720	-0.111982584
140	0x3d8d72a7	0.06906634
141	0x3dae8574	0.08521548
142	0x3cc7741f	0.024347363
143	0xbb54d0f3	-0.0032473176
144	0x3d98bde3	0.07458093
145	0xbdc2a124	-0.095033914
146	0x3b984bfe	0.004647731
147	0x3dcad569	0.09903986
148	0x3d6d6666	0.057958983
149	0xbb804bf2	-0.0039153034
150	0x3c4c9dbc	0.012488779
151	0x3db0bc46	0.0862966
152	0xbd3142be	-0.04327654
153	0x3d191e73	0.037382554
154	0xbdbe2162	-0.09283711
155	0xbde9e6a9	-0.11420948
156	0xbd0879fa	-0.03331945
157	0xbd8002f5	-0.06250564
158	0x3ddc2dbc	0.10750911
159	0xbd1849be	-0.0371797
160	0xbcc9ee0f	-0.024649648
161	0x3d58a806	0.052894615
162	0xbd1dd25e	-0.0385307
163	0x3c1bf461	0.009518714
164	0x3d9c994a	0.07646425
165	0x3c7d6dd1	0.015468077
166	0x3d3611cf	0.044450577
167	0xbd9b116e	-0.07571684
168	0xbdea53c1	-0.11441756
169	0x3d783027	0.060592797
170	0x3d0b1af9	0.03396127
171	0xbdd1df9f	-0.102477305
172	0x3c976566	0.018480968
173	0xbcba043b	-0.022707095
174	0xbd905f18	-0.07049388
175	0x3c05fed2	0.00817843
176	0x3db5d4e2	0.08878495
177	0x3c8fabc4	0.017537959
178	0xbdb5f211	-0.08884061
179	0xbdbd1e0d	-0.09234247
180	0x3d2d04bd	0.042240847
181	0x3d042745	0.032264013
182	0xbd97d4c4	-0.07413629
183	0x3cbf45bf	0.023348687
184	0x3dc9556f	0.09830748
185	0x3dc4249d	0.09577296
186	0x3d8cc6e0	0.0687387
187	0x3d8b96d6	0.06815879
188	0xbc51dd16	-0.012809059
189	0x3b12a362	0.0022375216
190	0xbdf54f68	-0.11978036
191	0xbe0d2c33	-0.13786392
192	0xbcdb1da2	-0.026747528
193	0x3dd48289	0.1037646
194	0xbd337278	-0.043810338
195	0x3d6b0b78	0.057383984
196	0xbc7111d0	-0.0147137195
197	0x3c08db9f	0.008353143
198	0x3ce75368	0.028238013
199	0x3bb4bfec	0.005516043
200	0x3da7694a	0.08174379
201	0xbd7b30ec	-0.061325952
202	0xbcbd0602	-0.023074154
203	0x3d1f83ad	0.038943935
204	0xbdae4b30	-0.08510435
205	0x37b3b19f	2.1421174e-05
206	0xbd200a8c	-0.03907256
207	0x3c03c064	0.008041475
208	0x3c5745d4	0.013139207
209	0xbcbb045c	-0.022829227
210	0xbdb43c89	-0.08800609
211	0xbadefce1	-0.001701262
212	0x3d9b3637	0.075787
213	0xbd14ee04	-0.036359802
214	0x3d7f8d9f	0.06239092
215	0x3dd89a7b	0.1057634
216	0x3d119134	0.035538867
217	0xbddf8d11	-0.10915578
218	0x3d2057cc	0.03914623
219	0xbb4ea3eb	-0.0031530808
220	0x3cd6da39	0.026227104
221	0xbca02fc4	-0.019554026
222	0xbd6446f5	-0.055731732
223	0xbd945e8a	-0.072445944
224	0x39cc2bb5	0.00038942476
225	0x3ddfe9c4	0.10933259
226	0xbcd33e50	-0.025786549
227	0xbde5e79f	-0.11225819
228	0xbe0230a8	-0.12713873
229	0x3d20d2bb	0.03926347
230	0xbdf2b484	-0.11850837
231	0xbd8f2217	-0.06988924
232	0x3d79c59d	0.060979474
233	0x3dc65ec6	0.09686045
234	0xbd06d601	-0.032918934
235	0x3db399ef	0.08769595
236	0x3c91d8a9	0.017803507
237	0x3db859e8	0.09001523
238	0xbcd22d12	-0.025656257
239	0x3b9e17ce	0.004824615
240	0x3e1242b5	0.14283259
241	0x3dcda642	0.10041477
242	0x3dbff1ee	0.09372316
243	0xbdfd8bf5	-0.1238021
244	0xbbd0107f	-0.0063496227
245	0xbddf59e2	-0.10905816
246	0x3c687fc7	0.014190621
247	0x3d2f88c7	0.04285505
248	0x3d86a371	0.06574143
249	0xbcb8778d	-0.022517944
250	0xbddda5f8	-0.10822672
251	0x3d1e7502	0.038685806
252	0xbce85d10	-0.028364688
253	0xbddef13e	-0.10885857
254	0xbdf2c3c6	-0.11853747
255	0x3c70a8f8	0.014688723
