xrdtrans_3.pt (torch, 458530 bytes, 31 tensors)

weight f4 [64, 21]
0.04551312 -0.027085278 -0.1658458 -0.11541921 -0.20123285 0.2154288 -0.09470456 0.19637656
0.07327955 -0.20787136 -0.17412937 -0.6404661 -0.16569485 -0.09690443 -0.2957496 -0.4567445
0.07733878 -0.026189266 -0.018220514 0.07460121 0.08744284 -0.24890305 0.17159413 0.03754922
-0.07806512 0.16854352 0.15461546 -0.16325668 0.16002125 0.081261136 -0.1927064 0.00015809445
-0.09174166 0.45145842 -0.0077756876 -0.08849873 0.377831 0.5653875 0.19979914 0.19659787
0.2689914 -0.11650446 0.13629937 -0.04525633 -0.287114 0.07439166 0.04910407 0.03980112
0.08547679 0.031948905 -0.012408221 0.09211414 -0.45385903 -0.008856561 -0.089644544 -0.0020202696
0.26791295 0.13601184 0.21773599 -0.14475726 0.3700492 0.05878853 -0.030304844 -0.038586613
-0.051242515 -0.19515768 -0.11454917 0.12263699 0.08916306 -0.03163467 0.08679351 0.03548822
0.0673098 -0.36333928 -0.7501643 -0.18295173 -0.027348591 0.27180073 0.32366496 -0.33255482
-0.49109966 -0.24779986 -0.0506386 0.06367238 -0.23633012 0.19696927 0.10454877 -0.15196742
0.17159316 0.027763776 0.1777639 -0.068115585 -0.09318657 -0.1225953 -0.14860933 0.077355824
0.12474956 0.14270152 0.19576125 0.14260633 0.04282963 0.06661606 0.060567502 0.017660499
-0.14187017 -0.026720358 0.19135089 0.019748775 0.07682361 0.025298413 -0.0066045425 -0.24479266
-0.21104217 -0.23480234 -0.21168724 0.27351278 0.12655202 0.006359169 0.26195872 0.13975312
0.25760117 0.16261324 0.22671273 -0.08026873 0.018084351 0.16523145 0.045447003 -0.05947614
-0.013378111 0.040265046 -0.22871733 -0.1513824 0.14230286 0.09073236 0.17435533 0.080739684
-0.014064671 -0.42354107 0.15716416 0.059786037 0.3422108 0.13177697 -0.051343925 0.32570875
0.41210198 0.4258326 -0.03664134 0.14623912 0.0111624515 0.016374784 -0.046081096 -0.0006614197
-0.025240567 -0.0014496043 -0.004680129 0.022539573 0.002506992 0.1242839 -0.8568434 -0.045593157
0.43220276 0.035269853 -0.14543949 -0.23585328 -0.5633643 -0.19656257 0.07410878 -0.09323922
-0.19837926 0.0068782484 -0.10721 0.08395105 -0.078968234 0.023497395 0.07090641 0.0122753205
0.13070828 0.042425457 0.26472118 0.17559634 0.108287945 -0.083569124 0.0639936 0.4202556
0.40544525 0.105754144 0.120308585 0.20993657 0.13313207 -0.08217167 0.08607975 0.12683778
-0.07063924 -0.17488597 -0.12776022 -0.06362761 0.14251125 0.15148886 0.10208108 0.07086205
0.47697383 0.2968885 -0.1197889 -0.26184013 -0.10114735 0.13083234 0.26165143 -0.046071038
0.19873618 -0.20911495 0.10772636 -0.05554146 0.13750356 0.014312465 -0.20995742 -0.03753824
0.048906285 -0.20437725 0.13545145 -0.056470715 -0.19398372 0.10848493 -0.019220758 0.07662564
-0.06817814 0.04785589 0.081626765 -0.15724307 -0.20090556 -0.0003450844 0.073561355 -0.014053436
0.09915983 -0.23860341 -0.20386331 0.22880952 -0.16521642 0.15830773 0.017308563 0.20228364
-0.07411211 -0.119181804 0.29017702 0.07643401 0.04281694 -0.17215107 0.006693687 0.22839367
0.44894183 0.45783955 0.60834986 -0.027259562 0.09518564 -0.009909422 -0.010433151 0.06739654
00000000: f76b 3a3d f2e1 ddbc 7bd3 29be e860 ecbd
00000010: fc0f 4ebe 5e99 5c3e 77f4 c1bd f016 493e
00000020: 9713 963d 3bdc 54be f84e 32be 96f5 23bf
00000030: e9ab 29be d475 c6bd 7e6c 97be 6ada e9be
00000040: cb63 9e3d df8a d6bc 3043 95bc 85c8 983d
00000050: 3b15 b33d 71e0 7ebe 5fb6 2f3e 36cd 193d
00000060: 9be0 9fbd ac96 2c3e 8453 1e3e c22c 27be
00000070: 9cdc 233e 3d6c a63d d454 45be 28c6 2539
00000080: 0de3 bbbd 8f25 e73e 32cb febb d23e b5bd
00000090: 1173 c13e 3cbd 103f 2598 4c3e f450 493e
000000a0: 3eb9 893e e499 eebd 1092 0b3e b45e 39bd
000000b0: 9b00 93be a85a 983d 5921 493d 8006 233d
000000c0: 750e af3d dbdc 023d da4b 4bbc 57a6 bc3d
000000d0: 3660 e8be 1c1b 11bc 8f97 b7bd 8066 04bb
000000e0: e32b 893e b046 0b3e 2ff6 5e3e 3f3b 14be
000000f0: 1777 bd3e 3ecc 703d dd41 f8bc ff0c 1ebd
00000100: ace3 51bd 6ad7 47be c198 eabd 1a29 fb3d
00000110: 1f9b b63d 5b93 01bd ccc0 b13d 195c 113d
00000120: b8d9 893d 9b07 babe c40a 40bf b357 3bbe
00000130: 270a e0bc 7729 8b3e 6ab7 a53e a044 aabe
00000140: 6a71 fbbe 3fbf 7dbe 6c6a 4fbd aa66 823d
00000150: 8600 72be 50b2 493e aa1d d63d 599d 1bbe
00000160: 1eb6 2f3e dc70 e33c bd07 363e 2f80 8bbd
00000170: 9ad8 bebd 3f13 fbbd 0b2d 18be bb6c 9e3d
00000180: b37c ff3d 5920 123e a375 483e 6507 123e
00000190: 1f6e 2f3d 006e 883d a115 783d c0ac 903c
000001a0: 6a46 11be a7e4 dabc 7df1 433e 2fc8 a13c
000001b0: b255 9d3d 9e3e cf3c eb6a d8bb edaa 7abe
000001c0: 701b 58be 0670 70be 8ac4 58be de09 8c3e
000001d0: da96 013e 9360 d03b 741f 863e 711b 0f3e
000001e0: 4de4 833e 1684 263e 6227 683e ef63 a4bd
000001f0: a225 943c 6f32 293e a326 3a3d 419d 73bd
00000200: dd2f 5bbc f6ec 243d e034 6abe fd03 1bbe
00000210: d7b7 113e e3d1 b93d 348a 323e d95a a53d
00000220: 816f 66bc 60da d8be a4ef 203e 34e2 743d
00000230: 4136 af3e 8bf0 063e 024e 52bd 4cc3 a63e
00000240: 08ff d23e bb06 da3e 3b15 16bd b5bf 153e
00000250: b7e2 363c 6924 863c 88bf 3cbd 2063 2dba
00000260: 4ec5 cebc a600 beba c45b 99bb e9a4 b83c
00000270: 594c 243b 8f88 fe3d 175a 5bbf e4bf 3abd
00000280: ae49 dd3e 1f77 103d 17ee 14be 8683 71be
00000290: a538 10bf b347 49be 58c6 973d 34f4 bebd
000002a0: ef23 4bbe ee62 e13b eb90 dbbd 87ee ab3d
000002b0: 19ba a1bd 9c7d c03c 6137 913d 6d1e 493c
000002c0: 64d8 053e 51c6 2d3d 8989 873e 87cf 333e
000002d0: 12c6 dd3d 4a26 abbd 140f 833d be2b d73e
000002e0: 8596 cf3e a195 d83d 5964 f63d 9df9 563e
000002f0: c653 083e 9f49 a8bd 944a b03d c3e1 013e
00000300: 4eab 90bd 4f15 33be 93d3 02be 314f 82bd
00000310: 78ee 113e e51f 1b3e e30f d13d 1f20 913d
00000320: ea35 f43e c501 983e e253 f5bd e90f 86be
00000330: 5826 cfbd eaf8 053e 2df7 853e fcb4 3cbd
00000340: 7f81 4b3e 3b22 56be a39f dc3d 717f 63bd
00000350: bccd 0c3e d47e 6a3c 14ff 56be b3c1 19bd
00000360: f551 483d 4548 51be c9b3 0a3e d64d 67bd
00000370: aba3 46be 592d de3d da74 9dbc e7ed 9c3d
00000380: fba0 8bbd 8a04 443d ef2b a73d 5404 21be
00000390: 30ba 4dbe 72ec b4b9 56a7 963d 6240 66bc
000003a0: 4f14 cb3d 7454 74be 8bc1 50be 0b4d 6a3e
000003b0: 7e2e 29be 6c1b 223e b0ca 8d3c 7123 4f3e
000003c0: 17c8 97bd 9715 f4bd 1592 943e 6f89 9c3d
000003d0: d160 2f3d 5f48 30be b756 db3b 08e0 693e
000003e0: b4db e53e f269 ea3e d1bc 1b3f 724f dfbc
000003f0: b0f0 c23d 215b 22bc cfef 2abc 3207 8a3d

bias f4 [64]
0.13870004 0.03336615 -0.16711755 -0.1796231 0.07543243 -0.14057447 -0.2250265 -0.03766423
-0.0813933 0.1204612 -0.21928428 -0.019247249 -0.010315517 0.023071257 0.03429032 0.017901931
-0.07244206 -0.033766516 -0.090895 0.22304778 -0.06141314 -0.007783823 -0.0948555 0.14512855
-0.016588511 -0.030920137 0.01168674 -0.018233001 -0.080151945 -0.12570186 -0.13601395 0.15714937
-0.06448101 6.703759e-37 0.0019765398 0.0780233 0.0010137258 0.32656324 -0.061677855 -0.035681885
-0.074166134 0.05150065 0.1710999 0.098735884 0.041378528 0.2440597 0.050810397 0.008771201
-0.04284878 -0.036272865 0.053688638 0.20821355 -0.0632103 -0.008802662 0.18280105 -0.0025551743
0.0018876746 0.12283417 0.08692681 0.007019185 -0.24049547 0.20399947 0.11628409 0.2623447
00000000: 6207 0e3e f2aa 083d dd20 2bbe 1eef 37be
00000010: 517c 9a3d c1f2 0fbe 596d 66be cf45 1abd
00000020: 88b1 a6bd 5db4 f63d 0f8c 60be 68ac 9dbc
00000030: 6a02 29bc efff bc3c 0274 0c3d 12a7 923c
00000040: 815c 94bd c24e 0abd 2827 babd a366 643e
00000050: 588c 7bbd 710f ffbb 9a43 c2bd 949c 143e
00000060: a1e4 87bc 3a4c fdbc be79 3f3c 605d 95bc
00000070: b426 a4bd fdb7 00be 3e47 0bbe c4eb 203e
00000080: 9f0e 84bd fa1d 6403 d688 013b aeca 9f3d
00000090: fede 843a 4c33 a73e eba1 7cbd 2b27 12bd
000000a0: 6ae4 97bd 58f2 523d d034 2f3e 0a36 ca3d
000000b0: 887c 293d c9ea 793e 901e 503d 15b5 0f3c
000000c0: 3482 2fbd db92 14bd 9ee8 5b3d ef35 553e
000000d0: 6774 81bd 0a39 10bc 3330 3b3e b674 27bb
000000e0: d96b f73a 7b90 fb3d af06 b23d 3101 e63b
000000f0: 7244 76be 3de5 503e 5a26 ee3d 0b52 863e

pe f4 [100, 64]
0.0 1.0 0.0 1.0 0.0 1.0 0.0 1.0
0.0 1.0 0.0 1.0 0.0 1.0 0.0 1.0
0.0 1.0 0.0 1.0 0.0 1.0 0.0 1.0
0.0 1.0 0.0 1.0 0.0 1.0 0.0 1.0
0.0 1.0 0.0 1.0 0.0 1.0 0.0 1.0
0.0 1.0 0.0 1.0 0.0 1.0 0.0 1.0
0.0 1.0 0.0 1.0 0.0 1.0 0.0 1.0
0.0 1.0 0.0 1.0 0.0 1.0 0.0 1.0
0.84147096 0.54030234 0.68156135 0.731761 0.53316844 0.84600914 0.4093089 0.9123959
0.3109836 0.9504153 0.23492105 0.9720145 0.17689219 0.9842302 0.13295726 0.99112177
0.099833414 0.9950042 0.07491915 0.9971896 0.05620449 0.9984193 0.042157155 0.999111
0.031617504 0.99950004 0.023711512 0.99971884 0.01778186 0.99984187 0.013334819 0.99991107
0.009999833 0.99995 0.0074988706 0.99997187 0.0056233825 0.9999842 0.0042169513 0.9999911
0.0031622713 0.999995 0.0023713717 0.9999972 0.0017782785 0.99999845 0.0013335211 0.9999991
0.0009999998 0.9999995 0.000749894 0.9999997 0.0005623411 0.9999999 0.0004216964 0.99999994
0.0003162278 0.99999994 0.00023713727 1.0 0.00017782794 1.0 0.00013335208 1.0
0.9092974 -0.41614684 0.99748 0.070948265 0.9021307 0.43146282 0.7469035 0.6649324
0.5911271 0.8065784 0.45669332 0.8896242 0.34820527 0.93741834 0.26355368 0.96464473
0.19866931 0.9800666 0.1494172 0.98877424 0.1122313 0.9936821 0.084239356 0.99644554
0.063203394 0.9980007 0.04740969 0.99887556 0.035558093 0.9993676 0.026667267 0.99964434
0.019998666 0.9998 0.014997319 0.9998875 0.011246587 0.99993676 0.008433828 0.9999644
0.006324511 0.99998003 0.0047427304 0.99998873 0.0035565514 0.9999937 0.0026670396 0.9999964
0.0019999985 0.99999803 0.0014997876 0.99999887 0.0011246821 0.99999934 0.0008433927 0.99999964
0.0006324555 0.9999998 0.0004742745 0.9999999 0.00035565588 0.99999994 0.00026670416 1.0
0.14112 -0.9899925 0.7782725 -0.6279267 0.9932532 -0.11596616 0.9536345 0.3009673
0.8126489 0.58275366 0.652904 0.7574407 0.5085361 0.86104065 0.3894703 0.92103904
0.2955202 0.9553365 0.22307542 0.9748012 0.16790329 0.9858035 0.12617177 0.9920084
0.094726086 0.99550337 0.071081206 0.9974705 0.053323086 0.9985773 0.039994974 0.99919987
0.0299955 0.99955004 0.022494925 0.999747 0.016869437 0.9998577 0.012650555 0.99992
0.009486687 0.999955 0.007114062 0.9999747 0.005334813 0.99998575 0.0040005534 0.999992
0.0029999954 0.9999955 0.0022496805 0.9999975 0.0016870227 0.99999857 0.0012650889 0.9999992
0.00094868324 0.9999996 0.00071141176 0.99999976 0.0005334838 0.9999999 0.00040005625 0.99999994
00000000: 0000 0000 0000 803f 0000 0000 0000 803f
00000010: 0000 0000 0000 803f 0000 0000 0000 803f
00000020: 0000 0000 0000 803f 0000 0000 0000 803f
00000030: 0000 0000 0000 803f 0000 0000 0000 803f
00000040: 0000 0000 0000 803f 0000 0000 0000 803f
00000050: 0000 0000 0000 803f 0000 0000 0000 803f
00000060: 0000 0000 0000 803f 0000 0000 0000 803f
00000070: 0000 0000 0000 803f 0000 0000 0000 803f
00000080: 0000 0000 0000 803f 0000 0000 0000 803f
00000090: 0000 0000 0000 803f 0000 0000 0000 803f
000000a0: 0000 0000 0000 803f 0000 0000 0000 803f
000000b0: 0000 0000 0000 803f 0000 0000 0000 803f
000000c0: 0000 0000 0000 803f 0000 0000 0000 803f
000000d0: 0000 0000 0000 803f 0000 0000 0000 803f
000000e0: 0000 0000 0000 803f 0000 0000 0000 803f
000000f0: 0000 0000 0000 803f 0000 0000 0000 803f
00000100: a46a 573f 4151 0a3f ce7a 2e3f b054 3b3f
00000110: ba7d 083f 0e94 583f f090 d13e c792 693f
00000120: 3e39 9f3e 6b4e 733f 258f 703e f1d5 783f
00000130: 3a23 353e 83f6 7b3f f325 083e 28ba 7d3f
00000140: 7675 cc3d 98b8 7e3f 366f 993d d147 7f3f
00000150: ae36 663d 6898 7f3f fbac 2c3d bdc5 7f3f
00000160: 5b81 013d 3cdf 7f3f a53e c23c 93ed 7f3f
00000170: 43ab 913c a3f5 7f3f 497a 5a3c 2cfa 7f3f
00000180: 57d6 233c b9fc 7f3f 16b9 f53b 28fe 7f3f
00000190: 5a44 b83b f7fe 7f3f 5a2e 8a3b 6bff 7f3f
000001a0: 1c3e 4f3b acff 7f3f 0469 1b3b d1ff 7f3f
000001b0: 2015 e93a e6ff 7f3f 8bc9 ae3a f1ff 7f3f
000001c0: 6d12 833a f8ff 7f3f 8994 443a fbff 7f3f
000001d0: 136a 133a feff 7f3f 2217 dd39 ffff 7f3f
000001e0: 60cb a539 ffff 7f3f 0da8 7839 0000 803f
000001f0: 5377 3a39 0000 803f 6dd4 0b39 0000 803f
00000200: b7c7 683f 3311 d5be d95a 7f3f 534d 913d
00000210: 0af2 663f b2e8 dc3e 1135 3f3f 0339 2a3f
00000220: 1b54 173f ec7b 4e3f b5d3 e93e 69be 633f
00000230: f647 b23e a6fa 6f3f 82f0 863e f5f2 763f
00000240: f86f 4b3e a5e5 7a3f d300 193e 4f20 7d3f
00000250: 86d9 e53d f361 7e3f af85 ac3d 0e17 7f3f
00000260: c870 813d f97c 7f3f aa30 423d 4fb6 7f3f
00000270: 5da5 113d 8ed6 7f3f 5075 da3c b1e8 7f3f
00000280: 3ed4 a33c e5f2 7f3f 51b7 753c a1f8 7f3f
00000290: 9b43 383c dbfb 7f3f 0a2e 0a3c abfd 7f3f
000002a0: d83d cf3b b1fe 7f3f e868 9b3b 43ff 7f3f
000002b0: 0815 693b 96ff 7f3f 80c9 2e3b c4ff 7f3f
000002c0: 6812 033b dfff 7f3f 8594 c43a edff 7f3f
000002d0: 126a 933a f5ff 7f3f 2017 5d3a faff 7f3f
000002e0: 5fcb 253a fdff 7f3f 0ca8 f839 feff 7f3f
000002f0: 5377 ba39 ffff 7f3f 6dd4 8b39 0000 803f
00000300: c381 103e 2670 7dbf de3c 473f cebf 20bf
00000310: d745 7e3f ab7f edbd 6421 743f 6318 9a3e
00000320: c209 503f 582f 153f b724 273f a2e7 413f
00000330: 6c2f 023f 296d 5c3f a768 c73e 37c9 6b3f
00000340: 6c4e 973e ef90 743f e26d 643e 928c 793f
00000350: d7ee 2b3e 9e5d 7c3f 2c33 013e 43f4 7d3f
00000360: c0ff c13d 4fd9 7e3f 0693 913d 3a5a 7f3f
00000370: 4f69 5a3d c3a2 7f3f c5d1 233d 90cb 7f3f
00000380: 1fb9 f53c 83e2 7f3f 4747 b83c 6bef 7f3f
00000390: c631 8a3c adf6 7f3f 4644 4f3c c2fa 7f3f
000003a0: 0d6e 1b3c 0dfd 7f3f 141d e93b 58fe 7f3f
000003b0: a8cf ae3b 11ff 7f3f 1317 833b 7aff 7f3f
000003c0: 929b 443b b5ff 7f3f 606f 133b d6ff 7f3f
000003d0: 171f dd3a e8ff 7f3f 57d1 a53a f3ff 7f3f
000003e0: 0eb1 783a f9ff 7f3f 097e 3a3a fcff 7f3f
000003f0: 7ed9 0b3a feff 7f3f a4be d139 ffff 7f3f

in_proj_weight f4 [192, 64]
-1.9148714e-37 2.6609297e-37 -1.8050074e-37 2.032087e-37 -4.1746e-37 1.7896927e-37 -2.4478193e-37 2.125504e-37
-9.118827e-38 -2.5423117e-37 -6.692702e-38 -1.3375589e-37 -1.7764678e-37 -7.7718445e-38 6.411466e-38 2.9377294e-37
-1.4130186e-37 -5.22732e-39 5.875734e-38 -5.7513576e-37 1.6653275e-37 -1.4167187e-37 -1.4765518e-37 6.1937307e-37
5.7300363e-37 1.9680697e-37 -5.639581e-37 -4.527525e-39 -6.5434737e-37 1.049812e-37 -3.3708443e-37 1.6848033e-37
-1.5222171e-37 -1.7428254e-37 -2.1349154e-37 -3.2703965e-37 9.1799264e-38 7.2769255e-38 -3.924065e-37 -1.3529995e-37
1.8501683e-37 -1.7003811e-37 -3.27412e-37 3.6241652e-37 -3.5811714e-37 2.1454427e-37 5.6226296e-37 -2.1726953e-37
7.525802e-38 4.6643455e-37 -4.9222378e-37 -1.8293043e-37 2.201951e-37 -1.2924375e-37 1.1971472e-37 2.1811119e-37
1.9694467e-37 -3.7393067e-37 3.675922e-37 1.3288221e-37 5.8076745e-37 2.233617e-37 -3.9729894e-38 1.2062978e-37
-4.2287735e-37 2.5107563e-38 -1.3094598e-37 -4.312107e-37 3.0984987e-37 -2.5321165e-37 1.4255944e-37 1.3283491e-37
3.3456012e-37 -2.1026004e-37 -1.4546248e-37 7.473741e-39 -3.0749607e-37 -1.8795024e-37 1.0523612e-37 1.5473162e-37
-1.5258849e-37 2.6556182e-37 -1.3643781e-37 1.1017676e-37 -1.9423757e-37 1.9999868e-37 1.2729291e-37 -1.6159232e-37
6.0840783e-37 3.2171453e-38 -5.861741e-37 2.1077437e-37 2.055268e-37 -1.973983e-37 8.2037965e-38 1.5851308e-37
-1.4980737e-37 -1.4393102e-37 1.9914059e-37 -1.1515003e-37 -1.9189482e-37 -1.4095068e-37 7.57587e-38 -1.858491e-37
-1.937099e-37 -8.0605075e-38 -2.3032405e-37 -2.1351735e-37 -2.0459121e-37 -2.6395315e-37 -1.9289667e-37 2.3805855e-38
3.778985e-37 3.82493e-37 1.0577825e-37 1.3421258e-37 -2.220724e-38 -4.9782386e-37 1.2849671e-37 -1.5749945e-37
-2.4795844e-37 2.215643e-37 4.2475953e-37 -2.0048137e-37 -1.7356666e-37 -1.7784985e-37 2.0728363e-37 1.6907401e-37
-1.4326667e-37 1.9836283e-37 1.317072e-38 -3.8724415e-38 -2.9983837e-37 1.9369032e-37 -7.9617536e-38 -1.9506272e-37
-6.2088257e-37 -1.8716623e-37 -1.7964925e-37 -2.1015233e-37 2.0815876e-37 7.5168396e-38 -1.5601248e-37 1.7720083e-37
-1.4673676e-37 1.2890165e-37 -3.0837369e-37 1.9759896e-37 1.98738e-37 1.1387938e-37 1.8335418e-37 2.1272859e-37
-1.8477482e-37 1.6243679e-37 1.8574785e-37 -6.3388095e-38 1.3718777e-37 2.03543e-37 -1.4370134e-37 1.9473686e-37
4.1334364e-38 -1.9207898e-37 -1.9385312e-37 2.0712218e-37 -1.596102e-37 1.5007312e-37 -1.932355e-37 -6.9711387e-38
-2.5710228e-37 -4.6260154e-37 -2.035457e-37 1.7274968e-37 -1.9646222e-37 -1.438307e-37 -1.8102016e-37 2.0156793e-37
1.615182e-37 -9.884109e-39 1.8160649e-37 7.686728e-38 -1.6111867e-37 -2.177945e-37 -1.7286478e-37 1.6556659e-37
4.4141727e-37 2.6157864e-37 1.6163388e-37 -2.7582966e-37 -2.7864378e-37 -1.0929304e-37 -1.429717e-37 -1.7250051e-37
2.115687e-37 1.4649128e-37 1.3850814e-37 -1.9403715e-37 -1.8324521e-37 1.9373673e-37 -2.059325e-37 -5.8132927e-37
-2.1223477e-37 1.3718176e-37 -2.1069152e-37 1.6288863e-37 1.9547454e-37 -1.8031762e-37 -2.8347297e-37 -2.014961e-37
1.7188659e-37 1.7415508e-37 -1.4857405e-37 -2.4934344e-37 -3.687615e-38 1.2297655e-37 1.5577903e-37 -1.1290073e-37
-1.40203e-37 -1.0641249e-37 1.582623e-37 -3.4666326e-37 6.5433284e-37 1.6492729e-37 1.8494505e-37 5.9365222e-37
-1.7247886e-37 2.0028041e-37 -1.918787e-37 -2.9117677e-37 -5.685866e-38 -2.360655e-37 2.1527202e-37 1.5700119e-37
-4.9279098e-37 4.6139745e-37 6.45463e-38 -1.9295086e-37 2.28055e-37 -3.7403445e-38 6.1880466e-38 -2.2381234e-38
-1.931481e-37 -2.0553313e-37 -1.4666217e-37 2.250958e-37 -6.281101e-37 -3.6925972e-37 1.6883255e-37 4.103615e-37
-4.979889e-37 -2.371155e-37 -1.9885753e-37 3.8885234e-37 1.7307572e-37 -4.7687312e-37 2.2361571e-37 -1.193856e-37
00000000: c451 8282 ef17 b502 54af 7582 f34b 8a02
00000010: e50d 0e83 b099 7302 0797 a682 81a7 9002
00000020: f33c f881 5105 ad82 5331 b681 200f 3682
00000030: decc 7182 da91 d381 6689 ae01 77ee c702
00000040: 8354 4082 a4eb 3880 e4f3 9f01 64b5 4383
00000050: 32ac 6202 71d5 4082 52fa 4882 01c3 5203
00000060: a8fb 4203 9cf0 8502 aee7 3f83 e64c 3180
00000070: b2a9 5e83 9ce4 0e02 6468 e582 d452 6502
00000080: 8631 4f82 9a38 6d82 794b 9182 5892 de82
00000090: c0e6 f901 c518 c601 6d87 0583 2729 3882
000000a0: f5d4 7b02 a271 6782 37d3 de82 dda5 f602
000000b0: ceb8 f382 e202 9202 0354 3f03 b1dd 9382
000000c0: 2fdf cc01 2eb8 1e03 bd7e 2783 f4fd 7882
000000d0: 66db 9502 e0ea 2f82 7ef2 2202 5470 9402
000000e0: 9a08 8602 e97b fe82 982b fa02 b1de 3402
000000f0: fb9f 4503 1903 9802 644f 5881 5831 2402
00000100: d0e5 0f83 d6b2 0801 043c 3282 c0bb 1283
00000110: 76df d202 b153 ac82 b70a 4202 36ce 3402
00000120: 98b0 e302 7718 8f82 47fe 4582 c061 5100
00000130: 5f45 d182 1ad3 7f82 703d 0f02 1a9c 5202
00000140: 54b1 4f82 65bb b402 a3b5 3982 fff6 1502
00000150: f530 8482 af1c 8802 1b43 2d02 b5f2 5b82
00000160: cc07 4f03 7628 2f01 f776 4783 1372 8f02
00000170: d2df 8b02 a257 8682 1e54 df01 bfc1 5702
00000180: 40e8 4b82 a4e8 4382 2f87 8702 eebb 1c82
00000190: cb98 8282 25da 3f82 1c3c ce01 f6f6 7c82
000001a0: 06d5 8382 8a6d db81 1cc0 9c82 f84f 9182
000001b0: d13c 8b82 20a3 b382 5747 8382 859c 0101
000001c0: 9a97 0003 d727 0203 57fa 0f02 42ae 3602
000001d0: c0d0 f180 9366 2983 92e6 2e02 8c60 5682
000001e0: 74c0 a882 f2c9 9602 c689 1003 c870 8882
000001f0: 273f 6c82 a113 7282 e711 8d02 b221 6602
00000200: 2601 4382 aeff 8602 9c6a 8f00 f5d5 5281
00000210: 360f cc82 9dd1 8302 53bd d881 b8c0 8482
00000220: 8046 5383 eac1 7e82 a186 7482 b305 8f82
00000230: 5faa 8d02 baa0 cc01 6a5a 5482 7a31 7102
00000240: 4cba 4782 ab73 2f02 46de d182 987a 8602
00000250: 0b41 8702 2c01 1b02 9b91 7902 8cc6 9002
00000260: a180 7b82 f618 5d02 aed3 7c02 0e8f ac81
00000270: f6ba 3a02 3186 8a02 9c98 4382 f287 8402
00000280: b20b 6101 e1b8 8282 faed 8382 c6f5 8c02
00000290: 0a40 5982 da44 4c02 5f82 8382 bfc5 bd81
000002a0: 89f9 ae82 476a 1d83 aa86 8a82 7a22 6b02
000002b0: 8cb4 8582 afc5 4382 5264 7682 162e 8902
000002c0: e1d8 5b02 e0a0 6b80 a030 7702 ad40 d101
000002d0: aa4d 5b82 2739 9482 964a 6b82 895b 6102
000002e0: de34 1603 6d05 b202 3001 5c02 4eb8 bb82
000002f0: 98a2 bd82 11c3 1482 5e9a 4282 a8cb 6a82
00000300: 77fc 8f02 c364 4702 0b87 3c02 0a0e 8482
00000310: a36b 7982 b3d9 8302 8026 8c82 ecd0 4583
00000320: 8370 9082 deb8 3a02 a463 8f82 67b6 5d02
00000330: 7808 8502 856f 7582 f5eb c082 9221 8982
00000340: bcf5 6902 300c 6d02 803a 4a82 c1b1 a982
00000350: dac5 4881 1363 2702 1209 5402 2aac 1982
00000360: 9ed5 3e82 57d7 1082 5d6a 5702 42ed eb82
00000370: 6ea8 5e03 c67c 6002 f2bb 7b02 6702 4a03
00000380: 1cc4 6a82 c54d 8802 fc95 8282 262a c682
00000390: b4c8 9a81 69a8 a082 ad81 9202 eeb2 5502
000003a0: 26b0 2783 6301 1d03 35b6 af01 c850 8382
000003b0: c934 9b02 cba4 4b81 6474 a801 c6b5 f380
000003c0: 2573 8382 ece0 8b82 4fa0 4782 3831 9902
000003d0: 1bbc 5583 1e4e fb82 8fcd 6502 87a3 0b03
000003e0: f474 2983 595f a182 de55 8782 d151 0403
000003f0: 1694 6b02 8245 2283 5a2f 9802 cf7f 2282

in_proj_bias f4 [192]
0.0 0.0 0.0 0.0 0.0 0.0 0.0 0.0
0.0 0.0 0.0 0.0 0.0 0.0 0.0 0.0
0.0 0.0 0.0 0.0 0.0 0.0 0.0 0.0
0.0 0.0 0.0 0.0 0.0 0.0 0.0 0.0
0.0 0.0 0.0 0.0 0.0 0.0 0.0 0.0
0.0 0.0 0.0 0.0 0.0 0.0 0.0 0.0
0.0 0.0 0.0 0.0 0.0 0.0 0.0 0.0
0.0 0.0 0.0 0.0 0.0 0.0 0.0 0.0
0.0 0.0 0.0 0.0 0.0 0.0 0.0 0.0
0.0 0.0 0.0 0.0 0.0 0.0 0.0 0.0
0.0 0.0 0.0 0.0 0.0 0.0 0.0 0.0
0.0 0.0 0.0 0.0 0.0 0.0 0.0 0.0
0.0 0.0 0.0 0.0 0.0 0.0 0.0 0.0
0.0 0.0 0.0 0.0 0.0 0.0 0.0 0.0
0.0 0.0 0.0 0.0 0.0 0.0 0.0 0.0
0.0 0.0 0.0 0.0 0.0 0.0 0.0 0.0
-0.103369854 -0.0014304813 0.07677761 -0.02616444 -0.006521715 -0.07860577 -0.013911752 0.034430042
0.08602253 0.088636994 0.028255725 0.017885648 -0.007333731 0.10200933 0.0050997585 0.142965
-0.15873437 -0.08764347 -0.014185238 -0.028152864 0.019537553 0.113741904 0.01984584 0.106676005
-0.05636296 0.034605954 0.11836665 -0.05988327 -0.077627316 -0.08064575 0.099286616 0.027966779
-0.027248165 0.122235514 -0.071791254 -0.15867817 -0.060832202 0.016622921 -0.1494587 -0.020838877
-0.0026185515 -0.028329758 0.0012146288 0.011781049 0.05843938 -0.05558557 -0.11867967 -0.08681207
-0.073733225 -0.034977067 0.048825707 -0.068164915 0.14680098 0.10066314 0.059628747 -0.050625194
-0.049473867 0.114385225 -0.0003116773 0.108826056 -0.06971207 0.0031361063 -0.12383263 -0.061908916
00000000: 0000 0000 0000 0000 0000 0000 0000 0000
00000010: 0000 0000 0000 0000 0000 0000 0000 0000
00000020: 0000 0000 0000 0000 0000 0000 0000 0000
00000030: 0000 0000 0000 0000 0000 0000 0000 0000
00000040: 0000 0000 0000 0000 0000 0000 0000 0000
00000050: 0000 0000 0000 0000 0000 0000 0000 0000
00000060: 0000 0000 0000 0000 0000 0000 0000 0000
00000070: 0000 0000 0000 0000 0000 0000 0000 0000
00000080: 0000 0000 0000 0000 0000 0000 0000 0000
00000090: 0000 0000 0000 0000 0000 0000 0000 0000
000000a0: 0000 0000 0000 0000 0000 0000 0000 0000
000000b0: 0000 0000 0000 0000 0000 0000 0000 0000
000000c0: 0000 0000 0000 0000 0000 0000 0000 0000
000000d0: 0000 0000 0000 0000 0000 0000 0000 0000
000000e0: 0000 0000 0000 0000 0000 0000 0000 0000
000000f0: 0000 0000 0000 0000 0000 0000 0000 0000
00000100: 0000 0000 0000 0000 0000 0000 0000 0000
00000110: 0000 0000 0000 0000 0000 0000 0000 0000
00000120: 0000 0000 0000 0000 0000 0000 0000 0000
00000130: 0000 0000 0000 0000 0000 0000 0000 0000
00000140: 0000 0000 0000 0000 0000 0000 0000 0000
00000150: 0000 0000 0000 0000 0000 0000 0000 0000
00000160: 0000 0000 0000 0000 0000 0000 0000 0000
00000170: 0000 0000 0000 0000 0000 0000 0000 0000
00000180: 0000 0000 0000 0000 0000 0000 0000 0000
00000190: 0000 0000 0000 0000 0000 0000 0000 0000
000001a0: 0000 0000 0000 0000 0000 0000 0000 0000
000001b0: 0000 0000 0000 0000 0000 0000 0000 0000
000001c0: 0000 0000 0000 0000 0000 0000 0000 0000
000001d0: 0000 0000 0000 0000 0000 0000 0000 0000
000001e0: 0000 0000 0000 0000 0000 0000 0000 0000
000001f0: 0000 0000 0000 0000 0000 0000 0000 0000
00000200: 93b3 d3bd fd7e bbba 943d 9d3d cf56 d6bc
00000210: 1cb4 d5bb 10fc a0bd 1eee 63bc 8406 0d3d
00000220: 952c b03d 5087 b53d 8d78 e73c ec84 923c
00000230: cb4f f0bb 45ea d03d e01b a73b 6b65 123e
00000240: 438b 22be 6b7e b3bd 3369 68bc d6a0 e6bc
00000250: 380d a03c 84f1 e83d be93 a23c f378 da3d
00000260: d9dc 66bd f9be 0d3d 376a f23d 2948 75bd
00000270: 12fb 9ebd 9929 a5bd c856 cb3d 961a e53c
00000280: 8b37 dfbc 9d56 fa3d 4b07 93bd 887c 22be
00000290: 302b 79bd cb2c 883c b40b 19be 4bb6 aabc
000002a0: 019c 2bbb cf13 e8bc 2e34 9f3a 4d05 413c
000002b0: 225e 6f3d b2ad 63bd 540e f3bd 87ca b1bd
000002c0: 7201 97bd 1d44 0fbd 77fd 473d 0c9a 8bbd
000002d0: ff52 163e 7a28 ce3d 463d 743d 5d5c 4fbd
000002e0: 1ca5 4abd cd42 ea3d 9e68 a3b9 32e0 de3d
000002f0: 34c5 8ebd 2287 4d3b f69b fdbd 3494 7dbd

weight f4 [64, 64]
0.089252785 -0.032541443 -0.072819114 0.03590789 0.07660198 -0.018742507 0.10138868 0.06704063
-0.030970626 -0.13055183 -0.058793306 0.06337731 0.098412074 -0.06796859 -0.05626129 -0.025201382
-0.055178013 0.10996001 -0.13759255 0.027063027 -0.110353485 -0.10422728 0.03649853 0.066520594
-0.025655447 -0.016840534 -0.15026486 -0.076253355 -0.08240607 0.0026264393 -0.0408911 0.023608172
-0.061593223 0.03497084 0.064386696 -0.0030921022 -0.11414007 -0.13416734 0.17073753 -0.009279621
0.008829538 -0.07899453 0.0707323 -0.084794134 0.111936346 0.124624774 0.08259958 0.03220868
0.096949816 0.06259124 0.084685266 0.14773 -0.08503509 -0.08677809 -0.06280315 -0.028945489
0.1449685 -0.05189427 0.0779189 -0.059828963 -0.023279384 -0.10985354 0.25968918 0.010748164
-0.07135967 -0.01827638 -0.027751425 0.065217525 -0.066564515 0.15637596 -0.10062067 0.06310937
-0.029913109 -0.017541029 0.08156646 0.061237685 -0.07903614 0.078104734 0.020952404 -0.048480954
0.0027229795 -0.031584747 -0.028397135 0.14722492 -0.062343374 0.07883378 0.038166314 0.06491099
0.14540988 -0.06351786 -0.038498122 -0.11541052 0.08185504 0.16722263 -0.048377164 0.07876233
-0.021767396 -0.0705001 0.15116183 0.11939329 -0.113767095 0.09386818 -0.005790984 0.04996074
0.069350824 -0.02673233 0.10061031 0.0037425305 -0.15020414 0.005871854 -0.09630213 0.10764423
0.0556112 0.14180197 -0.09679419 -0.030853039 0.09711203 -0.035473317 0.19883795 0.06538284
-0.020437809 0.11491933 -0.08868035 -0.059934106 -0.10999798 0.09198922 0.046506718 0.045478363
-0.10638096 0.03282795 0.028103003 -0.15745832 0.016475478 -0.017402153 0.05402159 -0.0017078543
-0.11865346 0.004602824 0.006491053 0.15284671 -0.005129268 -0.14230111 0.027320314 0.0017718627
0.11776247 -0.051757004 -0.124217935 -0.07410429 0.14300755 0.02768595 0.07461911 0.0070593245
-0.07284198 0.040347207 -0.01790966 -0.104849204 0.1267184 0.008215248 0.003088321 -0.042357318
-0.09269632 0.05596197 0.07573345 -0.013171615 -0.18219735 0.08813782 0.08561249 -0.0075875716
-0.135207 -0.11040417 -0.06102464 0.0936976 0.057478115 0.0038320022 0.14534648 -0.11889
0.11566597 0.079346284 0.020673374 -0.0048211515 0.013115233 0.054920733 -0.13379458 0.14873427
-0.03298742 0.0058986074 0.043255806 -0.1415352 -0.037710108 -0.055811863 -0.052684594 0.13979968
-0.10659854 -0.031912845 -0.055878986 -0.061501157 -0.0082224235 -0.11549882 0.1393978 0.052765742
-0.08355714 0.027032616 -0.06834081 -0.059407625 0.11260443 0.012180727 0.046972144 -0.05744314
0.04336156 0.05575425 -0.03184798 0.09663919 0.012252046 -0.09558301 0.048582137 -0.13628656
0.0018251248 0.02284259 0.021383734 -0.10887422 0.07755679 -0.12585257 0.04791616 0.039966278
0.028301919 0.039343923 -0.09883345 0.09299674 0.060386803 -0.040608514 -0.089785196 0.033275414
0.068170145 0.04759854 0.13720213 0.03792594 -0.06821048 0.008251728 -0.04732239 0.10294517
-0.064360544 -0.03898194 0.1292282 0.10633511 0.016487656 0.03998673 -0.0052966727 -0.06527256
-0.12163377 0.07219496 0.07357143 0.044225916 0.06900358 0.112264335 0.050883245 0.005165692
00000000: 2aca b63d 2d4a 05bd 3022 95bd 2714 133d
00000010: 80e1 9c3d e389 99bc dea4 cf3d 994c 893d
00000020: 1cb6 fdbc 61af 05be 40d1 70bd f7cb 813d
00000030: 458c c93d 1e33 8bbd 3d72 66bd 2173 cebc
00000040: 5702 62bd b732 e13d 10e5 0cbe 48b3 dd3c
00000050: 0201 e2bd 1d75 d5bd 7c7f 153d f33b 883d
00000060: 5f2b d2bc 29f5 89bc 08df 19be b82a 9cbd
00000070: 83c4 a8bd 5720 2c3b 6d7d 27bd ed65 c13c
00000080: 2d49 7cbd 953d 0f3d 2cdd 833d dea4 4abb
00000090: 45c2 e9bd 2a63 09be d2d5 2e3e 8d09 18bc
000000a0: c4a9 103c e2c7 a1bd 19dc 903d 8ca8 adbd
000000b0: e23e e53d 463b ff3d f829 a93d 40ed 033d
000000c0: a08d c63d d62f 803d 786f ad3d 8846 173e
000000d0: e126 aebd b6b8 b1bd f09e 80bd 171f edbc
000000e0: 9f72 143e 168f 54bd f293 9f3d 370f 75bd
000000f0: 68b4 bebc e5fa e0bd fbf5 843e 1119 303c
00000100: 0525 92bd 59b8 95bc f556 e3bc c490 853d
00000110: fa52 88bd 0521 203e 3612 cebd 7c3f 813d
00000120: 560c f5bc 34b2 8fbc 510c a73d 5ed4 7a3d
00000130: b3dd a1bd 60f5 9f3d 60a4 ab3c f793 46bd
00000140: 0474 323b 025f 01bd 1ca1 e8bc 21c2 163e
00000150: c45b 7fbd 9b73 a13d 4854 1c3d 0ef0 843d
00000160: 54e6 143e a715 82bd 35b0 1dbd 5a5c ecbd
00000170: 9da3 a73d 693c 2b3e 2227 46bd 254e a13d
00000180: 8a51 b2bc 5b62 90bd 2bca 1a3e 7884 f43d
00000190: b9fe e8bd f63d c03d 4bc2 bdbb a2a3 4c3d
000001a0: ce07 8e3d c2fd dabc c70c ce3d 3e45 753b
000001b0: 1dcf 19be ae68 c03b 0d3a c5bd 9474 dc3d
000001c0: 92c8 633d 8934 113e 083c c6bd 83bf fcbc
000001d0: ace2 c63d 784c 11bd 2d9c 4b3e 70e7 853d
000001e0: 316d a7bc d35a eb3d 0b9e b5bd 777d 75bd
000001f0: 9f46 e1bd d864 bc3d d47d 3e3d 8547 3a3d
00000200: 43de d9bd 9a76 063d 4538 e63c c13c 21be
00000210: 95f7 863c f68e 8ebc be45 5d3d 15da dfba
00000220: 9600 f3bd 49d3 963b e6b2 d43b d983 1c3e
00000230: 6b13 a8bb 62b7 11be dace df3c d93d e83a
00000240: 732d f13d 27ff 53bd f965 febd fdc3 97bd
00000250: 9270 123e a5cd e23c e7d1 983d e851 e73b
00000260: 2d2e 95bd 1d43 253d 47b7 92bc 2ebb d6bd
00000270: 78c2 013e 3f99 063c 6e65 4a3b de7e 2dbd
00000280: 91d7 bdbd 6138 653d 241a 9b3d c2cd 57bc
00000290: f191 3abe 9a81 b43d 9a55 af3d 2aa1 f8bb
000002a0: b473 0abe 951b e2bd f9f4 79bd 87e4 bf3d
000002b0: 2c6e 6b3d 5422 7b3b b5d5 143e 9a7c f3bd
000002c0: 48e2 ec3d 4e80 a23d 355b a93c c0fa 9dbb
000002d0: 46e1 563c 90f4 603d 7201 09be cc4d 183e
000002e0: d11d 07bd 1b49 c13b 002d 313d 9aee 10be
000002f0: ea75 1abd fb9a 64bd cdcb 57bd a627 0f3e
00000300: 5650 dabd 0bb7 02bd 5de1 64bd a3e8 7bbd
00000310: 58b7 06bc a58a ecbd 4cbe 0e3e e420 583d
00000320: 0120 abbd 8173 dd3c 44f6 8bbd 6955 73bd
00000330: 279d e63d ac91 473c dd65 403d 7f49 6bbd
00000340: e49b 313d 925e 643d 0773 02bd c5ea c53d
00000350: cebc 483c 06c1 c3bd 10fe 463d b48e 0bbe
00000360: 0739 ef3a 6220 bb3c f12c af3c 72f9 debd
00000370: 18d6 9e3d 7fdf 00be bc43 443d aeb3 233d
00000380: 6dd9 e73c 1827 213d 3169 cabd 1375 be3d
00000390: 2758 773d 1d55 26bd 4de1 b7bd cd4b 083d
000003a0: ca9c 8b3d b0f6 423d b77e 0c3e 3b58 1b3d
000003b0: f0b1 8bbd 4132 073c 1fd5 41bd ebd4 d23d
000003c0: 76cf 83bd 87ab 1fbd 6654 043e 39c6 d93d
000003d0: 1f11 873c 20c9 233d b68f adbb 9fad 85bd
000003e0: 201b f9bd f4da 933d 9eac 963d 3c26 353d
000003f0: c051 8d3d d8ea e53d f36a 503d f744 a93b

bias f4 [64]
-0.12504308 -0.05536246 -0.106570296 -0.09413358 0.012822904 -0.0347444 -0.109561205 0.013291921
-0.031508505 0.0072744284 0.0635179 -0.084197715 -0.06207064 0.018276203 -0.062645204 0.036092617
-0.059488412 0.056465227 -0.016800726 0.07930335 -0.18515465 -0.0643929 0.11508432 0.01406105
-0.048077025 0.06177583 -0.09142492 -0.03561316 0.05537592 -0.061583415 -0.1250351 0.04455861
-0.0052485117 -0.01691783 -0.0053144502 0.06253154 0.1388916 0.12532586 0.07124336 0.07079908
-0.1184228 -0.07703581 0.014167736 -0.022697078 0.03390131 0.062347148 -0.012123092 0.0796737
-0.11147512 0.020660779 -0.04705541 0.1412333 -0.05795351 0.12127244 0.04621793 0.103916906
-0.03645092 0.06651877 0.03222942 -0.045938067 -0.05174457 0.04412307 -0.051748894 0.166202
00000000: 4b0b 00be bfc3 62bd 8741 dabd 1bc9 c0bd
00000010: 2817 523c 2550 0ebd a061 e0bd 5bc6 593c
00000020: 100f 01bd 545e ee3b ac15 823d da6f acbd
00000030: c93d 7ebd fab7 953c 214c 80bd dad5 133d
00000040: 1faa 73bd 1548 673d ada1 89bc cb69 a23d
00000050: 2e99 3dbe 6de0 83bd 54b1 eb3d 5160 663c
00000060: 6aec 44bd a708 7d3d fd3c bbbd 1bdf 11bd
00000070: dcd1 623d e43e 7cbd 3409 00be 1783 363d
00000080: b5fb abbb 4397 8abc d724 aebb 8910 803d
00000090: 9939 0e3e 6c55 003e 0ae8 913d 1cff 903d
000000a0: a787 f2bd f3c4 9dbd cb1f 683c 39ef b9bc
000000b0: 1adc 0a3d b95f 7f3d ef9f 46bc f72b a33d
000000c0: 114d e4bd cb40 a93c 2cbd 40bd 769f 103e
000000d0: a960 6dbd af5d f83d 034f 3d3d 63d2 d43d
000000e0: 8f4d 15bd fe3a 883d ff02 043d 8e29 3cbd
000000f0: 1df2 53bd 64ba 343d a6f6 53bd db30 2a3e

weight f4 [256, 64]
-0.012371209 0.1280853 0.11413123 -0.033112552 0.049702 0.17370796 0.049313974 0.016073102
-0.061280686 0.18284927 0.0037123978 -0.023976322 -0.024204662 -0.02274023 -0.077015504 -0.05279463
-0.008386641 0.08598705 0.089023724 0.09756087 -0.038183827 -0.11288623 0.029371962 -0.02463223
-0.05781908 0.13055068 -0.09679538 -0.11751233 -0.09522727 -0.09669554 -0.12351763 -0.02887046
0.14981897 -0.09380037 -0.051115185 -0.15091911 0.1335516 0.052941386 0.05786991 -0.09678348
0.04344331 -0.02135479 0.10140281 -0.08466058 0.06613509 0.01110894 0.01811523 -0.0071296277
-0.02890071 -0.0040323613 0.02417966 -0.15082106 0.097496495 -0.05650097 0.06303887 -0.13156809
0.025738107 0.14823541 0.044949483 -0.15932515 0.07816772 0.16919436 -0.095201746 0.058440547
0.07023287 0.036884 -0.15482232 -0.072060175 0.00967638 0.10333629 -0.06300961 0.0019967419
-0.08346537 0.030681329 -0.060677577 -0.10522682 -0.014317597 -0.1048903 -0.113739565 0.106864944
-0.07878505 0.06750135 0.022523874 0.015857963 0.025671197 0.0019902845 0.24266155 0.034122147
-0.10901111 -0.020939462 -0.016984629 0.07233165 0.054396097 -0.16068074 -0.09078302 -0.058596145
0.15551718 -0.060808145 0.026840819 0.10268988 -0.07671728 -0.16309959 -0.051335268 -0.09413483
0.095313 -0.10623204 0.05728803 -0.02142695 -0.112961344 -0.10322465 -0.073197775 -0.040090617
-0.031299494 0.038686197 0.15718353 -0.066720165 0.10276852 0.016694225 0.08998707 -0.035485446
0.02564237 0.12890531 0.026732836 -0.15377237 0.132522 0.121800125 -0.08835509 -0.027811753
0.03968294 0.1994752 -0.091972984 -0.040675767 0.03689229 0.11658994 0.05265787 0.021559512
-0.02778495 0.031899925 0.097641185 -0.020894388 -0.07833164 0.018310968 -0.0680688 -0.09934712
0.03329363 0.08973391 0.013753353 -0.020725545 0.116223745 -0.06740555 0.10550867 0.029815048
-0.19473913 -0.034846414 0.022855287 -0.048388734 -0.0044872887 -0.10742048 0.12864381 0.1122603
-0.079663694 0.08282172 0.07270342 0.06698963 -0.10982732 -0.20687428 0.04305382 -0.060565285
0.019667868 -0.08969422 0.055424817 0.024759755 0.13556589 0.011453327 -0.015628234 -0.19698562
-0.1221908 0.02319835 -0.013940214 0.07864334 0.057364553 0.04094468 0.16839889 -0.026478695
-0.068904124 -0.043693665 0.13607062 0.05844081 0.10297484 0.13248709 0.015368468 -0.05866345
0.0030528954 -0.10374825 -0.112086244 0.09625147 0.054279026 -0.06958147 -0.12718505 -0.1030027
-0.099040605 -0.04309581 -0.08882047 -0.0514431 -0.06628697 -0.01650232 0.1687976 0.003971793
-0.05694103 -0.07316677 0.026792144 0.052002244 -0.052201055 0.06535886 -0.06683816 -0.08144078
0.15079366 -0.103264086 -0.007940619 0.11234636 -0.13924684 -0.033301067 0.055462666 0.081960864
0.080418855 0.13527475 0.036163613 -0.028385507 0.07093966 0.09030362 0.013302581 0.04800199
0.10874591 0.028828856 0.034578525 -0.0618918 0.06973523 -0.13198647 -0.036866363 -0.037765503
0.09063447 0.0886262 -0.18335326 0.056314487 -0.071637966 0.00420557 -0.043553356 -0.042042464
-0.015542835 -0.113074124 -0.013141981 0.0020542745 -0.14330435 0.00039358917 -0.041331545 0.03438245
00000000: 9db0 4abc cb28 033e a2bd e93d 07a1 07bd
00000010: 5394 4b3d 80e0 313e 73fd 493d bdab 833c
00000020: 7501 7bbd d73c 3b3e b34b 733b fe69 c4bc
00000030: db48 c6bc b849 babc 4eba 9dbd 2f3f 58bd
00000040: 1f68 09bc fa19 b03d 1252 b63d fecd c73d
00000050: a566 1cbd e530 e7bd 789d f03c 88c9 c9bc
00000060: b3d3 6cbd 14af 053e a83c c6bd 4eaa f0bd
00000070: 8406 c3bd 5008 c6bd d0f6 fcbd be81 ecbc
00000080: 256a 193e 691a c0bd 285e 51bd 8a8a 1abe
00000090: c0c1 083e 11d9 583d 0009 6d3d 6b36 c6bd
000000a0: 9df1 313d 3ef0 aebc 47ac cf3d 8762 adbd
000000b0: d671 873d 4502 363c 6466 943c a79f e9bb
000000c0: 2fc1 ecbc e621 84bb 6c14 c63c d670 1abe
000000d0: 3eac c73d 906d 67bd 861a 813d c9b9 06be
000000e0: b9d8 d23c 06cb 173e f31c 383d 2226 23be
000000f0: 6616 a03d 4941 2d3e 22f9 c2bd 5b5f 6f3d
00000100: 40d6 8f3d ad13 173d be89 1ebe 4994 93bd
00000110: ae89 1e3c faa1 d33d 2f0b 81bd c5db 023b
00000120: e4ef aabd 6957 fb3c 0d89 78bd 2981 d7bd
00000130: 5b94 6abc bad0 d6bd 4af0 e8bd 02dc da3d
00000140: 0e5a a1bd 263e 8a3d fd83 b83c 8fe8 813c
00000150: 674c d23c 6f6f 023b 457c 783e aac3 0b3d
00000160: 3841 dfbd 3c89 abbc 5923 8bbc 9e22 943d
00000170: 71ce 5e3d 7e89 24be 73ec b9bd 8302 70bd
00000180: e53f 1f3e f611 79bd 47e1 db3c 124f d23d
00000190: f31d 9dbd 9403 27be ee44 52bd c3c9 c0bd
000001a0: 7633 c33d 2f90 d9bd daa6 6a3d 9287 afbc
000001b0: 4758 e7bd 7267 d3bd b7e8 95bd 0f36 24bd
000001c0: e633 00bd 6b75 1e3d b8f4 203e 95a4 88bd
000001d0: 4d78 d23d 54c2 883c 244b b83d 3059 11bd
000001e0: f30f d23c c1ff 033e d2fe da3c 8176 1dbe
000001f0: d9b3 073e 5872 f93d 83f3 b4bd 79d5 e3bc
00000200: 948a 223d 3a43 4c3e 555c bcbd a29b 26bd
00000210: 5f1c 173d b5c6 ee3d c7af 573d 939d b03c
00000220: 439d e3bc 7fa9 023d 1af8 c73d b52a abbc
00000230: 576c a0bd e200 963c a867 8bbd 8176 cbbd
00000240: e75e 083d 6ac6 b73d be55 613c 9ec8 a9bc
00000250: b706 ee3d ec0b 8abd ee14 d83d b03e f43c
00000260: b269 47be 1dbb 0ebd 033b bb3c 4433 46bd
00000270: 1b0a 93bb 45ff dbbd 34bb 033e bae8 e53d
00000280: b826 a3bd 6f9e a93d 88e5 943d dc31 893d
00000290: 25ed e0bd dad6 53be 3459 303d 4e13 78bd
000002a0: 821e a13c 9ab1 b7bd 2205 633d f8d4 ca3c
000002b0: c9d1 0a3e bca6 3b3c c806 80bc 99b6 49be
000002c0: 2c3f fabd 770a be3c 7f65 64bc c20f a13d
000002d0: 18f7 6a3d 9cb5 273d c270 2c3e d9e9 d8bc
000002e0: 9b1d 8dbd 21f8 32bd 1956 0b3e a15f 6f3d
000002f0: 79e4 d23d b2aa 073e 07cc 7b3c 1649 70bd
00000300: 1613 483b f679 d4bd 798d e5bd 7e1f c53d
00000310: af53 5e3d bb80 8ebd cc3c 02be 14f3 d2bd
00000320: cdd5 cabd 3b85 30bd 82e7 b5bd 00b6 52bd
00000330: 77c1 87bd e02f 87bc 47d9 2c3e d125 823b
00000340: ff3a 69bd 76d8 95bd 337b db3c 4e00 553d
00000350: c6d0 55bd deda 853d 72e2 88bd 6cca a6bd
00000360: a769 1a3e 1f7c d3bd 5f19 02bc d915 e63d
00000370: b996 0ebe b366 08bd d22c 633d 19db a73d
00000380: a4b2 a43d 7785 0a3e 4c20 143d b988 e8bc
00000390: d048 913d 1bf1 b83d 12f3 593c bc9d 443d
000003a0: 2db6 de3d 7e2a ec3c 36a2 0d3d 4282 7dbd
000003b0: 58d1 8e3d 7627 07be 2f01 17bd 00b0 1abd
000003c0: 919e b93d a781 b53d f5c0 3bbe 05aa 663d
000003d0: edb6 92bd e1ce 893b 0165 32bd b834 2cbd
000003e0: 60a7 7ebc 6893 e7bd 7751 57bc 02a1 063b
000003f0: 60be 12be a55a ce39 444b 29bd 9dd4 0c3d

bias f4 [256]
0.09577411 0.099229224 0.018460877 -0.12981284 0.09990052 0.09756548 0.030644087 -0.07827305
-0.11882503 0.017788958 -0.10636231 -0.09201077 -0.109312646 -0.019778082 0.079672664 -0.0034737708
0.004333033 0.027584517 -0.08696473 0.00060962996 -0.05108441 0.025877235 0.059675604 0.09181187
0.09925146 0.017311193 -0.07549892 0.019755099 -0.07722701 -0.012445732 0.07048163 -0.08065622
1.608602e-05 -0.022649985 0.07967047 -0.039577153 -0.10613608 0.061120287 -0.02026517 -0.07712184
-0.09019963 -0.02641553 -0.016868446 -0.08528678 -0.12001649 -0.051398147 -0.026963914 -0.0479322
0.008073575 0.056329083 0.107263915 0.13487208 -0.017693311 0.083204135 0.06025161 -0.08388582
-0.09513429 0.081923164 -0.051532224 -0.11154751 0.102656014 -0.09528559 -0.070016034 -0.09979351
0.117613226 0.0061382554 -0.069747224 -0.12264822 -0.05207867 0.00472875 0.06430278 -0.050836764
0.086273715 0.047899254 0.026391167 -0.14476113 -0.10784653 0.05965517 0.019553453 -0.03639877
0.07804167 0.012692758 0.080291666 0.106806755 0.02360157 -0.026947552 0.06468628 0.06901278
-0.08651886 0.022886992 -0.11931033 0.046527125 -0.036291175 0.09537583 -0.019491859 -0.10712741
-0.085359596 0.062278852 -0.124301486 0.050026957 0.05841146 -0.046084076 0.08247125 -0.115212314
-0.017196897 -0.018536735 0.06023293 -0.0128169665 0.06164609 -0.07742717 -0.028835228 -0.02769498
0.042102985 -0.02521842 0.027606966 -0.13947505 -0.09839103 -0.0066527496 -0.0663356 -0.07025946
-0.04288625 0.07523016 0.021028856 0.014395118 0.08772005 0.005326203 0.015258371 -0.100212514
0.05863363 -0.034536455 -0.114774965 0.08370503 -0.05248831 -0.054612838 -0.08457912 0.040838037
0.073897794 -0.041646674 0.036674954 0.08319196 -0.03228557 0.01310183 0.019498201 0.022197396
-0.10843122 0.016664512 -0.010233903 0.09997152 -0.041469272 0.03582539 0.09034298 -0.0072725546
0.097506076 -0.118536375 -0.110722534 -0.07299734 -0.013801523 0.07108524 -0.023272704 -0.13194793
-0.054151922 0.002538978 0.0114467945 0.036640517 0.061368253 -0.018826036 0.0051161908 0.078106314
0.07246538 -0.090026505 -0.12387645 -0.10347104 -0.0779024 0.037498385 0.06696126 0.043686252
0.062067766 0.019703208 0.04791978 0.05703578 -0.034693126 0.023491664 0.07516138 -0.09612954
0.09530917 0.03876939 -0.053732384 -0.0064071417 0.008163184 -0.036387254 -0.1040941 0.051068872
-0.075307295 -0.13066092 -0.16557539 -0.08614719 -0.10505581 -0.041442253 -0.006630508 -0.09147726
-0.10680661 0.048778087 -0.12689061 0.12257517 -0.09416222 -0.053563368 0.0989137 -0.0041799233
-0.032413803 0.008811922 0.08098648 -0.078185715 -0.021533621 0.04261449 0.029708195 0.068488196
0.09040412 -0.029952591 -0.060615577 0.027842553 0.101384625 -0.07659814 -0.058463093 -0.1244622
-0.10098547 -0.1353853 -0.11204419 -0.10476548 0.039052747 -0.008601263 0.07387273 -0.07309047
-0.020065367 -0.07324807 -0.0578646 0.055416785 0.10240778 0.044217 -0.011061577 -0.026133722
-0.07403256 -0.095825695 0.08442069 -0.033427406 0.051283196 -0.06518273 -0.038693607 0.019334467
-0.034964133 0.10425093 -0.032415427 -0.07320603 -0.008051862 -0.015808215 -0.12136316 -0.02619466
00000000: 3725 c43d b138 cb3d 443b 973c a8ed 04be
00000010: a598 cc3d 69d0 c73d 4f09 fb3c 9f4d a0bd
00000020: 8a5a f3bd 26ba 913c 7cd4 d9bd 2570 bcbd
00000030: 4fdf dfbd a505 a2bc 6c2b a33d 34a8 63bb
00000040: 1efc 8d3b edf8 e13c 901a b2bd 93cf 1f3a
00000050: e33d 51bd 7ffc d33c 686e 743d dd07 bc3d
00000060: 5944 cb3d 34d0 8d3c 2e9f 9abd 72d5 a13c
00000070: 3229 9ebd 2fe9 4bbc ac58 903d 172f a5bd
00000080: 77f0 8637 768c b9bc 452a a33d a71b 22bd
00000090: e05d d9bd 4459 7a3d 2403 a6bc 0ef2 9dbd
000000a0: 95ba b8bd 6265 d8bc b22f 8abc d6aa aebd
000000b0: 35cb f5bd dd86 52bd 6de3 dcbc 8e54 44bd
000000c0: 0747 043c 53b9 663d 2fad db3d e81b 0a3e
000000d0: 90f1 90bc ee66 aa3d 64ca 763d 54cc abbd
000000e0: c4d5 c2bd 55c7 a73d 7413 53bd 0573 e4bd
000000f0: 513d d23d 1725 c3bd 9164 8fbd 8a60 ccbd
00000100: 34df f03d 6b23 c93b a2d7 8ebd fd2e fbbd
00000110: 7250 55bd a1f3 9a3b 2db1 833d 363a 50bd
00000120: 46b0 b03d 0232 443d 4a32 d83c 433c 14be
00000130: a4de dcbd fb58 743d 902e a03c e016 15bd
00000140: 50d4 9f3d 49f5 4f3c f56f a43d 80bd da3d
00000150: 1458 c13c 1dc1 dcbc 3e7a 843d 9356 8d3d
00000160: cd30 b1bd 807d bb3c f958 f4bd 3a93 3e3d
00000170: 0ea6 14bd 6754 c33d 64ad 9fbc 9e65 dbbd
00000180: 03d1 aebd 1c18 7f3d c791 febd 11e9 4c3d
00000190: db40 6f3d a8c2 3cbd b0e6 a83d 6ff4 ebbd
000001a0: 82e0 8cbc 5ada 97bc ceb6 763d 41fe 51bc
000001b0: 9c80 7c3d 2392 9ebd db37 ecbc 95e0 e2bc
000001c0: 2e74 2c3d dc96 cebc 0128 e23c 8cd2 0ebe
000001d0: 3d81 c9bd 4fff d9bb f6da 87bd 31e4 8fbd
000001e0: 7ea9 2fbd 4512 9a3d b544 ac3c 80d9 6b3c
000001f0: 92a6 b33d 6e87 ae3b 3ffe 793c 383c cdbd
00000200: d129 703d 1976 0dbd 230f ebbd 8b6d ab3d
00000210: fbfd 56bd b6b1 5fbd d137 adbd c945 273d
00000220: ba57 973d b495 2abd 7a38 163d 8c60 aa3d
00000230: e03d 04bd 0fa9 563c b1ba 9f3c 50d7 b53c
00000240: 3011 debd 0484 883c 1aac 27bc debd cc3d
00000250: afdb 29bd a5bd 123d be05 b93d 9c4e eebb
00000260: 44b1 c73d 33c3 f2bd 7fc2 e2bd a17f 95bd
00000270: c81f 62bc 2395 913d 66a6 bebc 5c1d 07be
00000280: 68ce 5dbd fb64 263b 568b 3b3c 5e14 163d
00000290: 475d 7b3d 0f39 9abc b8a5 a73b 34f6 9f3d
000002a0: bb68 943d d15f b8bd f0b2 fdbd a0e8 d3bd
000002b0: 4b8b 9fbd e897 193d fc22 893d 5bf0 323d
000002c0: c53a 7e3d 9f68 a13c 8847 443d 5a9e 693d
000002d0: 611a 0ebd 9771 c03c 36ee 993d 90df c4bd
000002e0: 7431 c33d a7cc 1e3d 7d16 5cbd 00f3 d1bb
000002f0: e0be 053c cd0a 15bd 4a2f d5bd 982d 513d
00000300: b63a 9abd facb 05be 988c 29be f06d b0bd
00000310: 8027 d7bd 5abf 29bd bc44 d9bb 6e58 bbbd
00000320: 6dbd dabd 88cb 473d 9def 01be b108 fb3d
00000330: 1fd8 c0bd 4365 5bbd 4493 ca3d bdf7 88bb
00000340: 56c4 04bd e15f 103c 3ddc a53d d51f a0bd
00000350: 4767 b0bc 888c 2e3d 9a5e f33c 8a43 8c3d
00000360: cc25 b93d 235f f5bc 0a48 78bd 1116 e43c
00000370: bea2 cf3d 7cdf 9cbd ff76 6fbd 0ae6 febd
00000380: 78d1 cebd 72a2 0abe 6d77 e5bd 498f d6bd
00000390: c6f5 1f3d 50ec 0cbc 964a 973d 75b0 95bd
000003a0: 2060 a4bc 1603 96bd 6e03 6dbd b6fc 623d
000003b0: 2cbb d13d e31c 353d 9e3b 35bc 6316 d6bc
000003c0: 629e 97bd 4340 c4bd c1e4 ac3d 2deb 08bd
000003d0: 540e 523d 867e 85bd 307d 1ebd 5163 9e3c
000003e0: 8d36 0fbd 8381 d53d 0ac6 04bd 0bed 95bd
000003f0: f5eb 03bc 3b80 81bc 408d f8bd 2f96 d6bc
