xrdtrans_1.pt (torch, 458530 bytes, 31 tensors)

weight f4 [64, 21]
-0.2383026 0.21433312 0.21068183 0.24259616 0.18753554 0.04848178 0.0426271 -0.15468742
-0.23425938 -0.33428174 -0.48570716 0.0510728 0.169563 -0.54277396 0.11569268 -0.58137625
0.114622064 -0.2575511 0.3526313 0.44828638 0.18759552 -0.2465877 -0.014633573 0.15202011
-0.101990625 0.12346351 -0.17461635 -0.110315084 -0.02974615 -2.6362111e-12 -7.93588e-39 -0.035594575
-0.040898904 -0.0072820834 -0.005930643 -0.00280199 -1.9887518e-12 -2.1705e-39 -2.658277e-39 -7.74368e-39
2.077075e-38 -0.16050778 -0.17127399 0.22526114 0.14371802 -0.2697289 -0.005987546 0.19627774
0.14270891 -0.12416101 -0.094584264 0.02983557 0.6999276 -0.73130935 1.419868 0.82024187
-0.3579012 0.7457946 0.8132387 1.3957286 0.68073785 1.4060361 -0.052629728 -0.15878896
-0.3831265 0.124401584 0.10348845 0.1084396 -0.28718176 -0.23935878 -0.021767752 0.28343052
0.3069192 1.6544138 1.2213824 0.6538616 -0.79834396 -0.29042518 -0.48853886 -0.7241891
0.508142 0.601781 0.62378836 -0.0385251 0.30457008 0.29310897 0.0802433 -0.18831392
0.10513577 0.020855576 0.02269273 -0.00894896 -0.123815246 0.052018467 -1.6397221 -1.2727019
-1.6066048 -0.5725108 0.2987482 -0.29979047 -0.32282242 0.43387574 -0.0895101 0.861253
-0.003352838 -0.3692964 0.15477121 0.2539106 -0.19728848 0.21469882 0.12193143 -0.1400009
-0.063753374 0.029927325 0.03786309 1.0011858 0.4959652 0.7350242 0.2736097 -0.41441914
-0.17677477 0.7117477 0.9025436 0.6350619 0.087463014 -0.4789626 -0.025873996 -0.05215001
-0.17321503 -0.195322 -0.21542327 0.18731275 0.20662865 0.17728624 -0.13365217 0.15552472
1.1288972 -0.051104378 1.60059 0.33802652 -0.28545162 0.69466627 0.6871064 1.1800318
0.68184173 0.546613 -0.2572789 -0.111706644 0.020911885 0.10244183 -0.0778606 -1.3210234e-06
-1.6934498e-06 -1.5565953e-05 9.891749e-06 2.8728343e-06 -1.3924983e-05 -0.020344747 -0.0021064868 0.0016385652
-1.8955643e-38 -6.5017284e-38 -6.92072e-39 2.354019e-38 3.1545493e-38 -1.0554569e-38 6.6266407e-38 -0.0756125
0.050007194 0.15626289 -0.24917695 -0.5177928 -0.13500151 0.017531523 0.3077904 0.13649672
0.10159289 0.08072205 -0.21537933 -1.0243927 -0.41311926 0.60723156 0.44732606 0.75037706
-0.90335935 -0.77532303 -0.002963133 0.28482616 0.028025107 0.22433312 -0.18419705 -0.027266828
-0.27260563 0.07861132 -0.109416634 0.063909516 -0.37898758 -0.33516413 -0.3107607 0.14643006
0.006928855 -0.5684164 0.07779028 -0.23991758 -0.1628134 -0.13050966 0.10622196 0.0545495
0.25508434 0.14158857 -0.064333566 0.13052762 -0.0023536813 -0.35951102 -0.23205632 0.09743594
0.14745605 0.2579103 0.09115833 -0.086873285 -0.12508324 -0.2968004 1.2135535 0.33497775
-0.68334866 -0.061641894 1.1693482 -0.130166 0.11602306 0.11928828 -0.4080035 0.57346785
0.07424199 -0.16046253 0.19203156 0.05598152 -0.3130294 -0.09296563 0.04871448 -0.19151427
0.07172664 -0.33680326 -0.33038875 -0.7643526 0.12901673 -0.20256025 -0.36812288 -0.19741407
-0.20515364 0.42798868 2.288635 0.006508532 0.18223608 -9.697684e-05 -0.25594577 0.20117176
00000000: 9905 74be 247a 5b3e fabc 573e 216b 783e
00000010: 5109 403e d594 463d c199 2e3d 6166 1ebe
00000020: b1e1 6fbe fa26 abbe 9cae f8be b631 513d
00000030: eca1 2d3e 3cf3 0abf 49f0 ec3d 13d5 14bf
00000040: f9be ea3d bddd 83be 178c b43e cb85 e53e
00000050: 0a19 403e 7c81 7cbe a7c1 6fbc 29ab 1b3e
00000060: 76e0 d0bd 70da fc3d a1ce 32be e0ec e1bd
00000070: 33ae f3bc c281 39ac 016a 5680 9ecb 11bd
00000080: 9c85 27bd 8b9e eebb d755 c2bb 97a1 37bb
00000090: 2bf2 0bac 79a2 1780 32f2 1c80 3b52 5480
000000a0: 672c e200 275c 24be 7362 2fbe dbaa 663e
000000b0: d12a 133e e819 8abe 2d33 c4bb 08fd 483e
000000c0: 4922 123e 2148 febd 65b5 c1bd ba69 f43c
000000d0: 752e 333f 1737 3bbf 3cbe b53f 5ffb 513f
000000e0: d33e b7be 65ec 3e3f 6930 503f 3ca7 b23f
000000f0: d644 2e3f fef8 b33f 4592 57bd 9399 22be
00000100: 2829 c4be 42c6 fe3d c1f1 d33d 9515 de3d
00000110: 7d09 93be 781a 75be 4952 b2bc ce1d 913e
00000120: 8324 9d3e d5c3 d33f 4256 9c3f 7963 273f
00000130: 4560 4cbf 9cb2 94be c421 fabe 7564 39bf
00000140: 9815 023f 520e 1a3f 98b0 1f3f 7fcc 1dbd
00000150: 9cf0 9b3e 6112 963e 9956 a43d 5dd5 40be
00000160: 6c51 d73d 50d9 aa3c 1be6 b93c a99e 12bc
00000170: d992 fdbd 5111 553d 6ae2 d1bf e5e7 a2bf
00000180: 3aa5 cdbf 1190 12bf 86f5 983e 237e 99be
00000190: fb48 a5be f624 de3e 1251 b7bd 147b 5c3f
000001a0: 4abb 5bbb 6b14 bdbe 587c 1e3e 9200 823e
000001b0: fe05 4abe 02da 5b3e 30b7 f93d 655c 0fbe
000001c0: 2191 82bd 262a f53c 5416 1b3d db26 803f
000001d0: 27ef fd3e 8c2a 3c3f 9216 8c3e bf2e d4be
000001e0: 7204 35be 1935 363f 190d 673f 6b93 223f
000001f0: cf1f b33d 963a f5be b4f5 d3bc 409b 55bd
00000200: 485f 31be 7e02 48be eb97 5cbe eace 3f3e
00000210: 7696 533e 868a 353e 1ddc 08be df41 1f3e
00000220: b47f 903f d352 51bd 22e0 cc3f d011 ad3e
00000230: b726 92be a6d5 313f 34e6 2f3f 480b 973f
00000240: 2e8d 2e3f d4ee 0b3f 0fba 83be 74c6 e4bd
00000250: 674f ab3c 06cd d13d 6175 9fbd 054e b1b5
00000260: 7e4a e3b5 a193 82b7 bdf4 2537 ebca 4036
00000270: 599f 69b7 07aa a6bc fc0c 0abb 20c5 d63a
00000280: 9f68 ce80 6ffe b081 275c 4b80 3c2a 0001
00000290: 00c0 2b01 d8ed 7280 f264 b401 bada 9abd
000002a0: 58d4 4c3d 6103 203e 3e28 7fbe 128e 04bf
000002b0: d63d 0abe 459e 8f3c b496 9d3e ccc5 0b3e
000002c0: ef0f d03d 9a51 a53d 668c 5cbe 4d1f 83bf
000002d0: 5e84 d3be 8773 1b3f ec07 e53e b618 403f
000002e0: 8f42 67bf 927b 46bf 1f31 42bb bcd4 913e
000002f0: e994 e53c 95b7 653e 279e 3cbe af5e dfbc
00000300: f792 8bbe f9fe a03d d415 e0bd fee2 823d
00000310: a90a c2be a29a abbe 071c 9fbe c3f1 153e
00000320: 730b e33b bd83 11bf 8350 9f3d f4ac 75be
00000330: 8eb8 26be 53a4 05be e68a d93d 4c6f 5f3d
00000340: 6a9a 823e 98fc 103e 51c1 83bd 08a9 053e
00000350: 3840 1abb d411 b8be 2ca0 6dbe 7e8c c73d
00000360: b8fe 163e d20c 843e 38b1 ba3d 9fea b1bd
00000370: d215 00be 39f6 97be b955 9b3f 3482 ab3e
00000380: f0ef 2ebf 367c 7cbd 34ad 953f 3c4a 05be
00000390: 809d ed3d 6a4d f43d d6e5 d0be cace 123f
000003a0: 2f0c 983d 4a50 24be eca3 443e e14c 653d
000003b0: 6445 a0be c464 bebd d688 473d 511c 44be
000003c0: 6be5 923d 7a71 acbe b728 a9be 9dac 43bf
000003d0: f61c 043e f46b 4fbe 9a7a bcbe ea26 4abe
000003e0: cc13 52be 5521 db3e ff78 1240 8645 d53b
000003f0: 189c 3a3e 0b60 cbb8 530b 83be f8ff 4d3e

bias f4 [64]
0.29417136 -0.021403467 -0.41940126 0.26294637 -0.6200217 -0.05943219 -0.026140276 -0.026682438
-0.04744223 -0.22672822 -0.007679516 0.107185386 -0.17386383 -0.3647813 0.2634488 -0.046270736
-0.02583811 4.8572603e-38 -0.026260654 -0.15720549 -0.0074661616 0.04866713 7.30357e-39 0.13562375
0.077770084 0.046143938 0.05197431 -0.039797384 0.018550305 -0.263593 0.06537356 -0.39407957
-0.4010691 -1.8477796e-38 -0.12065611 0.5566024 0.18656515 0.31093565 0.22844763 0.5164723
0.068474874 0.50860006 0.48213145 0.2160524 -0.021068176 -0.22419994 0.17565781 -3.8951683e-38
-0.23620518 0.30385998 0.00462583 0.18679005 -0.06993373 0.02930694 -0.2607194 0.06380924
-1.11325e-08 0.26831135 0.05307887 0.28063 0.031238334 0.129527 0.41477185 0.32987973
00000000: a19d 963e 5356 afbc c3bb d6be e8a0 863e
00000010: beb9 1ebf 2b6f 73bd 2224 d6bc 2195 dabc
00000020: c952 42bd 712b 68be 73a4 fbbb 0384 db3d
00000030: 5c09 32be 9dc4 babe c3e2 863e 6286 3dbd
00000040: 72aa d3bc 2a3a 8401 9520 d7bc 7afa 20be
00000050: b4a6 f4bb 2f57 473d 6287 4f00 f4e0 0a3e
00000060: ec45 9f3d 6d01 3d3d 04e3 543d 9502 23bd
00000070: cff6 973c a9f5 86be 93e2 853d ccc4 c9be
00000080: ee58 cdbe 9434 c980 8d1a f7bd 7f7d 0e3f
00000090: ef0a 3f3e f532 9f3e 2dee 693e 8737 043f
000000a0: 8e3c 8c3d 9d33 023f efd9 f63e d73c 5d3e
000000b0: 2b97 acbc ab94 65be a4df 333e b912 5481
000000c0: c5df 71be 8993 9b3e 4694 973b e445 3f3e
000000d0: 6a39 8fbd 1c15 f03c 037d 85be 6bae 823d
000000e0: 4141 3fb2 1b60 893e 3b69 593d bcae 8f3e
000000f0: 89e7 ff3c baa2 043e fa5c d43e ffe5 a83e

pe f4 [100, 64]
0.0 1.0 0.0 1.0 0.0 1.0 0.0 1.0
0.0 1.0 0.0 1.0 0.0 1.0 0.0 1.0
0.0 1.0 0.0 1.0 0.0 1.0 0.0 1.0
0.0 1.0 0.0 1.0 0.0 1.0 0.0 1.0
0.0 1.0 0.0 1.0 0.0 1.0 0.0 1.0
0.0 1.0 0.0 1.0 0.0 1.0 0.0 1.0
0.0 1.0 0.0 1.0 0.0 1.0 0.0 1.0
0.0 1.0 0.0 1.0 0.0 1.0 0.0 1.0
0.84147096 0.54030234 0.68156135 0.731761 0.53316844 0.84600914 0.4093089 0.9123959
0.3109836 0.9504153 0.23492105 0.9720145 0.17689219 0.9842302 0.13295726 0.99112177
0.099833414 0.9950042 0.07491915 0.9971896 0.05620449 0.9984193 0.042157155 0.999111
0.031617504 0.99950004 0.023711512 0.99971884 0.01778186 0.99984187 0.013334819 0.99991107
0.009999833 0.99995 0.0074988706 0.99997187 0.0056233825 0.9999842 0.0042169513 0.9999911
0.0031622713 0.999995 0.0023713717 0.9999972 0.0017782785 0.99999845 0.0013335211 0.9999991
0.0009999998 0.9999995 0.000749894 0.9999997 0.0005623411 0.9999999 0.0004216964 0.99999994
0.0003162278 0.99999994 0.00023713727 1.0 0.00017782794 1.0 0.00013335208 1.0
0.9092974 -0.41614684 0.99748 0.070948265 0.9021307 0.43146282 0.7469035 0.6649324
0.5911271 0.8065784 0.45669332 0.8896242 0.34820527 0.93741834 0.26355368 0.96464473
0.19866931 0.9800666 0.1494172 0.98877424 0.1122313 0.9936821 0.084239356 0.99644554
0.063203394 0.9980007 0.04740969 0.99887556 0.035558093 0.9993676 0.026667267 0.99964434
0.019998666 0.9998 0.014997319 0.9998875 0.011246587 0.99993676 0.008433828 0.9999644
0.006324511 0.99998003 0.0047427304 0.99998873 0.0035565514 0.9999937 0.0026670396 0.9999964
0.0019999985 0.99999803 0.0014997876 0.99999887 0.0011246821 0.99999934 0.0008433927 0.99999964
0.0006324555 0.9999998 0.0004742745 0.9999999 0.00035565588 0.99999994 0.00026670416 1.0
0.14112 -0.9899925 0.7782725 -0.6279267 0.9932532 -0.11596616 0.9536345 0.3009673
0.8126489 0.58275366 0.652904 0.7574407 0.5085361 0.86104065 0.3894703 0.92103904
0.2955202 0.9553365 0.22307542 0.9748012 0.16790329 0.9858035 0.12617177 0.9920084
0.094726086 0.99550337 0.071081206 0.9974705 0.053323086 0.9985773 0.039994974 0.99919987
0.0299955 0.99955004 0.022494925 0.999747 0.016869437 0.9998577 0.012650555 0.99992
0.009486687 0.999955 0.007114062 0.9999747 0.005334813 0.99998575 0.0040005534 0.999992
0.0029999954 0.9999955 0.0022496805 0.9999975 0.0016870227 0.99999857 0.0012650889 0.9999992
0.00094868324 0.9999996 0.00071141176 0.99999976 0.0005334838 0.9999999 0.00040005625 0.99999994
00000000: 0000 0000 0000 803f 0000 0000 0000 803f
00000010: 0000 0000 0000 803f 0000 0000 0000 803f
00000020: 0000 0000 0000 803f 0000 0000 0000 803f
00000030: 0000 0000 0000 803f 0000 0000 0000 803f
00000040: 0000 0000 0000 803f 0000 0000 0000 803f
00000050: 0000 0000 0000 803f 0000 0000 0000 803f
00000060: 0000 0000 0000 803f 0000 0000 0000 803f
00000070: 0000 0000 0000 803f 0000 0000 0000 803f
00000080: 0000 0000 0000 803f 0000 0000 0000 803f
00000090: 0000 0000 0000 803f 0000 0000 0000 803f
000000a0: 0000 0000 0000 803f 0000 0000 0000 803f
000000b0: 0000 0000 0000 803f 0000 0000 0000 803f
000000c0: 0000 0000 0000 803f 0000 0000 0000 803f
000000d0: 0000 0000 0000 803f 0000 0000 0000 803f
000000e0: 0000 0000 0000 803f 0000 0000 0000 803f
000000f0: 0000 0000 0000 803f 0000 0000 0000 803f
00000100: a46a 573f 4151 0a3f ce7a 2e3f b054 3b3f
00000110: ba7d 083f 0e94 583f f090 d13e c792 693f
00000120: 3e39 9f3e 6b4e 733f 258f 703e f1d5 783f
00000130: 3a23 353e 83f6 7b3f f325 083e 28ba 7d3f
00000140: 7675 cc3d 98b8 7e3f 366f 993d d147 7f3f
00000150: ae36 663d 6898 7f3f fbac 2c3d bdc5 7f3f
00000160: 5b81 013d 3cdf 7f3f a53e c23c 93ed 7f3f
00000170: 43ab 913c a3f5 7f3f 497a 5a3c 2cfa 7f3f
00000180: 57d6 233c b9fc 7f3f 16b9 f53b 28fe 7f3f
00000190: 5a44 b83b f7fe 7f3f 5a2e 8a3b 6bff 7f3f
000001a0: 1c3e 4f3b acff 7f3f 0469 1b3b d1ff 7f3f
000001b0: 2015 e93a e6ff 7f3f 8bc9 ae3a f1ff 7f3f
000001c0: 6d12 833a f8ff 7f3f 8994 443a fbff 7f3f
000001d0: 136a 133a feff 7f3f 2217 dd39 ffff 7f3f
000001e0: 60cb a539 ffff 7f3f 0da8 7839 0000 803f
000001f0: 5377 3a39 0000 803f 6dd4 0b39 0000 803f
00000200: b7c7 683f 3311 d5be d95a 7f3f 534d 913d
00000210: 0af2 663f b2e8 dc3e 1135 3f3f 0339 2a3f
00000220: 1b54 173f ec7b 4e3f b5d3 e93e 69be 633f
00000230: f647 b23e a6fa 6f3f 82f0 863e f5f2 763f
00000240: f86f 4b3e a5e5 7a3f d300 193e 4f20 7d3f
00000250: 86d9 e53d f361 7e3f af85 ac3d 0e17 7f3f
00000260: c870 813d f97c 7f3f aa30 423d 4fb6 7f3f
00000270: 5da5 113d 8ed6 7f3f 5075 da3c b1e8 7f3f
00000280: 3ed4 a33c e5f2 7f3f 51b7 753c a1f8 7f3f
00000290: 9b43 383c dbfb 7f3f 0a2e 0a3c abfd 7f3f
000002a0: d83d cf3b b1fe 7f3f e868 9b3b 43ff 7f3f
000002b0: 0815 693b 96ff 7f3f 80c9 2e3b c4ff 7f3f
000002c0: 6812 033b dfff 7f3f 8594 c43a edff 7f3f
000002d0: 126a 933a f5ff 7f3f 2017 5d3a faff 7f3f
000002e0: 5fcb 253a fdff 7f3f 0ca8 f839 feff 7f3f
000002f0: 5377 ba39 ffff 7f3f 6dd4 8b39 0000 803f
00000300: c381 103e 2670 7dbf de3c 473f cebf 20bf
00000310: d745 7e3f ab7f edbd 6421 743f 6318 9a3e
00000320: c209 503f 582f 153f b724 273f a2e7 413f
00000330: 6c2f 023f 296d 5c3f a768 c73e 37c9 6b3f
00000340: 6c4e 973e ef90 743f e26d 643e 928c 793f
00000350: d7ee 2b3e 9e5d 7c3f 2c33 013e 43f4 7d3f
00000360: c0ff c13d 4fd9 7e3f 0693 913d 3a5a 7f3f
00000370: 4f69 5a3d c3a2 7f3f c5d1 233d 90cb 7f3f
00000380: 1fb9 f53c 83e2 7f3f 4747 b83c 6bef 7f3f
00000390: c631 8a3c adf6 7f3f 4644 4f3c c2fa 7f3f
000003a0: 0d6e 1b3c 0dfd 7f3f 141d e93b 58fe 7f3f
000003b0: a8cf ae3b 11ff 7f3f 1317 833b 7aff 7f3f
000003c0: 929b 443b b5ff 7f3f 606f 133b d6ff 7f3f
000003d0: 171f dd3a e8ff 7f3f 57d1 a53a f3ff 7f3f
000003e0: 0eb1 783a f9ff 7f3f 097e 3a3a fcff 7f3f
000003f0: 7ed9 0b3a feff 7f3f a4be d139 ffff 7f3f

in_proj_weight f4 [192, 64]
-2.414222e-38 -3.030939e-39 5.788994e-38 4.5734455e-38 -4.3267214e-38 -2.2503877e-38 -6.848929e-38 -4.4134063e-38
5.7273153e-38 2.9445664e-38 1.0175924e-38 -3.247223e-38 -9.847944e-39 -4.805935e-39 -1.372659e-39 -4.8835207e-38
2.859251e-38 -2.7882942e-38 5.461034e-38 2.0900466e-38 4.6082193e-38 -4.1213163e-38 5.560193e-39 -3.17038e-38
1.4860609e-38 6.910082e-38 -6.126165e-38 5.459006e-38 -1.1213657e-38 -6.7717547e-38 5.88114e-39 -5.5901994e-38
-2.7078725e-38 -5.8905733e-38 3.6712562e-38 -1.2111395e-38 7.035432e-38 -5.8021834e-38 -5.546322e-38 4.731915e-38
2.1367716e-38 -3.2224075e-38 -5.4512035e-38 -6.261733e-38 -4.816039e-39 2.188895e-39 4.8044286e-38 3.030611e-38
3.847035e-38 2.483028e-39 -4.99872e-38 -4.418601e-38 1.7537221e-38 -5.571473e-38 -4.1559757e-38 -4.2823519e-38
-2.451811e-38 -1.5631503e-38 4.3193635e-38 -5.6098e-41 -3.4765503e-38 -3.0026497e-38 1.3118464e-38 -6.84023e-38
3.4074837e-38 4.845115e-38 9.421116e-39 3.793381e-38 1.2835235e-38 -3.4534726e-38 -9.74031e-40 2.541665e-38
4.022332e-39 8.059333e-39 -9.505405e-39 2.038563e-39 6.740751e-38 -4.882653e-38 -2.0359122e-38 -3.9789542e-38
-5.8055297e-38 -2.6534293e-38 6.915554e-39 -4.0019694e-38 3.592241e-38 -1.20109e-38 -3.4793577e-38 -8.492396e-39
1.740582e-39 5.5238434e-38 -6.962663e-38 4.767022e-38 -1.8374243e-38 4.094134e-38 -5.222517e-38 4.658256e-38
-2.7751508e-38 -3.78698e-40 1.4331042e-38 1.9079912e-38 -8.061227e-39 2.970383e-39 -4.2270555e-38 -6.0952e-38
3.4646723e-38 3.5221004e-38 -8.526245e-39 3.297323e-38 -4.211089e-38 1.3183721e-38 4.8325874e-38 1.769582e-39
-4.1654808e-38 -2.1528311e-38 4.330046e-38 -5.665859e-38 1.3260151e-38 -2.0826218e-38 -4.170467e-38 1.112715e-39
1.3719991e-38 2.6126958e-38 4.5313822e-38 -4.9242346e-38 -3.7588413e-38 5.0355885e-38 6.846046e-39 -1.723182e-39
5.418977e-38 -4.0985424e-38 -2.0930406e-38 -1.384311e-38 1.3427374e-38 6.518265e-38 2.1856736e-38 7.729272e-39
-2.3462005e-38 -5.1298773e-38 2.8795058e-38 3.9552372e-38 -7.196852e-39 -1.0652578e-38 1.256431e-39 -3.2441562e-38
4.3327812e-38 1.1629509e-38 -5.556846e-38 -5.073928e-38 -3.996501e-38 -5.3339535e-38 -1.12503e-40 -5.348754e-38
5.6740755e-38 -2.9182141e-38 -3.8132302e-38 3.088258e-38 2.9697738e-38 1.5016966e-38 -7.20261e-39 3.3626892e-38
-4.114927e-38 6.191821e-38 3.8735707e-38 -6.290831e-38 7.044258e-38 -3.796297e-39 -1.2778704e-38 1.000893e-39
5.057796e-39 -5.481876e-38 1.8028805e-38 -4.2846433e-38 6.200611e-38 3.1333286e-38 4.9135796e-38 3.2464913e-38
4.063002e-38 3.9842604e-38 -3.971846e-38 -6.437448e-38 -1.2015776e-38 5.5706345e-38 -1.123694e-39 2.1144058e-38
6.150319e-39 -3.1936408e-38 -5.963024e-38 -6.235285e-39 2.2167992e-38 4.9066376e-38 -5.5612906e-38 1.2024721e-38
2.669961e-38 5.54585e-38 1.475595e-39 -5.913944e-38 -8.179512e-39 -5.377874e-38 -6.795753e-38 -3.3880426e-38
-4.4587462e-38 -4.887192e-38 5.0179265e-38 -1.0891671e-38 3.1045924e-38 5.8258737e-38 -2.1677913e-38 -2.4992478e-38
2.566462e-38 5.538317e-39 -6.2763934e-38 -6.586143e-38 -5.79196e-38 2.3237887e-38 5.05371e-38 3.659757e-38
3.56233e-39 -6.4630105e-38 -3.4909178e-38 -1.1294915e-38 5.6180914e-38 -1.3695798e-38 -3.268817e-38 -6.145342e-38
4.6262546e-38 2.7080017e-38 -1.8852855e-38 5.814653e-39 -3.626403e-39 1.1761101e-38 1.5196698e-38 -2.7781986e-38
-3.080466e-38 -2.016157e-38 -3.5573957e-38 -4.2948862e-38 1.2311954e-38 -4.0604703e-38 3.675026e-38 -1.720923e-39
2.8926915e-38 -1.4113622e-38 2.181606e-39 -5.784832e-39 4.3457662e-38 3.644797e-38 -5.99379e-38 -2.635708e-39
2.7575556e-38 5.631767e-38 -5.255249e-38 -2.311703e-38 6.407008e-39 -4.4848854e-38 -4.5872458e-38 -1.7713377e-38
00000000: 5871 0381 0601 2180 6697 9d01 8700 7901
00000010: b291 6b81 a70b f580 1272 ba81 e849 7081
00000020: 90e9 9b01 4451 2001 56ce 6e00 afcb 3081
00000030: 103c 6b80 fe54 3480 6af2 0e80 2cf1 8481
00000040: 24ac 1b01 26cf 1781 daa9 9401 ff95 e300
00000050: 34e5 7a01 c462 6081 8e8b 3c00 a69c 2c81
00000060: 55d1 a100 3e1c bc01 24c5 a681 b89b 9401
00000070: 1d1b 7a80 3e58 b881 3a0a 4000 012e 9881
00000080: 3c6e 1381 4e5b a081 d8e1 4701 a4e1 8380
00000090: ce85 bf01 51f3 9d81 39fc 9681 a2d0 8001
000000a0: 80ac e800 ce71 2f81 5865 9481 e975 aa81
000000b0: 2871 3480 c0d5 1700 fbc9 8201 8d00 2501
000000c0: d873 5101 ac09 1b00 fe13 8881 4f92 7081
000000d0: a3f6 be00 80ab 9781 d945 6281 4627 6981
000000e0: 427d 0581 4536 aa80 242b 6b01 619c 0080
000000f0: 0a48 3d81 d47a 2381 f1d8 8e00 7235 ba81
00000100: 6485 3901 86e5 8301 3d96 6600 0488 4e01
00000110: 6ac3 8b00 6206 3c81 349b 0a80 a461 0a01
00000120: a0cc 2b00 24c2 5700 3481 6780 af32 1600
00000130: 2e80 b701 20eb 8481 f3b0 dd80 87a2 5881
00000140: a30a 9e81 6877 1081 c04d 4b00 50e3 5981
00000150: 8894 4301 81c9 8280 2b6f 3d81 5879 5c80
00000160: 09f4 1200 925f 9601 ae8a bd81 4bc5 8101
00000170: ea13 c880 e6e7 5e01 a22b 8e81 9d9e 7d01
00000180: f517 1781 a81f 0480 1d0d 9c00 08c3 cf00
00000190: 6cc7 5780 3858 2000 8e24 6681 58ed a581
000001a0: 7ca2 3c01 eac2 3f01 b4d7 5c80 fa85 3301
000001b0: 0446 6581 da8e 8f00 388e 8301 e044 1300
000001c0: 54ca 6281 2c6c ea80 08c0 6b01 463d 9a81
000001d0: e863 9000 06c7 e280 d40f 6381 cc1d 0c00
000001e0: c165 9500 aa3f 0e01 40b6 7601 e80c 8681
000001f0: 9aa6 4c81 ee14 8901 fe8b 4a00 88c3 1280
00000200: c284 9301 5825 5f81 75e9 e380 f5bc 9680
00000210: 0e36 9200 ad71 b101 b0ff ed00 112a 5400
00000220: 867a ff80 07a6 8b81 74c6 1c01 f657 5701
00000230: e55d 4e80 0eff 7380 6bae 0d00 f0a0 3081
00000240: 28e6 6b01 57a2 7e00 9145 9781 1e20 8a81
00000250: 1897 5981 3b34 9181 9d39 0180 609b 9181
00000260: 8976 9a01 f8e1 1e81 ac9c 4f81 0924 2801
00000270: 9bb0 2101 3185 a300 f26d 4e80 0c15 3701
00000280: b609 6081 b28e a801 b2e5 5201 b240 ab81
00000290: 50c3 bf01 8856 2980 d425 8b80 15e6 0a00
000002a0: 1413 3700 1a3b 9581 f950 c400 3647 6981
000002b0: f4cb a801 3a98 2a01 a7c2 8501 7cc1 3001
000002c0: fc35 5d01 7cec 5801 743f 5881 773e af81
000002d0: 18d7 8280 a8a5 9701 673c 0c80 083d e600
000002e0: 96f8 4200 dbe0 2d81 3654 a281 70e5 4380
000002f0: 5863 f100 4692 8501 8a64 9781 08f0 8200
00000300: d35d 1101 eff8 9601 5c11 1000 2dfe a081
00000310: 2711 5980 5066 9281 7cff b881 6c76 3881
00000320: dac1 7281 c20a 8581 d899 8801 8c99 7680
00000330: b407 2901 6a98 9e01 340d ec80 6e12 0881
00000340: 42bb 0b01 934e 3c00 14dc aa81 b84a b381
00000350: 12ac 9d81 c609 fd00 3893 8901 9141 4701
00000360: 54ca 2600 9cf0 af81 4b10 3e81 a1fd 7a80
00000370: 62f0 9801 5022 9580 a9f8 3181 c84a a781
00000380: 94e0 7b01 0970 1301 174a cd80 e350 3f00
00000390: f07c 2780 2a11 8000 367a a500 7042 1781
000003a0: 6eb7 2781 418a db80 dcae 4181 fad5 6981
000003b0: b810 8600 b212 5d81 6316 4801 3cbd 1280
000003c0: 3c7e 1d01 09af 9980 6ec1 1700 c2fd 3e80
000003d0: 249b 6c01 0e71 4601 9f2a a381 48b3 1c80
000003e0: b722 1601 b04f 9901 be0f 8f81 e0b8 fb80
000003f0: 22c4 4500 2e2e 7481 e0c0 7981 b0e1 c080

in_proj_bias f4 [192]
0.0 0.0 0.0 0.0 0.0 0.0 0.0 0.0
0.0 0.0 0.0 0.0 0.0 0.0 0.0 0.0
0.0 0.0 0.0 0.0 0.0 0.0 0.0 0.0
0.0 0.0 0.0 0.0 0.0 0.0 0.0 0.0
0.0 0.0 0.0 0.0 0.0 0.0 0.0 0.0
0.0 0.0 0.0 0.0 0.0 0.0 0.0 0.0
0.0 0.0 0.0 0.0 0.0 0.0 0.0 0.0
0.0 0.0 0.0 0.0 0.0 0.0 0.0 0.0
0.0 0.0 0.0 0.0 0.0 0.0 0.0 0.0
0.0 0.0 0.0 0.0 0.0 0.0 0.0 0.0
0.0 0.0 0.0 0.0 0.0 0.0 0.0 0.0
0.0 0.0 0.0 0.0 0.0 0.0 0.0 0.0
0.0 0.0 0.0 0.0 0.0 0.0 0.0 0.0
0.0 0.0 0.0 0.0 0.0 0.0 0.0 0.0
0.0 0.0 0.0 0.0 0.0 0.0 0.0 0.0
0.0 0.0 0.0 0.0 0.0 0.0 0.0 0.0
-0.110607535 0.33628225 0.2970078 -0.11165751 0.39762393 0.01872587 0.36934337 0.058135428
-0.146099 -0.2737234 -0.25448877 0.050127137 0.03788652 -0.14383844 0.14488783 0.37820703
-0.18615559 0.3061512 -0.016621929 0.32846746 0.037419293 0.15147142 -0.45428047 0.14379771
0.46659032 -0.19106197 0.084618665 0.15494281 0.08460127 0.3571214 0.31377035 0.16461709
-0.01788562 0.36000448 -0.36808527 -0.08421695 0.36590013 0.22382072 -0.2920746 -0.30976963
0.055919655 -0.32876614 -0.16689445 0.3924607 0.20440026 -0.08747624 0.12387851 0.2968051
-0.018808909 -0.18042995 -0.21182641 0.085634544 0.47290754 0.48023072 -0.03424385 -0.46021917
0.2618707 0.36459136 -0.13212523 0.123750724 -0.072629295 0.011330399 -0.19638343 0.06534727
00000000: 0000 0000 0000 0000 0000 0000 0000 0000
00000010: 0000 0000 0000 0000 0000 0000 0000 0000
00000020: 0000 0000 0000 0000 0000 0000 0000 0000
00000030: 0000 0000 0000 0000 0000 0000 0000 0000
00000040: 0000 0000 0000 0000 0000 0000 0000 0000
00000050: 0000 0000 0000 0000 0000 0000 0000 0000
00000060: 0000 0000 0000 0000 0000 0000 0000 0000
00000070: 0000 0000 0000 0000 0000 0000 0000 0000
00000080: 0000 0000 0000 0000 0000 0000 0000 0000
00000090: 0000 0000 0000 0000 0000 0000 0000 0000
000000a0: 0000 0000 0000 0000 0000 0000 0000 0000
000000b0: 0000 0000 0000 0000 0000 0000 0000 0000
000000c0: 0000 0000 0000 0000 0000 0000 0000 0000
000000d0: 0000 0000 0000 0000 0000 0000 0000 0000
000000e0: 0000 0000 0000 0000 0000 0000 0000 0000
000000f0: 0000 0000 0000 0000 0000 0000 0000 0000
00000100: 0000 0000 0000 0000 0000 0000 0000 0000
00000110: 0000 0000 0000 0000 0000 0000 0000 0000
00000120: 0000 0000 0000 0000 0000 0000 0000 0000
00000130: 0000 0000 0000 0000 0000 0000 0000 0000
00000140: 0000 0000 0000 0000 0000 0000 0000 0000
00000150: 0000 0000 0000 0000 0000 0000 0000 0000
00000160: 0000 0000 0000 0000 0000 0000 0000 0000
00000170: 0000 0000 0000 0000 0000 0000 0000 0000
00000180: 0000 0000 0000 0000 0000 0000 0000 0000
00000190: 0000 0000 0000 0000 0000 0000 0000 0000
000001a0: 0000 0000 0000 0000 0000 0000 0000 0000
000001b0: 0000 0000 0000 0000 0000 0000 0000 0000
000001c0: 0000 0000 0000 0000 0000 0000 0000 0000
000001d0: 0000 0000 0000 0000 0000 0000 0000 0000
000001e0: 0000 0000 0000 0000 0000 0000 0000 0000
000001f0: 0000 0000 0000 0000 0000 0000 0000 0000
00000200: 3486 e2bd 302d ac3e 6811 983e b1ac e4bd
00000210: 5d95 cb3e ff66 993c 931a bd3e 6a1f 6e3d
00000220: fa9a 15be 7925 8cbe 5a4c 82be 1d52 4d3d
00000230: e52e 1b3d 624a 13be 7a5d 143e 5aa4 c13e
00000240: 929f 3ebe dabf 9c3e b62a 88bc e32c a83e
00000250: f944 193d 531b 1b3e 7397 e8be b53f 133e
00000260: ede4 ee3e c0a5 43be 8d4c ad3d 54a9 1e3e
00000270: 6e43 ad3d 9ed8 b63e 82a6 a03e 6291 283e
00000280: dd84 92bc 8252 b83e ac75 bcbe f079 acbd
00000290: 4357 bb3e 4231 653e cd8a 95be 209a 9ebe
000002a0: 020c 653d 0954 a8be 61e6 2abe 9cf0 c83e
000002b0: 4d4e 513e be26 b3bd 04b4 fd3d d7f6 973e
000002c0: 2415 9abc a1c2 38be 06e9 58be 2a61 af3d
000002d0: f020 f23e cde0 f53e 4743 0cbd d9a1 ebbe
000002e0: eb13 863e b8ab ba3e d64b 07be 0571 fd3d
000002f0: abbe 94bd 23a3 393c bd18 49be cad4 853d

weight f4 [64, 64]
-0.00910968 0.019424433 0.029769706 0.018386459 0.059207566 0.017829865 0.07719456 -0.02965698
0.1449179 0.15221731 0.011817267 0.079869814 -0.027331105 -0.0729245 0.0374401 0.041535884
-0.038905147 0.08208637 0.0049222987 0.0024269582 0.07444241 0.002767301 -0.04066202 0.011642981
-0.022245526 -0.0935076 -0.010468993 -0.021945123 0.09050174 0.10407042 -0.035557706 -0.014593214
-0.02817011 0.13847584 -0.002680034 -0.06533193 -0.008666216 0.0031275197 -0.07962519 -0.0007009203
-0.027812831 -0.024161812 0.022960328 0.0049120598 0.08735959 -0.031895846 -0.003413992 -0.07559803
0.042138383 0.09857031 0.101918645 -0.014067318 0.0027434565 0.037985407 -0.017472517 0.0003296768
0.0034345945 0.0053733406 0.035419088 0.004602527 -0.03618494 0.033433344 -0.095141724 0.040206447
-0.11569665 -0.124961376 0.10251897 0.18402283 -0.008010401 0.114112444 -0.20878181 0.16310406
-0.014536574 -0.0026889427 -0.09461916 0.027756974 0.078984246 0.09335516 -0.100322515 0.07567622
-0.010691757 -0.13193932 -0.09345629 0.06312633 -0.008195551 -0.079908326 -0.03429928 -0.06633243
0.15344739 0.08063161 -0.15716703 0.0023273535 0.007177805 -0.16963476 -0.037936553 0.05979865
-0.056631032 0.041338515 -0.025849078 -0.10261396 0.020436348 -0.05044148 -0.057911515 0.101436086
-0.039005697 0.18391529 0.04461582 -0.21210405 0.0023425904 0.018262776 -0.08543728 0.10604272
-0.09691204 -0.053060472 -0.047706492 0.06360992 -0.01926869 0.02087413 0.0939045 0.13808133
-0.1946245 -0.22552302 -0.034773212 0.024337577 -0.028676683 -0.020607578 0.15994233 -0.09023873
0.04770914 -0.08869381 -0.057536498 0.025437463 -0.07593076 -0.18920338 -0.09912517 -0.08774757
0.11497229 -0.062352713 -0.059730537 -0.07155527 -0.035757765 0.14663683 0.008186267 -0.0007763185
0.14125368 -0.0034461585 -0.01937621 -0.014999981 0.02890424 -0.008290968 0.062730394 -0.003002377
0.0038038788 -0.06272366 -0.031585895 0.12507744 -0.0048030014 -0.12395779 0.045927405 -0.033169046
0.09398709 0.05233827 -0.015699225 0.2540927 0.033041574 -0.036155142 0.1287057 0.032632284
0.013795049 0.06853928 0.02018012 -0.12031159 0.058050912 0.0775275 0.031120023 -0.1944467
0.008504732 0.013260016 0.013290452 0.049533285 -0.01152387 -0.020236308 0.039610513 0.09443715
0.13812001 -0.0647735 0.06321294 -0.19817543 -0.03775446 -0.13714746 0.112765834 0.05115537
-0.0028565575 0.010615509 0.14620222 -0.0208525 -0.004530426 -0.06282306 -0.14228065 0.060267597
0.039636046 -0.008555866 -0.024187313 0.03940388 -0.013277923 0.06881749 0.011298119 0.018707132
-0.06934165 0.05609598 -0.02730572 0.043003652 0.040557183 -0.008708774 0.02143844 0.013118789
0.06249566 0.031467754 -0.03915114 0.13386028 -0.044823103 0.06853837 -0.036742274 -0.011236112
0.021652142 0.026783004 -0.0072319238 0.10150542 0.020412022 0.011800468 -0.023065772 -0.0050184056
0.081535265 0.0019380224 0.0114133535 -0.12108403 0.10215636 0.047465872 -0.057598792 -0.028554909
0.0334129 -0.069651395 0.028146792 0.036032606 0.0019403937 -0.017986512 -0.014786762 -0.05151881
-0.07021081 -0.022436535 0.0168356 0.037978183 0.060031295 0.03079832 -0.061068807 0.0054933047
00000000: c440 15bc fd1f 9f3c 99df f33c 339f 963c
00000010: a283 723d f00f 923c 2e18 9e3d 32f3 f2bc
00000020: 5c65 143e dbde 1b3e 369d 413c c992 a33d
00000030: 7be5 dfbc 7159 95bd ca5a 193d 8821 2a3d
00000040: 015b 1fbd e61c a83d 3c4b a13b 9a0d 1f3b
00000050: 4375 983d 9b5b 353b 388d 26bd 34c2 3e3c
00000060: 403c b6bc ea80 bfbd 2486 2bbc 42c6 b3bc
00000070: fa58 b93d df22 d53d f5a4 11bd 6018 6fbc
00000080: 01c5 e6bc 9ccc 0d3e 82a3 2fbb bfcc 85bd
00000090: bffc 0dbc 13f7 4c3b 8812 a3bd f7bd 37ba
000000a0: bcd7 e3bc feee c5bc 4c17 bc3c 58f5 a03b
000000b0: 96e9 b23d 38a5 02bd 48bd 5fbb 24d3 9abd
000000c0: 4c99 2c3d 3bdf c93d b9ba d03d 9c7a 66bc
000000d0: 90cb 333b 9696 1b3d 8622 8fbc 79d8 ac39
000000e0: ef16 613b d912 b03b 9b13 113d cbd0 963b
000000f0: a936 14bd 67f1 083d aad9 c2bd 84af 243d
00000100: 5ef2 ecbd c0eb ffbd 77f5 d13d 7b70 3c3e
00000110: 0f3e 03bc c9b3 e93d e6ca 55be c004 273e
00000120: cf2a 6ebc f938 30bb b1c7 c1bd 9862 e33c
00000130: 7ec2 a13d fd30 bf3d e475 cdbd 22fc 9a3d
00000140: 7b2c 2fbc 1a1b 07be 0366 bfbd 6148 813d
00000150: a246 06bc faa6 a3bd 677d 0cbd 4cd9 87bd
00000160: 5021 1d3e 2f22 a53d 65f0 20be 8386 183b
00000170: cb33 eb3b bcb4 2dbe 5c63 1bbd 6eef 743d
00000180: f1f5 67bd 9352 293d 72c1 d3bc 4527 d2bd
00000190: 216a a73c ba9b 4ebd a034 6dbd b9bd cf3d
000001a0: 70c4 1fbd 4a54 3c3e 14bf 363d ce31 59be
000001b0: 2586 193b d19b 953c bef9 aebd ed2c d93d
000001c0: d279 c6bd f055 59bd e267 43bd eb45 823d
000001d0: 5fd9 9dbc 3900 ab3c 0151 c03d 3165 0d3e
000001e0: a54b 47be 82ef 66be 5b6e 0ebd 995f c73c
000001f0: 5deb eabc 39d1 a8bc ecc7 233e 15cf b8bd
00000200: a96a 433d 1aa5 b5bd 64ab 6bbd 3a62 d03c
00000210: 9681 9bbd 88be 41be 2302 cbbd ffb4 b3bd
00000220: 9876 eb3d 8f65 7fbd 02a8 74bd 928b 92bd
00000230: bc76 12bd f727 163e b11f 063c da81 4bba
00000240: cea4 103e f2d8 61bb dcba 9ebc 7bc2 75bc
00000250: 96c8 ec3c d7d6 07bc cb78 803d 87c3 44bb
00000260: 7f4a 793b 4375 80bd 3660 01bd 4d14 003e
00000270: 7f62 9dbb 95dd fdbd 601e 3c3d 44dc 07bd
00000280: 4e7c c03d a760 563d a99b 80bc 7018 823e
00000290: 9a56 073d 6a17 14bd 6dcb 033e 6ea9 053d
000002a0: a104 623c 525e 8c3d c750 a53c ec65 f6bd
000002b0: cbc6 6d3d bdc6 9e3d 6bef fe3c 091d 47be
000002c0: 6e57 0b3c 8a40 593c 32c0 593c 6ae3 4a3d
000002d0: 9dce 3cbc 9dc6 a5bc a23e 223d 4468 c13d
000002e0: 556f 0d3e f8a7 84bd c975 813d 80ee 4abe
000002f0: 6ca4 1abd 6270 0cbe c6f1 e63d 4b88 513d
00000300: 1535 3bbb acec 2d3c 09b6 153e ddd2 aabc
00000310: f873 94bb 60a9 80bd 05b2 11be 28db 763d
00000320: 6859 223d e72d 0cbc 7924 c6bc f665 213d
00000330: a58b 59bc 2ff0 8c3d bf1b 393c b33f 993c
00000340: ff02 8ebd e6c4 653d 3fb0 dfbc 9924 303d
00000350: 4a1f 263d 3faf 0ebc ab9f af3c 30f0 563c
00000360: 73fb 7f3d 55e4 003d f25c 20bd ab12 093e
00000370: 6e98 37bd d85d 8c3d 117f 16bd ab17 38bc
00000380: d55f b13c 0868 db3c c6f9 ecbb 13e2 cf3d
00000390: 1d37 a73c c056 413c 6ef4 bcbc 7071 a4bb
000003a0: f6fb a63d 3e05 fe3a 13ff 3a3c e7fa f7bd
000003b0: 5b37 d13d 936b 423d b6ec 6bbd fceb e9bc
000003c0: f7db 083d 64a5 8ebd 1a94 e63c ed96 133d
000003d0: cf54 fe3a 7358 93bc 2d44 72bc 6305 53bd
000003e0: afca 8fbd d3cc b7bc d0ea 893c 038f 1b3d
000003f0: 60e3 753d c24c fc3c 4923 7abd 2e01 b43b

bias f4 [64]
0.17198166 -0.253192 -0.1220679 0.12259409 -0.27020726 0.06906695 -0.08088867 -0.21546854
-0.1562352 -0.30937314 0.066972554 0.12090931 -0.10160324 0.02076719 -0.027471434 -0.12563168
-0.056418665 0.21952778 0.20319097 -0.18875653 0.028868375 -0.044507716 0.19300242 -0.12616123
-0.12656057 -0.06318672 -0.1034326 0.08527913 0.5143463 -0.15101978 -0.014129601 -0.17452307
-0.08300359 0.22245172 -0.081514 0.18857236 0.12113091 0.13108237 0.04506634 0.55965793
0.21135898 0.36338538 0.31534705 0.08673352 -0.28735617 -0.014013084 0.08650825 0.24300684
-0.128031 0.13534562 0.039447226 0.2369498 -0.14843568 0.027820399 0.15243495 0.22245649
-0.05231288 -0.11441592 0.23647845 0.25347832 -0.33072242 0.08897944 0.19134162 0.24463071
00000000: f61b 303e 62a2 81be bcfe f9bd 9c12 fb3d
00000010: 9b58 8abe f972 8d3d f6a8 a5bd c9a3 5cbe
00000020: 1ffc 1fbe 2866 9ebe e828 893d 4d9f f73d
00000030: 5c15 d0bd f41f aa3c c60b e1bc 97a5 00be
00000040: 4217 67bd e4cb 603e 4b11 503e 6449 41be
00000050: 5f7d ec3c b94d 36bd 6da2 453e 6930 01be
00000060: 1899 01be 0a68 81bd 79d4 d3bd d3a6 ae3d
00000070: 33ac 033f eea4 1abe d87f 67bc 2db6 32be
00000080: c9fd a9bd 62ca 633e d0f0 a6bd 1d19 413e
00000090: 7c13 f83d 753a 063e 7c97 383d be45 0f3f
000000a0: 7d6e 583e a60d ba3e 2b75 a13e 58a1 b13d
000000b0: 5920 93be 2297 65bc 3d2b b13d c9d6 783e
000000c0: 8f1a 03be 0b98 0a3e 6a93 213d f8a2 723e
000000d0: 86ff 17be 9be7 e33c e817 1c3e a2cb 633e
000000e0: 0846 56bd e552 eabd 6827 723e e9c7 813e
000000f0: 7354 a9be da3a b63d 0fef 433e 7980 7a3e

weight f4 [256, 64]
-0.22381993 0.2105189 0.011989552 -0.053425454 -0.05402362 0.17554799 0.13763742 0.30593103
0.072030425 0.22255982 0.098980404 0.08640586 0.10179209 0.10905765 0.0767583 0.06904864
-0.40634984 -0.059702054 0.11045985 -0.12711345 0.16358326 0.09567898 -0.19980603 0.257737
0.07941175 0.33968636 -0.018711818 0.03127219 -0.029172072 0.0863002 -0.3380858 -0.04193402
-0.20089963 -0.09126166 0.4223317 0.20695966 0.15593018 -0.31852683 0.05005412 -0.13846338
-0.04801453 -0.565623 -0.06995449 0.037648022 0.2439744 -0.11565553 -0.00032233034 -0.07056791
0.23563436 -0.106664196 0.29666266 -0.1500197 0.16470593 0.07260877 0.05617371 -0.1305556
0.13521424 0.19150516 -0.12395868 -0.74241084 0.16925558 -0.40682206 -0.32308728 -0.10663773
-0.019944062 -0.039031524 -0.10918403 0.11392933 -0.05585611 0.04521576 0.010134352 -0.03437723
-0.15062046 0.073743366 -0.013878002 0.09072918 0.080848806 -0.0062930454 -0.035174202 0.030399933
0.04260688 0.020781659 0.025406357 -0.08181733 0.006700627 -0.11037379 0.103843264 -0.0024023335
-0.047814906 -0.004031242 -0.1151076 0.032445695 0.033589687 0.03125321 -0.087511085 -0.0640061
-0.12752417 0.0021433753 0.0071001975 -0.022056405 0.023931157 -0.02823946 0.02040545 0.12631053
-0.010298461 0.040002372 0.079705484 0.03596167 0.051723354 -0.049449258 -0.005222077 0.10612297
-0.04740206 -0.016552793 0.02740124 0.054317936 0.032839704 0.12595172 -0.09581134 0.04150356
0.011368547 -0.01629194 -0.008427415 -0.07990294 0.075123385 -0.065940924 -0.052451037 0.0627937
0.38057867 -0.056455307 0.060655404 0.014547498 -0.14543454 0.29253653 0.22072987 0.019325132
0.023294361 -0.013681173 0.063339666 -0.016329635 0.35914716 0.11792667 0.082630485 0.054396525
0.04910534 -0.20984702 -0.025528802 -0.22410564 0.036532693 0.30085596 0.1351448 -0.18088023
-0.014846911 0.19983208 0.025066476 0.07351911 -2.8165232e-06 0.08409799 0.07768995 -0.09160323
-0.03402531 -0.10248905 0.17697485 -0.041682985 0.33797985 -0.07122523 0.0913072 0.06639765
-0.073617965 -0.22236064 0.015128736 -0.15633844 0.06649802 -0.28895035 0.055228606 -0.05180909
0.13446707 -0.09291606 0.025859049 -0.097125605 0.010995493 0.012287385 0.03321378 -0.15005189
0.074312754 -0.14869146 0.118488 0.12715343 0.036009617 -0.72866446 -0.31986356 -0.044484284
-0.033661522 0.0062244246 0.0050355056 0.021734396 -0.027090661 0.007260131 0.05481095 0.036601417
-0.021576945 0.023266712 0.007044473 0.06889517 0.0029566793 -0.032605372 0.0019005599 0.0687251
-0.068232596 -0.024803136 0.009712604 0.06602127 0.06751098 -0.07762656 0.015226544 -0.00040622038
0.012766785 -0.01726132 0.0040212222 0.010163227 0.025360126 -0.03612096 0.039763436 -0.10452794
-0.02429922 0.021830475 -0.015050019 -0.020675456 0.062326312 0.026513077 -0.0063877604 -0.020668246
-0.008072051 -0.022133876 0.0043686354 -0.012439679 0.07662406 -0.04820451 0.04252863 -0.0035645226
-0.0163939 -0.08606597 0.041964985 0.006411391 0.03002832 -0.03263363 -0.013070262 -0.017888267
0.053456556 0.056309458 -0.005020836 -0.0134857055 0.071481235 -0.083168104 -0.02486522 0.01991083
00000000: 0d31 65be 4492 573e d36f 443c a6d4 5abd
00000010: df47 5dbd dac2 333e d3f0 0c3e fea2 9c3e
00000020: b084 933d b9e6 633e 3db6 ca3d 8ef5 b03d
00000030: 5f78 d03d 9e59 df3d 7533 9d3d 6069 8d3d
00000040: 160d d0be 248a 74bd c638 e23d 072a 02be
00000050: 5f82 273e 57f3 c33d f499 4cbe 1bf6 833e
00000060: a1a2 a23d 5feb ad3e 8749 99bc 4517 003d
00000070: 45fa eebc 29be b03d 9519 adbe 02c3 2bbd
00000080: a2b8 4dbe 65e7 babd dc3b d83e 3ced 533e
00000090: 29ac 1f3e f315 a3be 8d05 4d3d 58c9 0dbe
000000a0: e2aa 44bd abcc 10bf 4d44 8fbd d034 1a3d
000000b0: 6dd4 793e cedc ecbd 72fe a8b9 e985 90bd
000000c0: 224a 713e c272 dabd 2be4 973e c49e 19be
000000d0: aca8 283e e8b3 943d 6716 663d 5eb0 05be
000000e0: 9a75 0a3e ee19 443e 0cde fdbd a30e 3ebf
000000f0: 5651 2d3e fb4a d0be b26b a5be e264 dabd
00000100: bb61 a3bc 85df 1fbd e09b dfbd c853 e93d
00000110: 60c9 64bd 2934 393d 8e0a 263c 23cf 0cbd
00000120: 403c 1abe c306 973d 8f60 63bc 38d0 b93d
00000130: 0f94 a53d e435 cebb d312 10bd 4809 f93c
00000140: 8d84 2e3d 4c3e aa3c fe20 d03c d88f a7bd
00000150: ef90 db3b a70b e2bd c7ab d43d 7870 1dbb
00000160: 90d9 43bd 8218 84bb 89bd ebbd c7e5 043d
00000170: 5795 093d 5e03 003d 0339 b3bd a115 83bd
00000180: b295 02be df77 0c3b c6a8 e83b a2af b4bc
00000190: 460b c43c 7156 e7bc 5529 a73c 8c57 013e
000001a0: e0ba 28bc 87d9 233d a13c a33d 8b4c 133d
000001b0: dedb 533d 4e8b 4abd f51d abbb 0057 d93d
000001c0: aa28 42bd b999 87bc 9178 e03c 7c7c 5e3d
000001d0: ed82 063d 7df9 003e bc38 c4bd a3ff 293d
000001e0: 2443 3a3c ad76 85bc 2413 0abc 27a4 a3bd
000001f0: 4ada 993d 090c 87bd e6d6 56bd fc99 803d
00000200: 35db c23e ae3d 67bd cd71 783d a158 6e3c
00000210: cbec 14be 59c7 953e 0307 623e bd4f 9e3c
00000220: d1d3 be3c 0027 60bc 3ab8 813d bac5 85bc
00000230: 23e2 b73e 8a83 f13d 2c3a a93d e4ce 5e3d
00000240: ae22 493d 23e2 56be c721 d1bc f37b 65be
00000250: 4ea3 153d cb09 9a3e 6663 0a3e ab38 39be
00000260: 7540 73bc c8a0 4c3e 3658 cd3c 3091 963d
00000270: 8003 3db6 913b ac3d e91b 9f3d 799a bbbd
00000280: 205e 0bbd c7e5 d1bd e538 353e c7bb 2abd
00000290: b20b ad3e 89de 91bd 45ff ba3d 7efb 873d
000002a0: 04c5 96bd 82b2 63be 85de 773c 2f17 20be
000002b0: 1d30 883d 4df1 93be 6437 623d c535 54bd
000002c0: bcb1 093e c64a bebd 5bd6 d33c cae9 c6bd
000002d0: 7126 343c 0751 493c 2c0b 083d 34a7 19be
000002e0: 4931 983d 9342 18be d6a9 f23d 8234 023e
000002f0: d27e 133d c189 3abf 28c5 a3be 2735 36bd
00000300: aae0 09bd 42f6 cb3b e200 a53b 550c b23c
00000310: 3ced ddbc 65e6 ed3b 7281 603d 5eeb 153d
00000320: 22c2 b0bc d599 be3c 53d5 e63b e918 8d3d
00000330: d9c4 413b 368d 05bd 351c f93a bfbf 8c3d
00000340: 88bd 8bbd f22f cbbc 9d21 1f3c 2936 873d
00000350: 3243 8a3d adfa 9ebd c178 793c faf9 d4b9
00000360: c72b 513c 9d67 8dbc 75c4 833b aa83 263c
00000370: 0ac0 cf3c 92f3 13bd fcde 223d bf12 d6bd
00000380: 280f c7bc d3d5 b23c 5b94 76bc 935f a9bc
00000390: e049 7f3d f431 d93c 6b50 d1bb 7450 a9bc
000003a0: a340 04bc 1a52 b5bc c526 8f3b cccf 4bbc
000003b0: 13ed 9c3d 1872 45bd 8032 2e3d c49a 69bb
000003c0: 804c 86bc 5b43 b0bd 7ae3 2b3d a516 d23b
000003d0: f4fd f53c d7aa 05bd a724 56bc 6a8a 92bc
000003e0: 43f5 5a3d bfa4 663d d385 a4bb 26f3 5cbc
000003f0: c164 923d 0a54 aabd 25b2 cbbc 091c a33c

bias f4 [256]
-0.07999616 -0.07744591 -0.13410833 -0.09723467 -0.1276144 -0.23042454 -0.13677654 -0.100751504
-0.0007963364 -0.14924288 -0.16039217 -0.096753806 -0.048968825 -0.16095123 -0.08755347 -0.25807792
-0.10676183 -0.0826878 -0.10002148 -0.10480688 -0.10856927 -0.20590249 -0.03984334 -0.125286
-0.10306272 -0.11585126 -0.12341006 -0.19386396 -0.00032979005 -0.016966648 -0.20666485 -0.042432066
-0.10917489 -0.017364588 -0.16697437 5.5665987e-05 -0.1427085 -0.042626545 0.018609745 0.012799345
-0.21881372 -0.23868427 -0.12935887 -0.27362543 -0.0004690234 -0.15723526 -0.17354926 -0.14771043
-0.061792787 -0.08294663 -0.140605 -0.09071721 -0.2586656 -0.03333486 -0.114575416 -0.10312001
-0.2715336 -0.062592775 -0.048248988 -0.13019 -0.07043181 -0.0032355469 -0.020750822 -0.0869344
-0.19195946 -0.040707693 -0.2172886 -0.17942354 -0.26778337 -0.07960514 -0.08519546 -0.06764842
-0.0759131 -0.13426378 -0.095267795 -0.20560436 -0.12328348 -0.102028206 -0.11123354 -0.27272764
-0.07835452 -0.30043992 -0.18410657 -0.10172967 -0.11569481 -0.121046506 -0.13885681 -0.010950833
-0.031378713 -0.16160409 -0.11066215 -0.121770136 -0.18157387 -3.177137e-05 -5.2316776e-05 -0.0050381445
-0.2238457 -0.19899105 -0.14763191 -0.17552064 -0.18734649 -0.08731198 -0.20302333 -0.08145409
-0.10431703 -0.12685022 0.015898366 -0.1228914 -0.054188944 -0.15577003 -0.015796596 -0.14084868
-0.029858653 -0.13118277 -0.1127108 0.026159083 0.0053860936 -0.082074635 -0.256015 -0.15340309
-0.12885383 -0.13809986 -0.12721038 -0.12300314 -0.1231885 -0.18351163 0.0057645827 -0.09232253
-0.15267684 -0.1728048 -0.1662153 -0.02600284 -0.2234935 -0.004834965 -0.05323566 -0.003887613
-0.13419083 -0.066349015 -0.105410144 -0.081179336 -0.07234343 -0.057937328 -0.08856184 -0.16067922
-0.16699515 -0.108502865 -0.0018678239 -0.12577735 -0.0479192 -0.17318945 -0.22589059 -0.14752363
-0.09641677 -0.083765574 -0.1784581 -0.07265496 -0.10632392 -0.051590454 -0.06910905 -0.12273716
-0.08576364 -0.06615651 -0.07477455 -0.09627451 -0.19249068 -0.25831756 -0.16675043 -0.27625188
-0.011026882 -0.15666223 -0.03738899 -0.08028448 -0.010971128 -0.108220115 -0.093379684 -0.11228315
-0.2304845 -0.10806576 -0.12273251 -0.13417268 -0.075703226 -0.08979606 -0.13026932 -0.12768735
-0.17041618 -0.10627728 -0.15569933 -0.14341322 -0.06361763 -0.14629677 -0.07318593 -0.1212135
-0.04783946 -0.020806871 -0.0456802 -0.04352889 -0.061801687 -0.14624356 0.0020621412 -0.061302643
-0.07244563 -0.17152213 -0.12523293 -0.10988984 -0.2393579 -0.06677792 -0.04393616 -0.22513567
-0.047326956 -0.0122347735 -0.035145465 -0.11816619 0.021541726 -0.17023008 -0.13709994 0.013629596
-0.04321545 -0.054148663 -0.047392692 -0.04439488 -0.22247003 -0.116332114 -0.13826624 -0.068501785
-0.16497622 -0.03835568 -0.13618752 -0.16006324 -0.16555293 -0.18994297 -0.15693825 -0.15227005
-0.07196167 -0.25977305 -0.14073774 -0.1477768 -0.21681063 -0.08327938 -0.19621755 -0.09224571
-0.10349976 -0.17683704 -0.065377854 -0.037498835 -0.0043520806 -0.21179532 -0.0025562567 -0.06931129
-0.14577675 -0.17134048 -0.26934576 -0.22748494 -0.14381002 -0.27569342 -0.018006625 -0.19445997
00000000: 07d5 a3bd f69b 9ebd b253 09be f822 c7bd
00000010: 59ad 02be 69f4 6bbe 260f 0cbe ce56 cebd
00000020: 3bc1 50ba 20d3 18be d83d 24be dc26 c6bd
00000030: 8993 48bd 66d0 24be 3c4f b3bd ca22 84be
00000040: f2a5 dabd 3958 a9bd 10d8 ccbd fda4 d6bd
00000050: 9159 debd 1ad8 52be c532 23bd f94a 00be
00000060: 8c12 d3bd 6d43 edbd 6abe fcbd 4684 46be
00000070: ace7 acb9 a4fd 8abc f39f 53be 3fcd 2dbd
00000080: 1697 dfbd 2e40 8ebc 54fb 2abe e67a 6938
00000090: 2d22 12be 2c99 2ebd 7773 983c 58b4 513c
000000a0: b410 60be a669 74be a776 04be a218 8cbe
000000b0: 41e7 f5b9 4802 21be e6b6 31be 6741 17be
000000c0: 6f1a 7dbd ecdf a9bd c2fa 0fbe f2c9 b9bd
000000d0: d16f 84be 228a 08bd 84a6 eabd 9530 d3bd
000000e0: 7406 8bbe a430 80bd bba0 45bd 8750 05be
000000f0: 8e3e 90bd 780b 54bb a1fd a9bc aa0a b2bd
00000100: 0591 44be 1cbd 26bd e780 5ebe ceba 37be
00000110: e71a 89be 0508 a3bd f57a aebd 418b 8abd
00000120: 5478 9bbd 727c 09be c31b c3bd f389 52be
00000130: 0d7c fcbd 2af4 d0bd 69ce e3bd f5a2 8bbe
00000140: 5678 a0bd 43d3 99be 6f86 3cbe a557 d0bd
00000150: 67f1 ecbd 3be7 f7bd 7b30 0ebe 1f6b 33bc
00000160: f786 00bd 8b7b 25be d6a2 e2bd 9f62 f9bd
00000170: 80ee 39be 4042 05b8 b66e 5bb8 0517 a5bb
00000180: cf37 65be 4fc4 4bbe d22c 17be afbb 33be
00000190: c2d7 3fbe a0d0 b2bd 59e5 4fbe 67d1 a6bd
000001a0: 2ba4 d5bd 06e5 01be 4a3d 823c 7cae fbbd
000001b0: 3af5 5dbd 2e82 1fbe dd67 81bc a33a 10be
000001c0: 229a f4bc c754 06be ebd4 e6bd 934b d63c
000001d0: d47d b03b bf16 a8bd 6614 83be b315 1dbe
000001e0: 42f2 03be 0d6a 0dbe 7043 02be 12e9 fbbd
000001f0: 414a fcbd 79ea 3bbe d3e4 bc3b 9813 bdbd
00000200: 5157 1cbe bef3 30be 5834 2abe e803 d5bc
00000210: 7bdb 64be a06e 9ebb a30d 5abd 53c7 7ebb
00000220: 5269 09be fee1 87bd 46e1 d7bd 5a41 a6bd
00000230: cb28 94bd b14f 6dbd e95f b5bd 1889 24be
00000240: c700 2bbe c036 debd c5d1 f4ba c7cb 00be
00000250: ec46 44bd 9358 31be dd4f 67be 6f10 17be
00000260: 2876 c5bd 498d abbd b8bd 36be 20cc 94bd
00000270: 5bc0 d9bd 8350 53bd 0c89 8dbd 9f5d fbbd
00000280: d9a4 afbd 107d 87bd 6623 99bd 922b c5bd
00000290: 471c 45be 3342 84be a0c0 2abe e370 8dbe
000002a0: 18aa 34bc 106c 20be 3325 19bd 306c a4bd
000002b0: 3fc0 33bc 82a2 ddbd d93d bfbd b5f4 e5bd
000002c0: 2104 6cbe 9551 ddbd 2f5b fbbd 9064 09be
000002d0: 4b0a 9bbd ffe6 b7bd 5265 05be 79c0 02be
000002e0: 9481 2ebe e7a7 d9bd a56f 1fbe eada 12be
000002f0: f649 82bd d2ce 15be 81e2 95bd c93e f8bd
00000300: 4ff3 43bd 2c73 aabc 291b 3bbd 594b 32bd
00000310: c423 7dbd dfc0 15be fd24 073b 7b18 7bbd
00000320: 605e 94bd 7fa3 2fbe 103d 00be ed0d e1bd
00000330: 3d1a 75be ddc2 88bd 67f6 33bd f789 66be
00000340: e9d9 41bd 5c74 48bc b1f4 0fbd 1e01 f2bd
00000350: 4678 b03c cb50 2ebe ed63 0cbe ab4e 5f3c
00000360: af02 31bd fdca 5dbd d71e 42bd 68d7 35bd
00000370: 2fcf 63be 883f eebd aa95 0dbe aa4a 8cbd
00000380: 87ef 28be d81a 1dbd be74 0bbe 9ee7 23be
00000390: b586 29be 6980 42be 6cb4 20be aeec 1bbe
000003a0: a460 93bd f900 85be 8e1d 10be cd52 17be
000003b0: 9b03 5ebe 618e aabd 41ed 48be 52eb bcbd
000003c0: aff7 d3bd c514 35be d3e4 85bd 6198 19bd
000003d0: e69b 8ebb dfe0 58be df86 27bb 14f3 8dbd
000003e0: 8046 15be e173 2fbe b0e7 89be d0f1 68be
000003f0: ef42 13be b027 8dbe a182 93bc 8420 47be
