xrdtrans_5.pt (torch, 458530 bytes, 31 tensors)

weight f4 [64, 21]
00000000: b738 cdbc 9e08 af3c 4748 9dbd f6f6 9dbd
00000010: b99f 48be 1fb6 5d3c ef63 153e 64d8 2abe
00000020: c85c 27be 9e9e efbc 38de c23d 63ac 7d3d
00000030: 004b 8ebd 5db3 cd3c 4f5e 3abd 786d 1cbc
00000040: 130b a93c 958e 1b3d 3cee afbc 5bfa 163c
00000050: 48c0 5d3d a179 d5bd 7934 bc3c 2600 413e
00000060: 154f 0abe c6a0 193e bb21 a8bd f259 683d
00000070: 2842 7c3b de17 b3bd cc5e ec3d 19cf 01bd
00000080: efac 7fbe 5ab9 213f 0b60 873d a396 5f3e
00000090: faba b03e ca2e 323e 3441 ce3e 83c4 6b3d
000000a0: c203 d83d 49c8 a6bd 9ffc 33be 8346 193e
000000b0: a3e6 2ebe 5be9 583d b7bf c8bd 4ff0 d7bc
000000c0: ec56 843e ca14 0cbe 53e5 8b82 e08f 8402
000000d0: fd52 aabe 14e8 8f3e 71e3 533e 3de9 203e
000000e0: 0dca d13d 4bc9 0cbc c255 b6bd 9e67 43bb
000000f0: 3f35 f882 912d 8082 beee 07be 0dbf 25be
00000100: 8793 3c3e fc94 62be ad37 be3d e3c4 8f3d
00000110: 8847 0ebd 89dd c53d 096d 273c 0636 043e
00000120: b6a5 58be 94ed d3be 7a97 bfbd 56ac e8be
00000130: 7bb7 163e 4682 e33c f9ee 953e a81e 85bd
00000140: 8971 743e ec88 5e3e c4f2 0b3d d31b 033e
00000150: 2c9c 75be 2bd1 153e 65a6 fc3d 9627 de3d
00000160: 8fd4 eebb 2637 aa3d 89dd 143e e954 11be
00000170: 9d79 cf3d c245 32be 5bd3 e43e 03b1 abbc
00000180: 7c02 f73e 3f90 1cbe 3dbc 13bf acd4 ba3d
00000190: b69d 333f d4a1 143f 3782 883e 65cc 453e
000001a0: c54a 84bd b16f c03d 7785 21bd b45a 073e
000001b0: 0271 0d3e 0efe 59be 6f04 ab3d 5c41 253d
000001c0: c722 e63d 9f51 873d 4aee 1dbe 0145 2bbf
000001d0: b2c8 3ebe 82cb 15bf b90f 203d 57e7 42be
000001e0: 07dc 4ebe 0f47 00bc dc4c 90be f7cc 963a
000001f0: 2d58 ae3c 899a a3bd 2f30 503d 670e c4bd
00000200: d6cc 8fbd cfee 933d 28d2 73be c718 42be
00000210: 4b6a 413e 5390 be3c 1e9f 1d3e 3c47 b93d
00000220: 3cc5 e1bd 5454 6b3e 05c4 003e 7ebf e2bd
00000230: df89 99bd 9b33 8fbe fa4d d5bc 6f58 ab3e
00000240: 1957 743e d4b5 aa3d e05e 34bd b1b5 633e
00000250: 512f cfbb b8ef f8bd 63c4 ca3d e9b5 bf3d
00000260: 4c78 b7bd 3a78 2e3d b046 b03a edb3 63bb
00000270: 73e6 2abd 879c 633e 1017 2cbf b9b6 74be
00000280: b0f8 b8bd 4e30 813e cdb8 39be 22a9 c5be
00000290: 4647 01bf aa25 87be eaf2 8abe c822 ecbd
000002a0: c6bd 2fbe e7a5 80bd 586d f5bd 8d6a 603e
000002b0: 6866 17be 8fad b13d 6f4c 83bd bf6e f63c
000002c0: b9bd 7cbd 745c 11be d426 0dbc 5048 0a3e
000002d0: ab6a 02be f5f7 093e e91b 9c3d 0c69 66bc
000002e0: 2727 083e cdba 083e 0147 4e3e 5a25 adbc
000002f0: c3fe c53d 5cb6 813e 3f02 f3bc 1a32 6e3d
00000300: 5690 a13c c89d 80bd 7eea fbbd 860d 373d
00000310: 6a1e 17bc 2904 153e fafc 4dbd 59b8 d0bd
00000320: 58a0 ddbe 8f5e 60be 559d 9f3e 1b8a 0fbc
00000330: c1d9 03be 3dc5 06bf e841 efbe 6638 08bf
00000340: 5c5d 87be b465 bdbc 7b3d ae3d 8e6c aebd
00000350: 61a9 23be 1304 06be 0c8d 633e 30f1 983d
00000360: c86a 5bbe 9acc 1fbe 01fa f13d aa26 533e
00000370: 7c13 083e 2638 25be cf3b ba3e 65b7 a73d
00000380: da37 17bd 5082 1e3e e86b db3d a6d1 823e
00000390: cc55 9b3e 5e48 5d3e 6848 2ebc 8b30 7bbe
000003a0: 2e52 48bd eb60 b73d 985a 1b3d 030c 8c3e
000003b0: 4fee debd adaa c2bd 4a83 0b3c 18c7 073c
000003c0: e8fc 3ebd 9654 1ebe bcf8 bf3d 00b5 823e
000003d0: 98e7 913d 3b46 78bc ef5e acbd f62a 85bd
000003e0: 2b5a 3a3a 4a91 21bd 42ef aebb 2bc6 23be
000003f0: f6a3 f43d 17a0 40be 3efb 963d ab70 33be
-0.025051458 0.021366414 -0.076798014 -0.0771312 -0.1959218 0.013532191 0.14588903 -0.16684109
-0.16343987 -0.02925044 0.09515041 0.06193198 -0.06947899 0.025109941 -0.045500096 -0.009547584
0.020635163 0.037977774 -0.021475904 0.009214963 0.05413845 -0.104235895 0.02297424 0.18847713
-0.1350673 0.15002736 -0.082095586 0.056726404 0.003849158 -0.08744787 0.115415186 -0.031691644
-0.24968313 0.6317345 0.066101156 0.21834807 0.34517652 0.17400661 0.4028412 0.057560455
0.10547592 -0.0814367 -0.17576836 0.14968304 -0.17080168 0.05295692 -0.09802192 -0.026359705
0.25847566 -0.13679805 -2.055584e-37 1.9478237e-37 -0.3326644 0.2810675 0.20692231 0.15713973
0.10243616 -0.008592914 -0.08903076 -0.00298164 -3.6470887e-37 -1.8834063e-37 -0.13274667 -0.16186161
0.18415652 -0.22127146 0.09287963 0.07019975 -0.034736186 0.09661395 0.010218867 0.12911233
-0.21156964 -0.41392195 -0.09355064 -0.45443982 0.1471843 0.02777208 0.29283884 -0.06499988
0.23871435 0.21731919 0.034167066 0.12803583 -0.23985356 0.14630572 0.12336425 0.10847394
-0.0072885226 0.083113 0.14537634 -0.14192547 0.10130618 -0.17409423 0.446925 -0.02095843
0.48244083 -0.152894 -0.57709104 0.09122595 0.7016252 0.5805943 0.26661846 0.19316252
-0.06459574 0.093963034 -0.039433923 0.13218194 0.1381264 -0.2128832 0.08350455 0.040345535
0.11237102 0.06607365 -0.15422931 -0.66902167 -0.18631247 -0.58513653 0.039077494 -0.19033562
-0.20201121 -0.007829442 -0.2818364 0.0011505176 0.02128228 -0.079884596 0.0508272 -0.095730595
-0.07021491 0.072232835 -0.23810637 -0.18954764 0.18888204 0.023262179 0.1539273 0.0904679
-0.110239476 0.22981387 0.12574776 -0.110716805 -0.07497 -0.2796906 -0.026038159 0.33465907
0.2386135 0.08335462 -0.044035792 0.22237279 -0.006322779 -0.12155098 0.09900739 0.093608685
-0.08958492 0.042595126 0.0013448801 -0.0034744695 -0.04172368 0.22227679 -0.6722269 -0.23897828
-0.090318084 0.25232166 -0.18136902 -0.386056 -0.5049938 -0.26395923 -0.27138454 -0.115300715
-0.17162237 -0.06281643 -0.11983746 0.21915646 -0.14785159 0.08675682 -0.06411063 0.030082105
-0.06170437 -0.14195424 -0.008615214 0.13504148 -0.12736003 0.13473494 0.07622511 -0.014063131
0.13296185 0.13352509 0.20144273 -0.021135975 0.096677326 0.25334442 -0.029664157 0.05815325
0.019722145 -0.062800944 -0.12300585 0.04469063 -0.00922356 0.14552368 -0.050290085 -0.101914115
-0.43286395 -0.21911071 0.31174722 -0.008760954 -0.12876035 -0.5264471 -0.4672997 -0.5321106
-0.26438415 -0.023119785 0.0850782 -0.08516799 -0.15982582 -0.13087492 0.22221774 0.07467878
-0.21427453 -0.15605393 0.118152626 0.20620218 0.13288683 -0.161347 0.36373755 0.081892766
-0.0369185 0.15479398 0.10713941 0.25550574 0.30338895 0.21609637 -0.01063738 -0.24530236
-0.048906498 0.089540325 0.037928194 0.27352914 -0.108852975 -0.0950521 0.0085151885 0.008287214
-0.04662791 -0.15461954 0.09373614 0.25528717 0.07124251 -0.015153463 -0.08416545 -0.06502335
0.0007108773 -0.0394452 -0.0053385803 -0.15993564 0.119453356 -0.1881107 0.073721394 -0.17523448

bias f4 [64]
00000000: afa2 103d 2614 173e 714c c83d 7dfb 8ebd
00000010: 3048 76be 802b d3bd e639 2fbc 7ad1 05be
00000020: 8f92 773d e078 e4bd 28cd 173e 0a0f 2cbe
00000030: 45ff d8bd 8a3d a53d 2a0b cebc 33c0 69be
00000040: fe72 6c3d 65bc 5b3d 2379 313e 3107 43bb
00000050: 54bc cd3c fd3c 11bd af09 383e 0fd8 14be
00000060: a1c4 afbd 3069 553d bd3c e9ba b30f bfbb
00000070: 2003 aebc 3369 32be ac69 6abd f36b 8ebd
00000080: d294 e8bd d384 22be e013 ce3d f3c9 033e
00000090: d58b 66be 1160 20bc f2fd 9abc 2037 af3b
000000a0: ade2 6ebc ce64 afba 9ae2 ac02 e3ea 433e
000000b0: 964b c23c 8e7a 3fbd 5910 23be 61aa 2b3e
000000c0: 1851 02be 0eb4 433e c8b8 e53d be45 fd3c
000000d0: 2224 ef3c b3a2 fe3d c47b 09be 105b 47be
000000e0: 04c5 a6bd 7ede 343e 6dde 8f3c c04e eabc
000000f0: 16f7 2a3d e575 06bd 9e8a 8b3c 23ea 163e
0.035311397 0.1475378 0.09780205 -0.06981561 -0.24050975 -0.10311031 -0.010694956 -0.1306819
0.060442504 -0.111558676 0.14824355 -0.16802612 -0.10595564 0.08068378 -0.025151808 -0.22827224
0.057726853 0.053646464 0.17331366 -0.0029758925 0.025114216 -0.035458554 0.17972444 -0.14535545
-0.08582426 0.052102268 -0.0017794591 -0.005830729 -0.021241724 -0.17422943 -0.057229683 -0.069541834
-0.1135651 -0.15870981 0.100623846 0.12870006 -0.22514279 -0.009788529 -0.018919919 0.0053471476
-0.014580411 -0.0013381483 2.5403191e-37 0.19132571 0.023717683 -0.046747737 -0.15924205 0.16764213
-0.12726247 0.19111654 0.11216885 0.030917045 0.029192034 0.12433376 -0.13426119 -0.19468331
-0.081430465 0.17662999 0.017562116 -0.028602004 0.041739546 -0.032827277 0.017033871 0.14737754

pe f4 [100, 64]
00000000: 0000 0000 0000 803f 0000 0000 0000 803f
00000010: 0000 0000 0000 803f 0000 0000 0000 803f
00000020: 0000 0000 0000 803f 0000 0000 0000 803f
00000030: 0000 0000 0000 803f 0000 0000 0000 803f
00000040: 0000 0000 0000 803f 0000 0000 0000 803f
00000050: 0000 0000 0000 803f 0000 0000 0000 803f
00000060: 0000 0000 0000 803f 0000 0000 0000 803f
00000070: 0000 0000 0000 803f 0000 0000 0000 803f
00000080: 0000 0000 0000 803f 0000 0000 0000 803f
00000090: 0000 0000 0000 803f 0000 0000 0000 803f
000000a0: 0000 0000 0000 803f 0000 0000 0000 803f
000000b0: 0000 0000 0000 803f 0000 0000 0000 803f
000000c0: 0000 0000 0000 803f 0000 0000 0000 803f
000000d0: 0000 0000 0000 803f 0000 0000 0000 803f
000000e0: 0000 0000 0000 803f 0000 0000 0000 803f
000000f0: 0000 0000 0000 803f 0000 0000 0000 803f
00000100: a46a 573f 4151 0a3f ce7a 2e3f b054 3b3f
00000110: ba7d 083f 0e94 583f f090 d13e c792 693f
00000120: 3e39 9f3e 6b4e 733f 258f 703e f1d5 783f
00000130: 3a23 353e 83f6 7b3f f325 083e 28ba 7d3f
00000140: 7675 cc3d 98b8 7e3f 366f 993d d147 7f3f
00000150: ae36 663d 6898 7f3f fbac 2c3d bdc5 7f3f
00000160: 5b81 013d 3cdf 7f3f a53e c23c 93ed 7f3f
00000170: 43ab 913c a3f5 7f3f 497a 5a3c 2cfa 7f3f
00000180: 57d6 233c b9fc 7f3f 16b9 f53b 28fe 7f3f
00000190: 5a44 b83b f7fe 7f3f 5a2e 8a3b 6bff 7f3f
000001a0: 1c3e 4f3b acff 7f3f 0469 1b3b d1ff 7f3f
000001b0: 2015 e93a e6ff 7f3f 8bc9 ae3a f1ff 7f3f
000001c0: 6d12 833a f8ff 7f3f 8994 443a fbff 7f3f
000001d0: 136a 133a feff 7f3f 2217 dd39 ffff 7f3f
000001e0: 60cb a539 ffff 7f3f 0da8 7839 0000 803f
000001f0: 5377 3a39 0000 803f 6dd4 0b39 0000 803f
00000200: b7c7 683f 3311 d5be d95a 7f3f 534d 913d
00000210: 0af2 663f b2e8 dc3e 1135 3f3f 0339 2a3f
00000220: 1b54 173f ec7b 4e3f b5d3 e93e 69be 633f
00000230: f647 b23e a6fa 6f3f 82f0 863e f5f2 763f
00000240: f86f 4b3e a5e5 7a3f d300 193e 4f20 7d3f
00000250: 86d9 e53d f361 7e3f af85 ac3d 0e17 7f3f
00000260: c870 813d f97c 7f3f aa30 423d 4fb6 7f3f
00000270: 5da5 113d 8ed6 7f3f 5075 da3c b1e8 7f3f
00000280: 3ed4 a33c e5f2 7f3f 51b7 753c a1f8 7f3f
00000290: 9b43 383c dbfb 7f3f 0a2e 0a3c abfd 7f3f
000002a0: d83d cf3b b1fe 7f3f e868 9b3b 43ff 7f3f
000002b0: 0815 693b 96ff 7f3f 80c9 2e3b c4ff 7f3f
000002c0: 6812 033b dfff 7f3f 8594 c43a edff 7f3f
000002d0: 126a 933a f5ff 7f3f 2017 5d3a faff 7f3f
000002e0: 5fcb 253a fdff 7f3f 0ca8 f839 feff 7f3f
000002f0: 5377 ba39 ffff 7f3f 6dd4 8b39 0000 803f
00000300: c381 103e 2670 7dbf de3c 473f cebf 20bf
00000310: d745 7e3f ab7f edbd 6421 743f 6318 9a3e
00000320: c209 503f 582f 153f b724 273f a2e7 413f
00000330: 6c2f 023f 296d 5c3f a768 c73e 37c9 6b3f
00000340: 6c4e 973e ef90 743f e26d 643e 928c 793f
00000350: d7ee 2b3e 9e5d 7c3f 2c33 013e 43f4 7d3f
00000360: c0ff c13d 4fd9 7e3f 0693 913d 3a5a 7f3f
00000370: 4f69 5a3d c3a2 7f3f c5d1 233d 90cb 7f3f
00000380: 1fb9 f53c 83e2 7f3f 4747 b83c 6bef 7f3f
00000390: c631 8a3c adf6 7f3f 4644 4f3c c2fa 7f3f
000003a0: 0d6e 1b3c 0dfd 7f3f 141d e93b 58fe 7f3f
000003b0: a8cf ae3b 11ff 7f3f 1317 833b 7aff 7f3f
000003c0: 929b 443b b5ff 7f3f 606f 133b d6ff 7f3f
000003d0: 171f dd3a e8ff 7f3f 57d1 a53a f3ff 7f3f
000003e0: 0eb1 783a f9ff 7f3f 097e 3a3a fcff 7f3f
000003f0: 7ed9 0b3a feff 7f3f a4be d139 ffff 7f3f
0.0 1.0 0.0 1.0 0.0 1.0 0.0 1.0
0.0 1.0 0.0 1.0 0.0 1.0 0.0 1.0
0.0 1.0 0.0 1.0 0.0 1.0 0.0 1.0
0.0 1.0 0.0 1.0 0.0 1.0 0.0 1.0
0.0 1.0 0.0 1.0 0.0 1.0 0.0 1.0
0.0 1.0 0.0 1.0 0.0 1.0 0.0 1.0
0.0 1.0 0.0 1.0 0.0 1.0 0.0 1.0
0.0 1.0 0.0 1.0 0.0 1.0 0.0 1.0
0.84147096 0.54030234 0.68156135 0.731761 0.53316844 0.84600914 0.4093089 0.9123959
0.3109836 0.9504153 0.23492105 0.9720145 0.17689219 0.9842302 0.13295726 0.99112177
0.099833414 0.9950042 0.07491915 0.9971896 0.05620449 0.9984193 0.042157155 0.999111
0.031617504 0.99950004 0.023711512 0.99971884 0.01778186 0.99984187 0.013334819 0.99991107
0.009999833 0.99995 0.0074988706 0.99997187 0.0056233825 0.9999842 0.0042169513 0.9999911
0.0031622713 0.999995 0.0023713717 0.9999972 0.0017782785 0.99999845 0.0013335211 0.9999991
0.0009999998 0.9999995 0.000749894 0.9999997 0.0005623411 0.9999999 0.0004216964 0.99999994
0.0003162278 0.99999994 0.00023713727 1.0 0.00017782794 1.0 0.00013335208 1.0
0.9092974 -0.41614684 0.99748 0.070948265 0.9021307 0.43146282 0.7469035 0.6649324
0.5911271 0.8065784 0.45669332 0.8896242 0.34820527 0.93741834 0.26355368 0.96464473
0.19866931 0.9800666 0.1494172 0.98877424 0.1122313 0.9936821 0.084239356 0.99644554
0.063203394 0.9980007 0.04740969 0.99887556 0.035558093 0.9993676 0.026667267 0.99964434
0.019998666 0.9998 0.014997319 0.9998875 0.011246587 0.99993676 0.008433828 0.9999644
0.006324511 0.99998003 0.0047427304 0.99998873 0.0035565514 0.9999937 0.0026670396 0.9999964
0.0019999985 0.99999803 0.0014997876 0.99999887 0.0011246821 0.99999934 0.0008433927 0.99999964
0.0006324555 0.9999998 0.0004742745 0.9999999 0.00035565588 0.99999994 0.00026670416 1.0
0.14112 -0.9899925 0.7782725 -0.6279267 0.9932532 -0.11596616 0.9536345 0.3009673
0.8126489 0.58275366 0.652904 0.7574407 0.5085361 0.86104065 0.3894703 0.92103904
0.2955202 0.9553365 0.22307542 0.9748012 0.16790329 0.9858035 0.12617177 0.9920084
0.094726086 0.99550337 0.071081206 0.9974705 0.053323086 0.9985773 0.039994974 0.99919987
0.0299955 0.99955004 0.022494925 0.999747 0.016869437 0.9998577 0.012650555 0.99992
0.009486687 0.999955 0.007114062 0.9999747 0.005334813 0.99998575 0.0040005534 0.999992
0.0029999954 0.9999955 0.0022496805 0.9999975 0.0016870227 0.99999857 0.0012650889 0.9999992
0.00094868324 0.9999996 0.00071141176 0.99999976 0.0005334838 0.9999999 0.00040005625 0.99999994

in_proj_weight f4 [192, 64]
00000000: 911b a382 1e62 cf01 6c06 1383 0c57 a382
00000010: e9a0 ab81 e6a3 9102 b7d6 9902 1c30 1e02
00000020: ff4f ff02 d71c 6982 6c00 b682 64f8 4602
00000030: 38dd 7682 a355 5502 910d 9282 950b 2682
00000040: 309b 8102 f030 8082 1fce 8502 d045 6f81
00000050: b20c 3303 5a87 8682 bbce 7d02 d888 fd82
00000060: e63f 8a02 6a86 9f01 ae2d 3682 fc95 0c80
00000070: e06f fa01 dc1e 4a00 8de2 b902 73b3 9002
00000080: 2281 2c02 2cab 8882 d0b1 8e02 6d5d 6d02
00000090: b2f1 2603 ace1 3900 b177 0703 40de 1382
000000a0: 3a2c 2803 16cb 4003 2abe 6502 46e4 2982
000000b0: 0ec5 3482 d169 5702 2044 8582 6db4 8802
000000c0: f65e 1902 4fa2 8d02 244e 9f82 f852 6d81
000000d0: d101 b982 7411 7a82 3c57 9d82 0cf1 1302
000000e0: f3a6 2a03 2114 8302 ecbf a280 4689 9302
000000f0: a5b9 5c02 06de 8c82 24c9 da82 cac4 fc02
00000100: 7e0f 8802 340c 9502 3ed9 cb01 b083 6702
00000110: ce27 3182 c679 5183 5809 8c00 f1a8 2182
00000120: c247 9b82 8e1c ff82 3ad0 7d82 16be 3402
00000130: 7ee7 2782 7618 1b02 f6b5 d382 c6eb cd82
00000140: ff28 3d81 5646 a782 fff3 9282 b272 d182
00000150: 0a5f ec02 6499 7582 bc23 3202 0c03 7482
00000160: b2f6 ec81 0fa8 5281 7591 8402 4c1f 8081
00000170: c201 8582 1671 a282 ee72 3983 1e4f d982
00000180: 8e7c af81 9094 9902 116e 9782 d25c 8582
00000190: 92a1 1e02 421c 5902 e27f 9b02 500a 1482
000001a0: e7ed 8f82 5cd3 3e82 df14 6e83 5236 8a82
000001b0: 6c3e 4082 2217 5d01 e25a 8a82 8c2f 2702
000001c0: 77e4 9382 b446 6303 c700 1302 c8a0 6d02
000001d0: e8bd 6902 8d09 5683 8621 a502 4635 7002
000001e0: 1a69 3782 2d5c 8b82 bb1b 7982 0a16 9b82
000001f0: ac5e b182 5e24 9b82 1ef8 5702 d39a 9802
00000200: 596c 5602 2fb8 8c82 a616 ba80 3a07 7e82
00000210: 1ce8 8e82 03ec 8302 cd44 9102 8063 5a83
00000220: 0bcc bf02 6596 ac82 214c 5b83 6254 d482
00000230: ae23 7e02 542c fd82 bac5 6d82 0433 c282
00000240: 8d4f 9d02 ce38 9102 0ead 5402 1757 9382
00000250: 3f8d 4802 d386 1a82 022c 8b82 ebf0 9302
00000260: 7d8f 9582 acb0 ee00 3467 2602 2ab8 b882
00000270: b86e 8f82 1592 9182 09fc 8282 55f8 5481
00000280: 29ea 8082 1e63 c002 2e84 3503 98a6 6383
00000290: 42fd 8e82 3006 9f82 795a 8902 4abd 6282
000002a0: a69b 3000 58d7 5c81 d04c 3c02 b428 8e02
000002b0: 100f 5c01 5cad 8602 3ead c682 3e0a d301
000002c0: d042 e781 7cf5 7102 81a2 0602 0b90 9082
000002d0: 60b5 fd82 fe14 6483 c7a4 2f83 5d1d 8382
000002e0: a12a 9482 0a4a 4683 1e75 5382 21ac af02
000002f0: db54 cf82 8a80 0282 46f7 e202 72cb de02
00000300: a257 8f02 c919 6582 2364 c102 542d 9d01
00000310: 0c20 8982 4ef9 9481 1918 8082 3c81 2a03
00000320: 1e73 8f82 f3ed 7882 94be 9182 aecb 3882
00000330: cb9a 6082 0aa8 2403 8569 c202 f02f 9602
00000340: 059d a782 7768 8282 d064 a681 1832 8f82
00000350: 26de ef02 7428 8a82 8e93 7402 284c 8e82
00000360: 6673 8d02 d5b6 b982 bae7 2782 5dcb 7b02
00000370: 9cb2 1b02 9aa6 3782 9af0 f602 ce9d 3a02
00000380: d223 b302 0fe3 9182 d883 5102 6e89 9102
00000390: 6acb 3202 1628 8b82 b18e 8582 6274 8082
000003a0: 14ae 2a02 a416 7782 c249 0382 d976 4882
000003b0: 5280 8e02 dee9 a382 fc8c 7402 a6f8 e802
000003c0: 5138 f682 b29f b300 eeb6 9082 904e f081
000003d0: 7622 d881 c1f1 c582 b8d8 cb82 60d0 8402
000003e0: c68e 7b02 220d 1402 40aa b782 5b71 6c02
000003f0: 5f64 4902 a384 6782 59ca 8b82 fcfc 3c02
-2.396652e-37 7.618058e-38 -4.320679e-37 -2.400066e-37 -6.3046374e-38 2.1399908e-37 2.260457e-37 1.1621813e-37
3.7514798e-37 -1.7126413e-37 -2.6742739e-37 1.4618027e-37 -1.8136712e-37 1.5673345e-37 -2.1460559e-37 -1.2199078e-37
1.904392e-37 -1.8835998e-37 1.9660901e-37 -4.3947455e-38 5.2617946e-37 -1.9767218e-37 1.8646833e-37 -3.7253553e-37
2.0313953e-37 5.860025e-38 -1.3384358e-37 -1.15583e-39 9.199603e-38 6.806897e-39 2.731334e-37 2.1261897e-37
1.2673624e-37 -2.0081652e-37 2.0967084e-37 1.7438822e-37 4.906047e-37 5.315579e-39 3.9810333e-37 -1.0863637e-37
4.9421532e-37 5.665686e-37 1.6878837e-37 -1.248167e-37 -1.3280863e-37 1.5826073e-37 -1.9581695e-37 2.0086963e-37
1.1267917e-37 2.0811248e-37 -2.34078e-37 -4.3589552e-38 -2.718435e-37 -1.8372108e-37 -2.3119147e-37 1.0869031e-37
5.015016e-37 1.9260273e-37 -1.4946199e-38 2.16785e-37 1.6216325e-37 -2.0698586e-37 -3.214767e-37 3.7141023e-37
1.9992296e-37 2.1900587e-37 7.488215e-38 1.7008992e-37 -1.301533e-37 -6.155937e-37 1.2860321e-38 -1.1876896e-37
-2.281639e-37 -3.7485272e-37 -1.8647263e-37 1.3278863e-37 -1.2335657e-37 1.1394621e-37 -3.1108104e-37 -3.025737e-37
-3.474323e-38 -2.4578815e-37 -2.1592819e-37 -3.0775622e-37 3.4731633e-37 -1.8043778e-37 1.308763e-37 -1.7927163e-37
-8.70467e-38 -3.8691485e-38 1.9479145e-37 -4.7064683e-38 -1.9543603e-37 -2.3868669e-37 -5.4498547e-37 -3.1930695e-37
-6.4463575e-38 2.25666e-37 -2.225063e-37 -1.959587e-37 1.1654375e-37 1.5950752e-37 2.2848604e-37 -1.0876282e-37
-2.114851e-37 -1.4019653e-37 -6.9965873e-37 -2.0308456e-37 -1.4123846e-37 4.0607886e-38 -2.0329442e-37 1.2282868e-37
-2.173084e-37 6.6790468e-37 1.0800077e-37 1.7458152e-37 1.7172637e-37 -6.289991e-37 2.4263812e-37 1.7647704e-37
-1.3474879e-37 -2.047712e-37 -1.8301589e-37 -2.2787853e-37 -2.6062152e-37 -2.2796077e-37 1.5866911e-37 2.2423257e-37
1.5753331e-37 -2.0676867e-37 -1.7089527e-38 -1.8663047e-37 -2.099825e-37 1.9384184e-37 2.1345325e-37 -6.4178663e-37
2.8182043e-37 -2.535945e-37 -6.4445707e-37 -3.1199034e-37 1.8671212e-37 -3.7200452e-37 -1.7468755e-37 -2.853502e-37
2.3114737e-37 2.133844e-37 1.5624964e-37 -2.1649696e-37 1.4734215e-37 -1.1352826e-37 -2.0449474e-37 2.1737989e-37
-2.197594e-37 2.1920226e-38 1.2225372e-37 -2.7142075e-37 -2.107551e-37 -2.1389682e-37 -1.9246444e-37 -3.911642e-38
-1.894231e-37 2.8268755e-37 5.3342854e-37 -6.6900545e-37 -2.1010388e-37 -2.3366502e-37 2.018227e-37 -1.6658181e-37
4.46394e-39 -4.056212e-38 1.3834103e-37 2.0888387e-37 4.0418425e-38 1.9789034e-37 -2.9192921e-37 7.7523856e-38
-8.495187e-38 1.7776334e-37 9.891402e-38 -2.1241575e-37 -3.7279113e-37 -6.7027276e-37 -5.1617033e-37 -1.9265574e-37
-2.1771113e-37 -5.8271963e-37 -1.5535443e-37 2.5812736e-37 -3.046462e-37 -9.58778e-38 3.3349643e-37 3.273674e-37
2.106226e-37 -1.6831663e-37 2.8416277e-37 5.7737734e-38 -2.0148735e-37 -5.472435e-38 -1.882174e-37 5.0106864e-37
-2.1078036e-37 -1.828845e-37 -2.1415222e-37 -1.3576638e-37 -1.6501344e-37 4.838817e-37 2.8566303e-37 2.2068034e-37
-2.462857e-37 -1.9161743e-37 -6.112343e-38 -2.1040714e-37 3.52454e-37 -2.0300497e-37 1.7968635e-37 -2.0908736e-37
2.0784323e-37 -2.7288247e-37 -1.2335725e-37 1.849893e-37 1.143886e-37 -1.3492529e-37 3.628455e-37 1.371041e-37
2.6322246e-37 -2.143616e-37 1.5392732e-37 2.1384716e-37 1.3135752e-37 -2.0447223e-37 -1.9624494e-37 -1.887471e-37
1.2539585e-37 -1.8153192e-37 -9.645527e-38 -1.4727787e-37 2.0938677e-37 -2.408493e-37 1.7966749e-37 3.4232053e-37
-3.6178775e-37 1.6495842e-38 -2.1263895e-37 -8.827481e-38 -7.939532e-38 -2.9085308e-37 -2.995256e-37 1.9515258e-37
1.8481542e-37 1.0877092e-37 -2.6987152e-37 1.7371073e-37 1.4795953e-37 -1.7009265e-37 -2.0540356e-37 1.3884662e-37

in_proj_bias f4 [192]
00000000: 0000 0000 0000 0000 0000 0000 0000 0000
00000010: 0000 0000 0000 0000 0000 0000 0000 0000
00000020: 0000 0000 0000 0000 0000 0000 0000 0000
00000030: 0000 0000 0000 0000 0000 0000 0000 0000
00000040: 0000 0000 0000 0000 0000 0000 0000 0000
00000050: 0000 0000 0000 0000 0000 0000 0000 0000
00000060: 0000 0000 0000 0000 0000 0000 0000 0000
00000070: 0000 0000 0000 0000 0000 0000 0000 0000
00000080: 0000 0000 0000 0000 0000 0000 0000 0000
00000090: 0000 0000 0000 0000 0000 0000 0000 0000
000000a0: 0000 0000 0000 0000 0000 0000 0000 0000
000000b0: 0000 0000 0000 0000 0000 0000 0000 0000
000000c0: 0000 0000 0000 0000 0000 0000 0000 0000
000000d0: 0000 0000 0000 0000 0000 0000 0000 0000
000000e0: 0000 0000 0000 0000 0000 0000 0000 0000
000000f0: 0000 0000 0000 0000 0000 0000 0000 0000
00000100: 0000 0000 0000 0000 0000 0000 0000 0000
00000110: 0000 0000 0000 0000 0000 0000 0000 0000
00000120: 0000 0000 0000 0000 0000 0000 0000 0000
00000130: 0000 0000 0000 0000 0000 0000 0000 0000
00000140: 0000 0000 0000 0000 0000 0000 0000 0000
00000150: 0000 0000 0000 0000 0000 0000 0000 0000
00000160: 0000 0000 0000 0000 0000 0000 0000 0000
00000170: 0000 0000 0000 0000 0000 0000 0000 0000
00000180: 0000 0000 0000 0000 0000 0000 0000 0000
00000190: 0000 0000 0000 0000 0000 0000 0000 0000
000001a0: 0000 0000 0000 0000 0000 0000 0000 0000
000001b0: 0000 0000 0000 0000 0000 0000 0000 0000
000001c0: 0000 0000 0000 0000 0000 0000 0000 0000
000001d0: 0000 0000 0000 0000 0000 0000 0000 0000
000001e0: 0000 0000 0000 0000 0000 0000 0000 0000
000001f0: 0000 0000 0000 0000 0000 0000 0000 0000
00000200: 6167 dabc 8c20 b03d cfe8 bbbc 85b8 803d
00000210: 4ca1 d9bd a5d8 8b3d df4e 4e3d d04e 843c
00000220: df3b 2d3b 1c2c f0bd 8c2b 85bd 4b59 07bd
00000230: 2667 04b9 b93d 873d 3f2b a0bc f9dc 383d
00000240: 05a4 9c3d 55b1 1e3a 062b 6dbd 8f8b babb
00000250: 20de 613d 551e 0fbd 6cf3 8c3d c566 ed3d
00000260: aaba 083d 4f6d 6dbc 2d7d 7d3d 2791 a43d
00000270: 1a6d 3cb9 6984 f2bd 358c babb ffaa 0d3d
00000280: 0f4d 6d3d 7de3 863d 844f 9c3d 2f09 f0bb
00000290: 2e7e 0d3d 23be 60bd fc0e 00bd fcb8 cebb
000002a0: 221d e13d ab8e db3c d3e5 c3bc 219e cabd
000002b0: 6539 99bd 4489 093d 434b 533d ffb0 c0bd
000002c0: 45ab 54bc 6903 d0bd a494 eabc e06f 9dbd
000002d0: 154d d63d 37aa 3cbc c170 65bd f850 cfbd
000002e0: 29bc 45bd d1a5 433d 41d2 113c bfd6 6c3d
000002f0: 8f00 99bc ea63 51bc edfd 37bd f647 dd3c
0.0 0.0 0.0 0.0 0.0 0.0 0.0 0.0
0.0 0.0 0.0 0.0 0.0 0.0 0.0 0.0
0.0 0.0 0.0 0.0 0.0 0.0 0.0 0.0
0.0 0.0 0.0 0.0 0.0 0.0 0.0 0.0
0.0 0.0 0.0 0.0 0.0 0.0 0.0 0.0
0.0 0.0 0.0 0.0 0.0 0.0 0.0 0.0
0.0 0.0 0.0 0.0 0.0 0.0 0.0 0.0
0.0 0.0 0.0 0.0 0.0 0.0 0.0 0.0
0.0 0.0 0.0 0.0 0.0 0.0 0.0 0.0
0.0 0.0 0.0 0.0 0.0 0.0 0.0 0.0
0.0 0.0 0.0 0.0 0.0 0.0 0.0 0.0
0.0 0.0 0.0 0.0 0.0 0.0 0.0 0.0
0.0 0.0 0.0 0.0 0.0 0.0 0.0 0.0
0.0 0.0 0.0 0.0 0.0 0.0 0.0 0.0
0.0 0.0 0.0 0.0 0.0 0.0 0.0 0.0
0.0 0.0 0.0 0.0 0.0 0.0 0.0 0.0
-0.026660623 0.08599958 -0.02293816 0.06285194 -0.10626468 0.06828431 0.050368186 0.016150862
0.002643339 -0.11727163 -0.065024465 -0.03304414 -0.00012626927 0.066035695 -0.019551871 0.04513261
0.07648472 0.0006053646 -0.05790236 -0.005692906 0.055143476 -0.034941036 0.068823665 0.11591867
0.03338114 -0.014491393 0.061886955 0.08035498 -0.0001796972 -0.118416615 -0.0056929835 0.034586903
0.057934817 0.06586359 0.07632354 -0.0073253135 0.034544162 -0.05486883 -0.03126429 -0.006308673
0.10991885 0.026801428 -0.0239133 -0.09893442 -0.0748165 0.033578172 0.051585447 -0.09408759
-0.012980287 -0.101569004 -0.02863533 -0.07687354 0.10463921 -0.011515192 -0.056015734 -0.101228654
-0.048275147 0.047765557 0.008900226 0.057821985 -0.018677024 -0.012780169 -0.044919897 0.027011853

weight f4 [64, 64]
00000000: fe37 833c 7b9a b0bd 93e3 0abe e951 0dbb
00000010: 182c 0dbe 91e0 d83d bd6b 1dbe 5822 8e3d
00000020: c0c6 10be 926c 30be 22bb 24bd e9e9 cabd
00000030: 83b8 0c3c 95ae bd3c 15a2 ff3d 6d8f 733d
00000040: b933 d83d 7840 84bd 4b69 dd3c c8a5 4f3d
00000050: b348 f23c 98ac 81bb bdcc 1c3e f986 903c
00000060: 8bdb 93bc 3af1 3e3d c7b6 0fbe 2f81 dfba
00000070: db33 82bd 412d 75bd 8f1b be3d cfde 903d
00000080: 3d99 2f3e f06c f63c 4780 dd3c 0f9a 133e
00000090: ea3a 833d d0eb ce3d 352c 703d c772 8e3d
000000a0: 59cc 0bbe c9f8 32bc 8d07 9abc 346f 213d
000000b0: 223c 4ebe d9f0 87bd 9694 0d3e ab32 ebbd
000000c0: 547c 03bc c447 20be 9609 a43d fbeb 953d
000000d0: 2445 e93d f914 f73d 1e22 2ebe e6c0 ff3b
000000e0: 163a 95ba a67b 2c3e 7a90 39bd d7e6 053e
000000f0: 7b41 d83c 591e fcbd 0aff 03bd a997 033e
00000100: 990c 6a3d 1753 653d e28d 0bbd 4dae 0e3d
00000110: f50d 6d3b 7f79 a63d da73 d43c 5420 04be
00000120: c653 0d3e 4436 d4bc 1c04 97bd bdff c7bc
00000130: cad7 183d e8da 133d 5d14 5e3d 9f9c da3b
00000140: f38c a7bd e45b 553d 1ac1 91bd 30f9 d1bd
00000150: 9d39 1f3d 7d39 9c3d 11b8 12bd 8858 183d
00000160: 9b6b b2bc 5072 f93c 8d4d 893d 07dc d6bd
00000170: 3e97 983d 8466 983d 468b 8d3d 4360 a2bd
00000180: 14a0 b63d ff9c 00bd 6923 c83c a022 a2bd
00000190: 2f6c 5c3d 229f 423d 2b31 25be a878 97bc
000001a0: 524e f63c 45bd 983d b9a3 123d c917 c7bd
000001b0: 5024 d43d c900 b3bc b085 c63b 077c b53c
000001c0: b71d 52bd 8d56 b73c 5460 853c a8d7 253d
000001d0: ab0c 753d cd8b a13d a562 33bd ed52 d53d
000001e0: 28e0 5d3c 1798 63bd a587 d2bc 7765 f43d
000001f0: fc08 dcbd f8bf 5a3d df51 0b3d 0887 3cbc
00000200: ea40 293d 5ae6 553d b009 81bd b6ad 603c
00000210: 1a0a 9b3d 5efa 1e3d 0b40 7d3d f281 c93d
00000220: 5a1a de3a 7ad9 d9ba a5e1 9fbd 47ae 903d
00000230: 077e 5e3d 0e66 29bd 5289 a83d 380d cb3d
00000240: 599c 35bc b726 1cbc 265f ce3d 735b a7bd
00000250: 8e83 e5bd 5537 59bd 6c5a 653d cd53 23be
00000260: 9363 233c 2794 283c 83d9 ca3d d9d0 00be
00000270: 48ce 873c 7d67 00be 78f7 953d b0ec 26bd
00000280: 0266 ffbb c8a1 91bd e84a 20bd b5ed 0e3c
00000290: 01a3 f8bd c88e 193d a27c 4e3c 7de0 103d
000002a0: d3b7 e33b a76c 423d 58ac b33c c727 fbbd
000002b0: eeca babd 9336 b339 2dd2 fc3b 4737 6a3d
000002c0: d52f 3a3c e856 c0ba 1d6c c13d 88c9 263d
000002d0: 39cf 803d 95f0 f0bc 3950 d03d 7303 acbd
000002e0: 5f62 78bb 7785 d83d 060b 943c 3c3c bc3c
000002f0: c4d7 80bc c357 b73d 0e0a 043e 74a0 2d3d
00000300: ccec 473e 10e3 fabd d956 843c 5a8a 8b3d
00000310: 72cd c3bc d2e1 b9bd 921e 483c a388 2d3d
00000320: b296 50bd 01a3 0c3e 21b9 30bd 3454 d0bd
00000330: 81ee a0bd 6063 cc3d 2062 54bd 6a8e 783d
00000340: 6983 e4bc ff5c 8abc 0af9 fc3c 7e2d c53d
00000350: 0cc9 29bd e98e 9c3d 4795 87bd 208b 44be
00000360: c1bd 003e fe5f f3bc c907 6cbd f826 973c
00000370: 7114 513d 09f9 7a3d cc5a acbd c6d7 6f3d
00000380: bd08 92bc 849d 093d 3ea0 6d3d 1857 793d
00000390: 88a2 b33c 2512 7f3c 9089 263e a39f 8f3d
000003a0: 7acf 493b 6610 e63d a63e b93d a77a b73d
000003b0: 3d10 ed3c d6c2 10be 8c00 0ebc 3bfd e5bc
000003c0: 9051 ac3d a322 3ebd 1d31 1e3e 44ed 4d3c
000003d0: e82a e4ba 7d79 34bd 5883 d43c 7d6b a53c
000003e0: d460 1ebd 00c4 bfbd 8689 d63d d69f 87bd
000003f0: 060e 713d 8146 a83d 21cc 1abb 2c99 2d3d
0.01601791 -0.08623215 -0.13563375 -0.0021563715 -0.13786352 0.10589708 -0.1537313 0.06940144
-0.14138317 -0.17228916 -0.040217526 -0.09907896 0.008588913 0.023154536 0.124820866 0.059462953
0.1055674 -0.06457609 0.027027747 0.05069521 0.029575681 -0.0039573424 0.15312476 0.017642485
-0.018049022 0.04661677 -0.14034568 -0.001705205 -0.06357547 -0.05985761 0.092826 0.07073747
0.171483 0.030081242 0.027038706 0.14414237 0.06407721 0.101035714 0.05863591 0.06955486
-0.13652171 -0.010923573 -0.018802429 0.039412692 -0.20140126 -0.06637735 0.13826212 -0.114842735
-0.008025248 -0.15652376 0.08009641 0.073204 0.11390141 0.12064547 -0.17005202 0.0078049777
-0.0011385109 0.16844043 -0.0453038 0.1307634 0.026398411 -0.12310476 -0.032225646 0.12850823
0.05714092 0.055987444 -0.034070857 0.034834195 0.003617165 0.08128642 0.025934149 -0.12902957
0.13801488 -0.025904782 -0.07373831 -0.024413938 0.037315167 0.036097437 0.05421864 0.0066715027
-0.08181181 0.052089587 -0.07116909 -0.10252607 0.038873304 0.076281525 -0.03582007 0.037193805
-0.021779826 0.030450016 0.06704245 -0.10491186 0.07450722 0.07441428 0.0691133 -0.07928517
0.08917251 -0.031399723 0.024430947 -0.079167604 0.05381411 0.047515042 -0.16132037 -0.01849015
0.030066643 0.07457975 0.03580067 -0.097213335 0.103584886 -0.02185096 0.0060584173 0.022153867
-0.05129787 0.022380138 0.016281284 0.04048887 0.059826534 0.07887993 -0.043795247 0.104162075
0.013542213 -0.055564966 -0.025699446 0.119334154 -0.10743901 0.053405732 0.034013625 -0.011506803
0.041321672 0.052221633 -0.06300676 0.013713291 0.07570286 0.038812988 0.061828654 0.09839238
0.0016945109 -0.0016620599 -0.0780671 0.07064491 0.054319408 -0.041357093 0.08229317 0.09914631
-0.0110846395 -0.009530715 0.10076742 -0.081717394 -0.11206733 -0.053031284 0.055994436 -0.15949936
0.009972471 0.0102892285 0.09904768 -0.12579669 0.016577855 -0.12539478 0.073225915 -0.040753067
-0.0077941427 -0.071109354 -0.039133936 0.008723666 -0.121404655 0.037489682 0.012602957 0.03537034
0.006949404 0.0474669 0.021932766 -0.12263446 -0.09120737 0.00034182201 0.0077154846 0.057181623
0.011363943 -0.0014674338 0.09444449 0.04071954 0.062895246 -0.029411593 0.10171551 -0.083990954
-0.003790043 0.105723314 0.018071663 0.02297794 -0.015727885 0.08952286 0.1289446 0.04238935
0.19523925 -0.1225034 0.016154693 0.06813498 -0.023901675 -0.09076275 0.01221432 0.042366635
-0.050924964 0.13734056 -0.043145303 -0.101723105 -0.07857991 0.09979892 -0.05185139 0.06068269
-0.027894692 -0.016890047 0.03088047 0.096278176 -0.0414515 0.076444454 -0.06620269 -0.19193697
0.12572385 -0.029708859 -0.057624612 0.018451199 0.051044885 0.061272655 -0.08415756 0.058555387
-0.017826432 0.033597484 0.058014147 0.060874075 0.021928087 0.015568291 0.16263413 0.0701287
0.0030793832 0.112335965 0.09045152 0.08958941 0.028938407 -0.14136824 -0.008667123 -0.028074851
0.08413994 -0.04641975 0.15448423 0.012568776 -0.0017407807 -0.044061173 0.025941536 0.020192856
-0.03866656 -0.09363556 0.10475449 -0.06622283 0.058851264 0.082165726 -0.0023620205 0.042382404

bias f4 [64]
00000000: 2c6e ed3d 8aa5 04bd 3f9b 963b a517 64bd
00000010: f7e0 1abd c263 fabd 68c4 20bd accc bfbd
00000020: 61fe 41bb 69d5 2f3d 6a02 563d f93b 8cbd
00000030: c13e f53d 5f08 5c3c 6f88 df3b f255 3fbd
00000040: 0006 013d d745 b03b c6b9 633d 6ae3 3e3d
00000050: 6467 c7bc 5eff 07be ace9 6d3d 7283 80bd
00000060: 498b b13c 437e e0bc eb0f 1bbd 9fd8 f33c
00000070: 54b8 253c 4e4e b0bd 29a3 14be 7fae b63d
00000080: 6d46 3ebd c89b d33c 3254 953d f5c9 c0bb
00000090: b98e 2cbd 43f0 843c 2427 3cbd 4c07 7e3d
000000a0: c845 b93d a802 a53d 57cb 01bd ca65 fd3d
000000b0: a6e3 c03c c2f3 b03d 74e8 98bd 67e4 383d
000000c0: 4ecb 81bd b3a8 efbb d997 0dbd 18b2 8bbc
000000d0: aebe bcbd 583b 4d3c 9b5e 313d 342e 2f3b
000000e0: 0ab8 d03b 3ba5 fc3d 473d 01bd c2e1 41bc
000000f0: 00e0 b33d 573e 8cbd 0efe d33a 6e5a 703c
0.11593279 -0.032384433 0.0045961435 -0.05568661 -0.0378122 -0.122260585 -0.039249808 -0.0936521
-0.0029601085 0.042928133 0.052248396 -0.068473764 0.1197486 0.01342973 0.006821684 -0.046712823
0.031499863 0.0053794193 0.05559709 0.046603598 -0.024341293 -0.13281009 0.058084175 -0.06275071
0.021672862 -0.027403956 -0.037856977 0.029766379 0.010114748 -0.086086854 -0.14515366 0.08920001
-0.046453882 0.025831118 0.072914496 -0.00588345 -0.0421283 0.016227847 -0.045935765 0.062018678
0.09046513 0.08057147 -0.03168806 0.1237293 0.023546051 0.08640243 -0.07466212 0.045139696
-0.063376054 -0.0073138117 -0.03456864 -0.017052695 -0.09216057 0.012526356 0.043303113 0.002673042
0.0063695954 0.12336203 -0.03155258 -0.01183361 0.08782959 -0.06847828 0.0016173737 0.014669998

weight f4 [256, 64]
00000000: 8ea6 a53b d692 e83d f0f7 bebc 8ed9 5fbd
00000010: 6b65 953d 642a ff3c d6f8 f03c 8a0b dc3b
00000020: c6d6 6ebd a23e a33b eb9f afbd fa8b ac3d
00000030: 4256 d2bd b28e 81bd c6d0 edbb 46da a23d
00000040: a81c a3bd 4e6f 81bc fef1 7e3c a388 683c
00000050: 8216 b4bd 4acf cd3c 2ae8 58bc c848 21bd
00000060: fe8f 9c3d c96f 403c 3858 8b3c 4305 513d
00000070: f339 26be 1c6a 1d3c 5538 9e3d ffba 98bb
00000080: 88a6 013e 163f 833d 2c22 ba3d f98c bfbd
00000090: 951f 57bd 247f 9ebd 1854 de3c 9f4c 893d
000000a0: bcbe b53d b91c 253d 085b 453d 7474 493d
000000b0: be24 1cbd 734a 0fbd 0353 4f3e 67e8 813c
000000c0: 346f 78bc bef8 8ebd 7b34 113e 7ce7 f9bd
000000d0: e406 fdbd f249 03be 9541 5d3b 1414 0bbe
000000e0: 5b0a 013d 3c09 8abd 9da2 103d c30e 0b3e
000000f0: 6804 dbbd 044a a7bc 4f6f 993d 4d30 d33d
00000100: 8fe8 a8bd 865e 83bd 1446 d5bc 40a6 a53c
00000110: 6ff2 b53d 1ea5 0a3d b962 9b3c 56ea a23d
00000120: f2af a93d 47de f73c 3c54 bcbc af00 f73d
00000130: e7f9 acbd 97e8 9d3d 1471 6f3d e991 c63c
00000140: 902e 2a3d 7be6 be3c 4464 f9bd 289b 763d
00000150: 4228 e33d 5e78 873d a529 213d 57b9 de3d
00000160: 7e25 a43d 3e68 713d 3786 1abd 6ec0 733d
00000170: bed3 83bd 72b5 f1bd d659 e63d 9fe8 a9bd
00000180: a46b b23d 5c48 cd3a d047 ccbd 1f68 163d
00000190: 595d 513d 7a4b 163e ef10 f23b abaf bcbd
000001a0: 5956 303b 9813 113d 8d8d a43d c1da 863c
000001b0: 33d5 a33d b450 c83b 4be5 e73c f277 99bd
000001c0: 8352 c0bd b6c2 7fbd 1de9 513d 3c56 55bd
000001d0: b33f 993d d26a ad3d 95cb 87bc da46 493d
000001e0: 1138 b43c 7e10 01be 6187 61bc f5a6 143d
000001f0: c6ec 8cbd 53a8 e23d 3681 97bd 18f7 adbd
00000200: ff71 3fbd 0d19 213e dc7b bfbd 0b89 a23d
00000210: a769 72bd 61b8 f33d 5b58 b73d d967 bfbd
00000220: d6d9 a03d 1730 35bc f5af 96bd 48fd c13c
00000230: bf7e b6bd bbc4 68bc 5caf 883d ed3b 103e
00000240: 581a 063c c23f 11bd b9be 383d c111 37bd
00000250: cdae 19bc 0d2f bb3d a971 01b8 96d5 0fbe
00000260: 4f3c 89bd d28c 983d 7268 e93d 0b8e e53c
00000270: 2f02 81bd 8177 a6bd 9fe7 e93d 8e31 c33b
00000280: 3595 903d a41d 883b 57ea a03d 56cc 32be
00000290: bfb9 733d fbcd 083e 286a 583d 803e cdbc
000002a0: 4235 d53d b12b 91bc 0ede 0eba cb65 9dbc
000002b0: 4fee dfbd 677c e33b 6df1 08be ec37 7d3c
000002c0: 12d4 0dbe 9370 983d 1f19 89bc 21ec 9f3d
000002d0: 6f1e b43d a2ac 953d d8d7 a73d c84e 88bd
000002e0: bd55 50bd 69d5 dbbc 36da 993c 7227 c53d
000002f0: 872c 043c ce01 b6bd ba40 ba3d eea6 9d3d
00000300: e2b2 45bd b3af 023d 16b0 ee3d e571 93bd
00000310: 89dd 75bd 3092 503d aff9 06be 5594 263b
00000320: 9590 a0bd 2cf4 b33d 5240 26ba 1504 fcbd
00000330: 7bde 36bc b7c0 8d3d 52b5 c9bd 60ff 69bd
00000340: 630a 84bd 6583 a8bb 1f09 a93c 3bd9 013e
00000350: e118 933d 18ad 8e3d 8b36 a23d cdd3 083d
00000360: 8b47 d7bd 3914 f7bc 6e14 eb3b 3b33 07be
00000370: 76e5 e0bb 433b c83c 9a2e aaba 8dd4 07bd
00000380: 7d75 02bd 1a6a 643d 500b 44bd 0982 55bd
00000390: adb8 cdbd 826a 0f3e 30e9 603d 3ed8 a83d
000003a0: a286 0d3e fb4d 493d 4ae1 ee3d 992e 4dbd
000003b0: 18c2 af3d 0233 cf3d 63aa dfbd 391b b6bd
000003c0: 65bb ea3d 1f54 3c3d e3f0 50bd 5efc 303c
000003d0: def9 863d cf35 26be 1cb6 eb3d 071e bcbd
000003e0: 0812 743d b44b f13c c81d f3bd ed8d 863c
000003f0: 239e c13d 8e0c a13d 4c31 24bd 1140 96bd
0.0050552553 0.11356132 -0.023311585 -0.054650836 0.072947346 0.031148143 0.02941553 0.0067152428
-0.058310293 0.0049818316 -0.08575424 0.08425136 -0.102703586 -0.06326045 -0.0072575537 0.079517886
-0.0796445 -0.015800145 0.015560625 0.014192733 -0.087933555 0.025123257 -0.013238946 -0.03937605
0.07644652 0.011745402 0.01700984 0.05103041 -0.16233043 0.009607818 0.07725588 -0.0046609635
0.12661183 0.06408517 0.09088549 -0.0935306 -0.052520353 -0.07739094 0.027139708 0.067040674
0.0887427 0.040310595 0.048182517 0.049183324 -0.038120978 -0.03498311 0.2024651 0.015857888
-0.015163232 -0.069810376 0.14180176 -0.12202355 -0.1235483 -0.12821177 0.0033761014 -0.13581878
0.031504016 -0.067400426 0.03531133 0.1357985 -0.106942 -0.020421036 0.074919336 0.10311947
-0.08247482 -0.06414513 -0.026034392 0.020220876 0.08884131 0.033848874 0.018967973 0.07954852
0.08285512 0.030257357 -0.022989385 0.12060677 -0.084461026 0.077103786 0.05845745 0.024239497
0.04154831 0.023303261 -0.12177327 0.060206562 0.11091663 0.06614755 0.039346356 0.108751945
0.080149636 0.058937304 -0.037725653 0.059509687 -0.06436871 -0.11802186 0.112476036 -0.08296322
0.08711937 0.0015661824 -0.09974635 0.03672039 0.051114414 0.1467723 0.0073872725 -0.092131935
0.0026906936 0.035419077 0.08034811 0.016461732 0.07999649 0.006113136 0.028307578 -0.07493581
-0.09390738 -0.06244155 0.051247705 -0.052084193 0.07482853 0.0846764 -0.016576568 0.049139835
0.02199939 -0.12603948 -0.013765187 0.036292035 -0.068810984 0.110672615 -0.07397692 -0.08494395
-0.046739575 0.15732212 -0.09349796 0.07936295 -0.05918279 0.11900402 0.08952399 -0.09345979
0.07854049 -0.011058829 -0.0735778 0.023680344 -0.08910894 -0.01420706 0.06674072 0.1408536
0.008184992 -0.035461195 0.045103762 -0.044694666 -0.009380055 0.091398336 -3.086185e-05 -0.1404632
-0.06700956 0.07448734 0.113968745 0.028021833 -0.062992446 -0.08128262 0.11421131 0.005956835
0.07059709 0.004153924 0.07857197 -0.1746076 0.059503313 0.13359825 0.052835613 -0.025054216
0.10410549 -0.017721029 -0.0005449959 -0.019213578 -0.10934126 0.00694232 -0.13373347 0.015455227
-0.1385043 0.07443347 -0.016735611 0.0780871 0.08794867 0.07308318 0.08195466 -0.06655651
-0.050863016 -0.02683516 0.018780809 0.09626664 0.008067257 -0.08887063 0.09094377 0.07697855
-0.0482663 0.03190584 0.116546795 -0.07199458 -0.060025726 0.050920665 -0.13181184 0.0025418003
-0.07840077 0.087868065 -0.0006341982 -0.12305466 -0.011161442 0.06921523 -0.09849037 -0.05712831
-0.064472936 -0.0051426166 0.020634232 0.12680523 0.0718248 0.06966609 0.079205595 0.033405114
-0.105116926 -0.03016101 0.0071740663 -0.13203137 -0.0068632914 0.02444232 -0.0012983859 -0.03316169
-0.031850327 0.05576525 -0.04786235 -0.052125964 -0.1004499 0.14005473 0.054909885 0.0824437
0.1382089 0.049146634 0.11664064 -0.050093267 0.08581942 0.10117151 -0.109211706 -0.08891911
0.11461524 0.04597866 -0.051010977 0.0108023565 0.06590627 -0.16231464 0.11509344 -0.09185415
0.05958751 0.029455043 -0.11870915 0.016425097 0.0945399 0.07863723 -0.040086076 -0.073364384

bias f4 [256]
00000000: 16a9 93ba 4f03 a13c e276 8b3d 6be6 d7bd
00000010: 51d0 03be 4f41 83bc 1657 cebd 5c22 74bc
00000020: 015f c43d eeea a6bd 169c 173c c763 8cbc
00000030: f60e ddbd 0dfe 183d 70d5 b63d 2420 98bd
00000040: 2abd 753c 3efc c13d 2668 8fbd bc84 b23d
00000050: 2cb4 803d 6f38 d3bd fc3b f83d 1cdd cabd
00000060: 9334 293c 49c3 b23d dc8d a6bd c025 953d
00000070: f80b adbb 5e23 a6bd c5f3 993d 2114 d43d
00000080: 1505 9c3d 84ee 61bd ed04 dcbd 6689 edbb
00000090: cf41 963d 4f24 2b3c e639 083d bc63 b23d
000000a0: c207 debd c373 b4bd 97c8 93bd cb2a e13d
000000b0: c14d e6bd 787d b33d 27d6 94bd 0e59 8abd
000000c0: e14c 7c3d a0ff 263d 3db6 cb3d 1e93 dc3c
000000d0: 12d1 93bd fa95 d6bd 12a2 713d cbd9 19bd
000000e0: 6712 a5bd 64e7 b2bd e2e8 c33b 4e0a c23d
000000f0: b43f 8e3d f020 07be 0170 033e bbaa cf3c
00000100: e82d 973d a2ec 1c3d 7f05 2abd cad6 65bd
00000110: 05b4 e0bc 59b8 983d fcf0 a9bd 6c87 c53d
00000120: 83ef 72bd b8e9 10bd 745f 31bb 1938 113d
00000130: 537d e93c 2503 733d 9bf8 e2bd ad09 01be
00000140: 9a94 063d ec38 c43d 567b cdbd b647 de3c
00000150: 3a9d d33d e0f2 a93d b8d4 adbd 5cbe 823d
00000160: 5627 edba bcd3 363d 7ad7 bdbd 0ded 19bd
00000170: e330 813d 078c 9bbb fa5d bbbd d16b 233d
00000180: 2406 a3bd f9a0 453c 7c74 993d 3c54 8ebd
00000190: eb03 a0bd 023b 9dbc b5bb fabd 9b37 bebd
000001a0: a1ff 953c 7ddc b43a 1ffd abbd e957 04bd
000001b0: 4114 b3bd 8633 353c b279 103e 960d 40bd
000001c0: 512f ba39 8f6c 3ebd 42bf 613d a142 28bc
000001d0: fb53 95bd ce89 12bd 395b d1bd cfd7 203c
000001e0: f7a1 a7bd 784e f2bb 3071 59bd 4f6b 883d
000001f0: abbc ac3d 4caf b43d 98ab 9e3d 64f1 dabd
00000200: dc69 883d 6c9a 82bd c7b5 da3d a181 443d
00000210: 4254 4abd 84ff 2b3d 90df e03c 4697 89bd
00000220: e3ad 183d 1c65 dbbd 56bf 2ebc 2f66 d53c
00000230: 3833 0bbd a20b 993d b3b8 c4bd c523 6e3d
00000240: 2317 7cbc 0363 5cbd 994f 9c3d 66b1 bf38
00000250: 4423 f2bd 86eb 9839 df94 d93d d994 2a3d
00000260: a768 e73d 8ddb 5b3d 042f e5bd 64d7 203d
00000270: 4078 2fbd 05c0 cebd ea91 99bd 25b7 90bc
00000280: f6a6 01be 6b3f 693d 4887 6e3d 84ad 0ebd
00000290: 6b26 6dbd 1d25 1f3d 78f7 9e3d 2ae1 d8bd
000002a0: 0e19 df3d a1a5 ae3d d778 763c 94b2 44bc
000002b0: 9951 a4bd f00d 5abd 6c06 ec3d 574d 84bc
000002c0: 6ecb 433d 3751 06be 5b78 33bd 4359 c7bd
000002d0: 5ceb eb3d 453f e0bd 5dbd d7bd 51f6 ddbb
000002e0: 51d2 ddbd b305 f4bd f34c d4bd b264 073c
000002f0: 60e3 19bd 6b7e 19bd 14ec 903b 01f0 febd
00000300: 8e74 ac3d 442a e63c b512 74bd 9ad0 14be
00000310: d787 8f3d 6fd2 de3d 61c0 6e3d 1160 a8bc
00000320: 5fed 5cba 6e47 3d3b a511 7a3d c576 593b
00000330: 6d93 c13d d328 babd 35fd 0fbe 49b4 ac3d
00000340: 9cee ad3d 31e8 c7bc 98b3 413d 4bda 90bd
00000350: 7ce0 08be 6c53 483d cbad e9bd 915b d93d
00000360: 921f 8f3c c004 a33c d527 0f3d f16a 1d3d
00000370: ace4 4cbc b12a 6e3d 0054 91bd d44d 62bd
00000380: 96fd 62bd 0b47 133d 0fa5 d2bd 9ba8 debd
00000390: d66e 2d3d b12e 30bd 771f 63bd 11e3 5b3d
000003a0: d9d8 163d eec3 c8bd 2d0b ba3d 92ec e4bd
000003b0: 1cbc 223b 708d e3bc f540 8c3a 4606 e0bc
000003c0: c6eb 563d 9d8b f6bd 9dd5 70bd 8d99 e53d
000003d0: 49cd 40bd 9a4a a4bd 5037 e23d 27d7 2fbd
000003e0: 7c98 1a3d e1cf 0bbb 9334 ebbd c51d 8dbd
000003f0: ee08 05be 5b5a 8dbd 4f44 00bd 0a1f 3b3d
-0.0011265601 0.019654898 0.068097845 -0.105419956 -0.12872435 -0.016022353 -0.10075204 -0.01490077
0.09588433 -0.08150278 0.009253522 -0.017137421 -0.10793869 0.037351657 0.08927429 -0.07428005
0.0149987135 0.094719395 -0.070022866 0.08716723 0.06284365 -0.10313498 0.12120816 -0.099054545
0.010327476 0.08728654 -0.08132526 0.07282591 -0.005280968 -0.081122145 0.075171985 0.10355402
0.07618157 -0.055159107 -0.10743127 -0.007249045 0.07336771 0.010445668 0.03325834 0.08710429
-0.108413234 -0.08811142 -0.07215994 0.1099449 -0.11245299 0.08764166 -0.07267409 -0.06755267
0.061596755 0.040771127 0.099468686 0.02692562 -0.07217611 -0.104778245 0.058992453 -0.03756122
-0.080601506 -0.087355405 0.0059786895 0.09474622 0.06945744 -0.13196158 0.12835695 0.025349965
0.07381803 0.038311608 -0.041509148 -0.056113042 -0.02742959 0.074570365 -0.08297917 0.0964497
-0.059310447 -0.03537914 -0.002706495 0.03545389 0.028502142 0.05932917 -0.11082574 -0.12601347
0.03285656 0.095811695 -0.1003329 0.027133804 0.10332723 0.08298278 -0.084878385 0.063839644
-0.0018093388 0.04463552 -0.092696145 -0.037579585 0.063081525 -0.004746917 -0.09148784 0.039897744
-0.079601556 0.012062305 0.07492921 -0.0694966 -0.07813247 -0.019193176 -0.122428335 -0.0928795
0.01831037 0.0013798621 -0.083978884 -0.0323104 -0.087440975 0.011059647 0.14108923 -0.046887957
0.00035511938 -0.04649025 0.05511404 -0.010269792 -0.07291409 -0.035775952 -0.102224775 0.009817078
-0.08185189 -0.007394608 -0.05308646 0.066610925 0.08434423 0.08822498 0.07747573 -0.10690573
0.06660816 -0.0637711 0.106792025 0.047975186 -0.04939676 0.041991726 0.027450353 -0.06718306
0.037275206 -0.107126445 -0.010665735 0.026049701 -0.033984393 0.07472922 -0.09605541 0.05813958
-0.015386376 -0.053805362 0.076323695 9.140633e-05 -0.11823133 0.00029167178 0.10624098 0.04164586
0.11299258 0.053676177 -0.11190608 0.039267913 -0.04283929 -0.100952186 -0.07498534 -0.017665455
-0.12661347 0.056945246 0.058234483 -0.034833446 -0.057897966 0.038853753 0.07762045 -0.10589822
0.10893451 0.08527685 0.015043459 -0.012005467 -0.08023376 -0.053235948 0.115246624 -0.01615016
0.047801428 -0.13116919 -0.04381595 -0.09733822 0.115195006 -0.10949568 -0.10534165 -0.006773748
-0.1083113 -0.119151495 -0.103662394 0.008263754 -0.037570357 -0.037474077 0.004422674 -0.12448121
0.084206685 0.028096326 -0.059588153 -0.145327 0.07008331 0.10879981 0.058288936 -0.02055362
-0.0008427705 0.0028881687 0.061051983 0.0033182364 0.09451947 -0.09089818 -0.14061435 0.08432824
0.08492777 -0.02440271 0.047290415 -0.07072886 -0.13366884 0.048907682 -0.114101015 0.10613168
0.017471109 0.019899726 0.034950096 0.038432065 -0.0125056915 0.058146182 -0.070961 -0.055250004
-0.05541762 0.035956424 -0.10285389 -0.10872003 0.04234203 -0.04301328 -0.05544993 0.053683344
0.036827896 -0.098029956 0.09084163 -0.11177935 0.002483136 -0.027777404 0.0010700511 -0.027346741
0.052470945 -0.12038348 -0.058797467 0.11210928 -0.047070775 -0.080220416 0.11045706 -0.042929795
0.037743077 -0.0021333622 -0.11484637 -0.06890444 -0.12991688 -0.069019996 -0.031315144 0.045683898
