xrdtrans_6.pt (torch, 458530 bytes, 31 tensors)

weight f4 [64, 21]
00000000: 3e56 683e 7439 ba3c a40f ef3b 13d4 f7bd
00000010: 1d45 cb3d 49c8 20bd 011c 9c3d 2376 353e
00000020: 0d5f 6abd 1b42 debd de30 773e 9ab0 c63d
00000030: 4e86 823c 418c 35be 3c0e 82be f184 37be
00000040: dc79 ee3c 8fec 3bbe 3645 38be 4e6f 473e
00000050: 1f47 88be 17bd 83bd 0407 8ebd c6c0 173d
00000060: 0c57 babd 0cfa 07be 96ce d43d a3aa c9bc
00000070: 5811 3b3e 23d7 04be b672 4dbe bddb 2f3c
00000080: 0aa1 a63d 997c 13bd 2853 bfbd 5362 72bd
00000090: c523 50be aec0 783d f7c7 63be 5623 43be
000000a0: b106 33be 2080 313e 8455 c182 3d11 ba82
000000b0: 48c4 bf82 9fd4 c282 9a6a bd82 20df ba82
000000c0: 94ec c182 c82e c682 8dcc b382 f177 c382
000000d0: 724f ad02 abf0 8f82 c4b9 3483 1621 2282
000000e0: 7acb 8182 cc23 5282 e94c 7c02 2b67 be02
000000f0: 1680 5782 f916 ea01 01ed ba82 81eb 8f3e
00000100: 41ce 4a3e 988d d5bd 7090 73be 65ce 9f3b
00000110: 0626 533e d29a 123d 40fa 3abd f8ac 14be
00000120: 3840 ff3d b990 423e d236 e53d 5acb 8c3e
00000130: 33a8 5dbc 8607 f03b af21 17be ec0c b6bd
00000140: d62c 3e3f ba42 413d aabd ba3e 99bc bdbd
00000150: 0298 f9bc 367a 2b3d 3e62 2cbe d88b c93c
00000160: 8b03 babd 6cdf 793e 6082 17bd 585d 44be
00000170: 5abd c5bd e0b4 0ebd d064 993e f5e2 ac3e
00000180: 8652 a23c a678 0e3f 4ca0 8b3e aee6 673e
00000190: b3a8 f73d b070 ff3c 323c cfbd 8bed a0be
000001a0: 56d7 243e 7ea4 693e e56c 013e 46c2 b1bd
000001b0: cf66 f33d 16ea 793d 8749 113e 3a32 033e
000001c0: 586b 383d 2dfc 02be b4de 5cbe 3d95 823d
000001d0: 7a48 58be 8407 c93d 1d61 29bf a2f2 0fbe
000001e0: 7fe8 39bf df37 dc3c c2fa 41be c085 ebbe
000001f0: 7b10 933e 1db5 8abc 4a73 67be 5c5b 4bbe
00000200: 1537 18be 1637 3d3e 39b7 593d c929 0b3e
00000210: 7bb5 7abd f3ad c2bb 79d5 b13d 474a fb3d
00000220: 0670 333f 4866 f43e 2243 5c3e da87 2bbf
00000230: 92c7 6dbe fa85 b93e 346a 253f c08f 223f
00000240: d2f2 133f db4b febd 1591 82be 96f6 8bbc
00000250: eb02 2cbe 0786 8b3d 3baf d0bd c60c 043e
00000260: b98f 2e3e 1cfd e23d 58e2 b13d cd33 37be
00000270: 6646 f33d de76 8abe 6569 9fbd 2394 dabe
00000280: c26b 573e d8be 543d 0bd9 ec3d 914c 2b3e
00000290: dc63 55be 9ec6 433e dba3 713d d4f9 09be
000002a0: b56d 6c3e e5cc 4c3d 3398 313d 03dd 383e
000002b0: b859 b4bc e1b6 62be 539f 64bd fb37 9ebd
000002c0: b8ff 2d3c 9389 253e 0bca 863e a80f b93e
000002d0: 050d e33e 102c eabe 4d24 f9bb 24d1 433d
000002e0: 8ab4 5b3e ff4c 593e 5dea 8f3e 3288 7c3e
000002f0: 525b 7fbe 3a80 8abe 0e24 f5bd b25e 2abd
00000300: c4ad 333e c934 bd3d 6f85 f2bd 125f 86bd
00000310: 00bd 3ebe fdba 243e 81c9 263e 35dc 903d
00000320: 83af a33e f8d6 af3e 1123 e2bc cae8 e43e
00000330: 7415 f73e f2bb bf3d 7ad4 7abe 719f e23d
00000340: 38fe d83d 96da a93d 1604 673e a883 d13c
00000350: 8f8b eb3c f7b5 403e 70a4 50be fc41 b7bb
00000360: a2ed 2bbc b593 09be a206 443e ab76 44be
00000370: b45a 8f3d 4fae ce3e 8bc6 ca3d 70ca 223e
00000380: 8848 253e a5f0 713e 57d3 253d 9d18 9fbc
00000390: 9a3b 83be fb5d 123e dfc4 183d d63c 44be
000003a0: 0eb1 9cbd a42a 3a3d 6d86 3f3e 6cb9 973c
000003b0: 38fe dabc cbb9 debd 8497 69bd b640 c9bc
000003c0: ebf2 113e 71de 68be e05e 8b3e b6ba 863e
000003d0: f24d b13d d864 263d 86e7 363d dad6 013e
000003e0: 54e0 203e 5d88 293e 571c 923b 8951 37be
000003f0: 1fca 823d 6f08 98bc 3236 383e dc48 363e
0.22689149 0.022732474 0.0072955657 -0.12100997 0.09925292 -0.039253507 0.07622529 0.17720847
-0.057219554 -0.10852452 0.24139735 0.09701653 0.015933182 -0.17729284 -0.25401485 -0.17921807
0.029110841 -0.18351959 -0.17995152 0.19476053 -0.2661676 -0.064325504 -0.06934932 0.037049077
-0.09098634 -0.13278979 0.10390966 -0.024617499 0.18268335 -0.12972693 -0.2006329 0.010733542
0.081361845 -0.036007497 -0.09342033 -0.0591758 -0.20326145 0.06073063 -0.2224425 -0.19056448
-0.17483021 0.17334032 -2.8407885e-37 -2.7340138e-37 -2.8177588e-37 -2.8627777e-37 -2.783224e-37 -2.7458311e-37
-2.849459e-37 -2.9120336e-37 -2.6419092e-37 -2.8721518e-37 2.5465665e-37 -2.1150098e-37 -5.3110494e-37 -1.1911376e-37
-1.9071636e-37 -1.5438637e-37 1.8536108e-37 2.7977206e-37 -1.5832464e-37 8.599099e-38 -2.7466277e-37 0.28109363
0.19805242 -0.104273975 -0.23785567 0.004876899 0.20619974 0.03579218 -0.045648813 -0.14519107
0.12463421 0.1900052 0.11192097 0.27498895 -0.013528871 0.0073251156 -0.14758943 -0.088891834
0.74287164 0.047182776 0.36472827 -0.09264488 -0.03046799 0.041864596 -0.16834351 0.024602816
-0.09082707 0.24401635 -0.03698957 -0.19176233 -0.096552566 -0.034840465 0.29959726 0.33766904
0.01981474 0.55652845 0.27270734 0.22646591 0.12092724 0.031181663 -0.10118903 -0.3143123
0.16097769 0.22816655 0.12639196 -0.08679633 0.118848436 0.061014257 0.14188205 0.12812129
0.045024246 -0.1279151 -0.2156933 0.06376121 -0.21121398 0.098158866 -0.6616381 -0.14057401
-0.72620386 0.02688211 -0.18943313 -0.4600048 0.2872351 -0.016932065 -0.22602573 -0.1985907
-0.14864762 0.18478045 0.05315325 0.13590159 -0.06120823 -0.0059411465 0.08683295 0.12270027
0.7009281 0.47734284 0.21509984 -0.6700417 -0.23220661 0.36235029 0.6461518 0.63500595
0.5779239 -0.12416812 -0.25501314 -0.017085355 -0.16797988 0.06812673 -0.101896726 0.12895498
0.17047013 0.11083433 0.0868575 -0.17890854 0.11878662 -0.27043813 -0.07783774 -0.42691144
0.210372 0.051939815 0.11564835 0.16728427 -0.20838875 0.19118735 0.058994155 -0.13474208
0.23088725 0.05000009 0.04335804 0.1805306 -0.022015437 -0.22140075 -0.055816006 -0.07725521
0.01062005 0.16165762 0.26326022 0.36144757 0.4434587 -0.45736742 -0.0076032043 0.047806874
0.21455589 0.21220778 0.28108492 0.2466133 -0.2493718 -0.27050954 -0.119697675 -0.041594215
0.17546755 0.092385836 -0.11841857 -0.06561102 -0.18626785 0.16086955 0.16287805 0.07073251
0.31969842 0.34343696 -0.027604612 0.44708854 0.48258555 0.093620196 -0.24495116 0.11065567
0.105953634 0.08293645 0.22560152 0.025575474 0.02875307 0.18819414 -0.20375228 -0.0055925827
-0.010493668 -0.13435252 0.19143155 -0.19185893 0.06999722 0.40367362 0.0990115 0.15897536
0.1614095 0.23626955 0.040484753 -0.019420916 -0.2563141 0.14293663 0.037297126 -0.19163832
-0.07650958 0.04545082 0.18703623 0.018521033 -0.02673255 -0.10875281 -0.057029262 -0.02456699
0.14252822 -0.22741105 0.2722082 0.26314324 0.08657445 0.040623516 0.04465439 0.12679616
0.15710574 0.16555925 0.004458945 -0.17902197 0.06386208 -0.018558709 0.17989424 0.17801231

bias f4 [64]
00000000: 6bbf 3bbd 880c a53e bd11 8f82 f86d 713e
00000010: 350c 87bb 4f25 86be b36e 8dbc 6457 3c3d
00000020: 6470 f9bc 0739 053e 7f59 693e 946a 273c
00000030: be7d 83bd 5f50 f43c d09a 8dbe 5c10 b182
00000040: 8f6a b03c 8cd2 ac3b b4e0 10be 9825 023e
00000050: 02fb e53d e747 9d3c 9428 b982 2292 7ebe
00000060: 3937 d83c ea19 3d3e 6057 213e c6b5 0abc
00000070: d6e1 083e 2e42 8cbe 2ce0 17be a6e4 273d
00000080: aab2 38be 3afc 453d f9f8 6abe cc78 05be
00000090: 65d9 b9bc 30c7 833d ef1d 84bd 0f3f 3d3e
000000a0: c50c 3dbe 4143 ca82 8250 2ebe c700 193e
000000b0: c51d 67bd 5682 463d a2f1 8dbe cdae c682
000000c0: 2ff4 a53e c2d1 763e 7dea 613c 8e12 88be
000000d0: aed5 c7bc 4e05 e33d a456 31be b20d b13d
000000e0: 0e06 e5bd a9a6 883e 8189 64bd 7452 843d
000000f0: 6742 893c 6fa2 8039 9900 ce3d c49d 12bc
-0.045836847 0.32236123 -2.1022143e-37 0.23577106 -0.0041213282 -0.2620034 -0.0172647 0.04598178
-0.0304491 0.13010035 0.22788046 0.010218281 -0.06420468 0.02982348 -0.27657175 -2.6017202e-37
0.021535186 0.0052741226 -0.14148217 0.12709653 0.112295166 0.019199325 -2.7206598e-37 -0.24860433
0.02639352 0.18466917 0.15755987 -0.00846619 0.133674 -0.2739424 -0.14831609 0.04098954
-0.18036905 0.048336245 -0.22946538 -0.13034362 -0.02268667 0.064344764 -0.06451022 0.18481086
-0.18461902 -2.9719834e-37 -0.17022899 0.14941703 -0.056424875 0.04846414 -0.27723414 -2.9193816e-37
0.3241286 0.24103454 0.0137888165 -0.26576656 -0.024393883 0.11084996 -0.17318207 0.0864519
-0.111827955 0.26689652 -0.055795196 0.06461039 0.016755296 0.00024535085 0.10058708 -0.008948747

pe f4 [100, 64]
00000000: 0000 0000 0000 803f 0000 0000 0000 803f
00000010: 0000 0000 0000 803f 0000 0000 0000 803f
00000020: 0000 0000 0000 803f 0000 0000 0000 803f
00000030: 0000 0000 0000 803f 0000 0000 0000 803f
00000040: 0000 0000 0000 803f 0000 0000 0000 803f
00000050: 0000 0000 0000 803f 0000 0000 0000 803f
00000060: 0000 0000 0000 803f 0000 0000 0000 803f
00000070: 0000 0000 0000 803f 0000 0000 0000 803f
00000080: 0000 0000 0000 803f 0000 0000 0000 803f
00000090: 0000 0000 0000 803f 0000 0000 0000 803f
000000a0: 0000 0000 0000 803f 0000 0000 0000 803f
000000b0: 0000 0000 0000 803f 0000 0000 0000 803f
000000c0: 0000 0000 0000 803f 0000 0000 0000 803f
000000d0: 0000 0000 0000 803f 0000 0000 0000 803f
000000e0: 0000 0000 0000 803f 0000 0000 0000 803f
000000f0: 0000 0000 0000 803f 0000 0000 0000 803f
00000100: a46a 573f 4151 0a3f ce7a 2e3f b054 3b3f
00000110: ba7d 083f 0e94 583f f090 d13e c792 693f
00000120: 3e39 9f3e 6b4e 733f 258f 703e f1d5 783f
00000130: 3a23 353e 83f6 7b3f f325 083e 28ba 7d3f
00000140: 7675 cc3d 98b8 7e3f 366f 993d d147 7f3f
00000150: ae36 663d 6898 7f3f fbac 2c3d bdc5 7f3f
00000160: 5b81 013d 3cdf 7f3f a53e c23c 93ed 7f3f
00000170: 43ab 913c a3f5 7f3f 497a 5a3c 2cfa 7f3f
00000180: 57d6 233c b9fc 7f3f 16b9 f53b 28fe 7f3f
00000190: 5a44 b83b f7fe 7f3f 5a2e 8a3b 6bff 7f3f
000001a0: 1c3e 4f3b acff 7f3f 0469 1b3b d1ff 7f3f
000001b0: 2015 e93a e6ff 7f3f 8bc9 ae3a f1ff 7f3f
000001c0: 6d12 833a f8ff 7f3f 8994 443a fbff 7f3f
000001d0: 136a 133a feff 7f3f 2217 dd39 ffff 7f3f
000001e0: 60cb a539 ffff 7f3f 0da8 7839 0000 803f
000001f0: 5377 3a39 0000 803f 6dd4 0b39 0000 803f
00000200: b7c7 683f 3311 d5be d95a 7f3f 534d 913d
00000210: 0af2 663f b2e8 dc3e 1135 3f3f 0339 2a3f
00000220: 1b54 173f ec7b 4e3f b5d3 e93e 69be 633f
00000230: f647 b23e a6fa 6f3f 82f0 863e f5f2 763f
00000240: f86f 4b3e a5e5 7a3f d300 193e 4f20 7d3f
00000250: 86d9 e53d f361 7e3f af85 ac3d 0e17 7f3f
00000260: c870 813d f97c 7f3f aa30 423d 4fb6 7f3f
00000270: 5da5 113d 8ed6 7f3f 5075 da3c b1e8 7f3f
00000280: 3ed4 a33c e5f2 7f3f 51b7 753c a1f8 7f3f
00000290: 9b43 383c dbfb 7f3f 0a2e 0a3c abfd 7f3f
000002a0: d83d cf3b b1fe 7f3f e868 9b3b 43ff 7f3f
000002b0: 0815 693b 96ff 7f3f 80c9 2e3b c4ff 7f3f
000002c0: 6812 033b dfff 7f3f 8594 c43a edff 7f3f
000002d0: 126a 933a f5ff 7f3f 2017 5d3a faff 7f3f
000002e0: 5fcb 253a fdff 7f3f 0ca8 f839 feff 7f3f
000002f0: 5377 ba39 ffff 7f3f 6dd4 8b39 0000 803f
00000300: c381 103e 2670 7dbf de3c 473f cebf 20bf
00000310: d745 7e3f ab7f edbd 6421 743f 6318 9a3e
00000320: c209 503f 582f 153f b724 273f a2e7 413f
00000330: 6c2f 023f 296d 5c3f a768 c73e 37c9 6b3f
00000340: 6c4e 973e ef90 743f e26d 643e 928c 793f
00000350: d7ee 2b3e 9e5d 7c3f 2c33 013e 43f4 7d3f
00000360: c0ff c13d 4fd9 7e3f 0693 913d 3a5a 7f3f
00000370: 4f69 5a3d c3a2 7f3f c5d1 233d 90cb 7f3f
00000380: 1fb9 f53c 83e2 7f3f 4747 b83c 6bef 7f3f
00000390: c631 8a3c adf6 7f3f 4644 4f3c c2fa 7f3f
000003a0: 0d6e 1b3c 0dfd 7f3f 141d e93b 58fe 7f3f
000003b0: a8cf ae3b 11ff 7f3f 1317 833b 7aff 7f3f
000003c0: 929b 443b b5ff 7f3f 606f 133b d6ff 7f3f
000003d0: 171f dd3a e8ff 7f3f 57d1 a53a f3ff 7f3f
000003e0: 0eb1 783a f9ff 7f3f 097e 3a3a fcff 7f3f
000003f0: 7ed9 0b3a feff 7f3f a4be d139 ffff 7f3f
0.0 1.0 0.0 1.0 0.0 1.0 0.0 1.0
0.0 1.0 0.0 1.0 0.0 1.0 0.0 1.0
0.0 1.0 0.0 1.0 0.0 1.0 0.0 1.0
0.0 1.0 0.0 1.0 0.0 1.0 0.0 1.0
0.0 1.0 0.0 1.0 0.0 1.0 0.0 1.0
0.0 1.0 0.0 1.0 0.0 1.0 0.0 1.0
0.0 1.0 0.0 1.0 0.0 1.0 0.0 1.0
0.0 1.0 0.0 1.0 0.0 1.0 0.0 1.0
0.84147096 0.54030234 0.68156135 0.731761 0.53316844 0.84600914 0.4093089 0.9123959
0.3109836 0.9504153 0.23492105 0.9720145 0.17689219 0.9842302 0.13295726 0.99112177
0.099833414 0.9950042 0.07491915 0.9971896 0.05620449 0.9984193 0.042157155 0.999111
0.031617504 0.99950004 0.023711512 0.99971884 0.01778186 0.99984187 0.013334819 0.99991107
0.009999833 0.99995 0.0074988706 0.99997187 0.0056233825 0.9999842 0.0042169513 0.9999911
0.0031622713 0.999995 0.0023713717 0.9999972 0.0017782785 0.99999845 0.0013335211 0.9999991
0.0009999998 0.9999995 0.000749894 0.9999997 0.0005623411 0.9999999 0.0004216964 0.99999994
0.0003162278 0.99999994 0.00023713727 1.0 0.00017782794 1.0 0.00013335208 1.0
0.9092974 -0.41614684 0.99748 0.070948265 0.9021307 0.43146282 0.7469035 0.6649324
0.5911271 0.8065784 0.45669332 0.8896242 0.34820527 0.93741834 0.26355368 0.96464473
0.19866931 0.9800666 0.1494172 0.98877424 0.1122313 0.9936821 0.084239356 0.99644554
0.063203394 0.9980007 0.04740969 0.99887556 0.035558093 0.9993676 0.026667267 0.99964434
0.019998666 0.9998 0.014997319 0.9998875 0.011246587 0.99993676 0.008433828 0.9999644
0.006324511 0.99998003 0.0047427304 0.99998873 0.0035565514 0.9999937 0.0026670396 0.9999964
0.0019999985 0.99999803 0.0014997876 0.99999887 0.0011246821 0.99999934 0.0008433927 0.99999964
0.0006324555 0.9999998 0.0004742745 0.9999999 0.00035565588 0.99999994 0.00026670416 1.0
0.14112 -0.9899925 0.7782725 -0.6279267 0.9932532 -0.11596616 0.9536345 0.3009673
0.8126489 0.58275366 0.652904 0.7574407 0.5085361 0.86104065 0.3894703 0.92103904
0.2955202 0.9553365 0.22307542 0.9748012 0.16790329 0.9858035 0.12617177 0.9920084
0.094726086 0.99550337 0.071081206 0.9974705 0.053323086 0.9985773 0.039994974 0.99919987
0.0299955 0.99955004 0.022494925 0.999747 0.016869437 0.9998577 0.012650555 0.99992
0.009486687 0.999955 0.007114062 0.9999747 0.005334813 0.99998575 0.0040005534 0.999992
0.0029999954 0.9999955 0.0022496805 0.9999975 0.0016870227 0.99999857 0.0012650889 0.9999992
0.00094868324 0.9999996 0.00071141176 0.99999976 0.0005334838 0.9999999 0.00040005625 0.99999994

in_proj_weight f4 [192, 64]
00000000: d892 dc82 ae5c 9702 aed7 ee01 29b8 9902
00000010: 111e 2c02 053b 2002 9f6e 5e82 e933 8b02
00000020: ae2b b901 b5aa be82 a82a 2803 8c76 c482
00000030: b980 5a02 245d 6e82 6961 6c82 437e 8f02
00000040: 9336 9c82 c08d 8182 18e4 7181 9f55 bc82
00000050: ca7c ec81 980e 3f82 e8c3 4d82 301c 0b80
00000060: 18bd 8901 f7a4 3683 7036 9682 b432 3b82
00000070: f1eb 7682 218d da82 9eb6 9502 42a3 eb82
00000080: 3e34 6401 be9a 9d82 62e5 7502 5c08 1302
00000090: c13e 4a83 f4c5 bc02 2855 8202 bfc7 8802
000000a0: 3faa 8a02 8dfa 8e82 e95e 6d82 88a9 6a82
000000b0: 7bb3 8082 ef37 6b02 607d 9a82 f283 8d02
000000c0: cccc 8582 44c9 8b82 2805 8c82 49c3 8b82
000000d0: 9787 8582 367c 1603 7efa f780 23e8 9702
000000e0: eaad 4102 877e 2203 7588 7501 dcea 7482
000000f0: a09b 0980 9d79 7702 4eaf 0502 8a8c 7182
00000100: 38d5 a901 3f0f bb82 ecf7 3082 e7ae 8d82
00000110: 6e0b 0183 1626 8202 001b 0d03 5cf9 8682
00000120: 7409 0202 000a 9581 500c 9c82 7c90 ad02
00000130: 8f26 9a82 d4fb 4182 671c 2283 464f 7a02
00000140: d5cd f902 bb8b 9802 f8b3 9c82 8c8c 9e01
00000150: 5f48 c882 9c9f fa01 7bd2 e382 e3ea bc82
00000160: 465f 8002 433f 5b82 c258 9382 8aed 3802
00000170: 078b 5382 c62c c882 b246 af81 f8fd 8482
00000180: dacc b602 a334 8682 e0bb 9002 8f4a ea82
00000190: 7ae5 2902 dc14 b702 38f0 1603 6009 8482
000001a0: 2427 a080 cb63 5102 a98d 6202 d563 9002
000001b0: fc3e 8002 80c4 1d03 392c 2903 02de 7e02
000001c0: f1ac 5902 e6ee 7a02 b5d3 7702 e441 ab81
000001d0: d523 db01 c408 8602 0598 3202 f242 9502
000001e0: f67a be82 1223 6e82 ee66 8b82 e4b8 4602
000001f0: 7473 8302 3453 3783 0648 9202 4c46 a702
00000200: ab87 3702 af51 cc01 aef8 5302 40d5 9001
00000210: 838e 5882 b1f8 8f02 e27a c801 f477 b901
00000220: 1e76 8d82 1abf 0082 ae2f 2482 fe24 7582
00000230: eaf8 8282 8e0f 8902 08ad 1182 7fbd 9a82
00000240: e8bb 8602 6c8f 4a82 7a7e 1c82 2f87 7b02
00000250: 31df 3682 61ea 3683 52d7 2100 f47d a001
00000260: c661 8682 0fb3 8202 9bb1 1003 99e8 1f82
00000270: 81a1 6c83 52df 9782 2cbd 7c82 966f 4682
00000280: d538 8d82 cfa3 6502 cdee 8182 698b 0783
00000290: 8a33 7302 af60 ea82 098e 7402 8b78 4d83
000002a0: 2670 dd01 3f52 0102 b015 4702 935c b302
000002b0: e685 0102 9e8d 8302 7b90 8402 a1e1 7d82
000002c0: f110 8782 6fde e782 4860 3a02 f87a 5f02
000002d0: 867f 8402 218f 2381 e50a 8e02 3cf4 9a82
000002e0: b054 9b02 6ead 2b03 d66e 5602 1c45 8a82
000002f0: 18ab 3d03 0210 4b03 f104 6e82 3b4c 6602
00000300: d09e 9982 8007 0881 2899 f981 aeee 7782
00000310: 2559 8b02 76d0 8702 839d a802 7229 7b82
00000320: e37b 8382 a16d 6982 9c1d 8d02 d6dc 8702
00000330: ee88 9702 5030 3c82 fe23 d101 ca66 8e02
00000340: 07a9 6c82 e6b2 8682 77e8 1902 5674 e481
00000350: 8fc2 9102 2946 6082 c4c4 8001 def6 8382
00000360: e5e8 0d82 98e9 3582 b85b c782 d297 9f00
00000370: c718 0e83 8243 8802 0e27 8102 9816 6982
00000380: 25ec 3f82 cc52 5380 a48c e401 49d9 7b82
00000390: 79ef e682 86f5 ad02 4bec 9982 27e1 8502
000003a0: 3562 0082 2a03 a601 b476 3481 308b 9201
000003b0: 370a 3a02 4dda 8902 1ce3 7982 02c6 4002
000003c0: 0d30 7682 aedd 9a01 5ae7 0602 977e c282
000003d0: 0111 3882 34da 8482 bfbe 6d83 f4e1 fb01
000003e0: ac07 2382 db37 7e82 5260 9082 73e8 2f03
000003f0: 444f 7e02 358d 8802 2907 4782 ee6e 7c82
-3.2410379e-37 2.2240651e-37 8.773688e-38 2.2587032e-37 1.2645193e-37 1.1771881e-37 -1.6341731e-37 2.045401e-37
6.8020944e-38 -2.8015972e-37 4.941973e-37 -2.8867654e-37 1.6053052e-37 -1.7512209e-37 -1.7366497e-37 2.1084432e-37
-2.2953464e-37 -1.9036207e-37 -4.4428358e-38 -2.7673261e-37 -8.687177e-38 -1.4036652e-37 -1.5117244e-37 -1.020302e-39
5.059719e-38 -5.3674363e-37 -2.2071765e-37 -1.3753141e-37 -1.8140938e-37 -3.2113225e-37 2.19984e-37 -3.4623852e-37
4.1914468e-38 -2.3157894e-37 1.8065587e-37 1.0802253e-37 -5.9434503e-37 2.7737737e-37 1.915066e-37 2.0098053e-37
2.0374994e-37 -2.1008834e-37 -1.7439248e-37 -1.7240258e-37 -1.8910926e-37 1.7281125e-37 -2.2700228e-37 2.079382e-37
-1.9660141e-37 -2.0539735e-37 -2.057411e-37 -2.0536303e-37 -1.9620418e-37 4.4223625e-37 -2.2773227e-38 2.2320696e-37
1.4229311e-37 4.7752767e-37 4.5097296e-38 -1.799369e-37 -8.82347e-40 1.8181595e-37 9.821607e-38 -1.7746216e-37
6.238675e-38 -2.7485931e-37 -1.3001588e-37 -2.0818477e-37 -3.7922813e-37 1.9123643e-37 4.146717e-37 -1.9832656e-37
9.553605e-38 -5.4748305e-38 -2.2929207e-37 2.5502995e-37 -2.2650398e-37 -1.4251672e-37 -4.7640125e-37 1.838985e-37
3.6705403e-37 2.2414594e-37 -2.3025437e-37 5.824171e-38 -2.9428898e-37 9.2064524e-38 -3.3475462e-37 -2.7758936e-37
1.8862594e-37 -1.6107734e-37 -2.1650653e-37 1.3586355e-37 -1.5541731e-37 -2.9413057e-37 -6.438629e-38 -1.9541428e-37
2.6860076e-37 -1.9719742e-37 2.1266733e-37 -3.4426004e-37 1.2482016e-37 2.6901406e-37 4.4356796e-37 -1.9401038e-37
-1.470772e-38 1.5383534e-37 1.6644512e-37 2.12162e-37 1.884406e-37 4.6363724e-37 4.97154e-37 1.8724686e-37
1.5992274e-37 1.843566e-37 1.8207451e-37 -6.291003e-38 8.049931e-38 1.9694562e-37 1.3121002e-37 2.1932007e-37
-2.7988567e-37 -1.7495543e-37 -2.0483293e-37 1.4599804e-37 1.9314987e-37 -5.387438e-37 2.1494111e-37 2.4578793e-37
1.3483651e-37 7.5054975e-38 1.5573199e-37 5.3203245e-38 -1.5910073e-37 2.1154703e-37 7.3644725e-38 6.813039e-38
-2.0785884e-37 -9.458798e-38 -1.20625e-37 -1.8010373e-37 -1.9244653e-37 2.0139269e-37 -1.0702575e-37 -2.2737032e-37
1.9797383e-37 -1.4881776e-37 -1.1497367e-37 1.8479363e-37 -1.3435301e-37 -5.3754047e-37 3.107814e-39 5.895545e-38
-1.974565e-37 1.9204558e-37 4.2521678e-37 -1.1748227e-37 -6.9539564e-37 -2.2315635e-37 -1.8568326e-37 -1.4578766e-37
-2.0750708e-37 1.6871274e-37 -1.9091911e-37 -3.983297e-37 1.7867611e-37 -3.4438703e-37 1.7967051e-37 -6.038246e-37
8.1343504e-38 9.501027e-38 1.4626435e-37 2.635482e-37 9.51585e-38 1.9330004e-37 1.9478585e-37 -1.8652257e-37
-1.984619e-37 -3.407007e-37 1.3692753e-37 1.6418743e-37 1.9468852e-37 -3.0041062e-38 2.0871278e-37 -2.276845e-37
2.2823811e-37 5.045147e-37 1.5754045e-37 -2.0316944e-37 5.5738514e-37 5.9674714e-37 -1.7486897e-37 1.6919608e-37
-2.2572483e-37 -2.4984636e-38 -9.168792e-38 -1.8215192e-37 2.047538e-37 1.9956118e-37 2.4775789e-37 -1.8452462e-37
-1.9319827e-37 -1.7149598e-37 2.0735083e-37 1.996322e-37 2.226605e-37 -1.3825924e-37 7.682612e-38 2.0924023e-37
-1.738705e-37 -1.9792213e-37 1.1307379e-37 -8.3920906e-38 2.1417506e-37 -1.6477056e-37 4.730212e-38 -1.9390415e-37
-1.0425881e-37 -1.3364818e-37 -2.9293066e-37 1.4656307e-38 -4.1758492e-37 2.0022152e-37 1.8977263e-37 -1.7124621e-37
-1.4100234e-37 -7.652048e-39 8.395578e-38 -1.8502925e-37 -3.3932913e-37 2.5560989e-37 -2.2616955e-37 1.9671825e-37
-9.432139e-38 6.098331e-38 -3.3145944e-38 5.3831654e-38 1.3668053e-37 2.025564e-37 -1.8358808e-37 1.4162758e-37
-1.8087016e-37 5.688876e-38 9.91116e-38 -2.8578397e-37 -1.3523065e-37 -1.95209e-37 -6.9867006e-37 9.2527065e-38
-1.197755e-37 -1.8677003e-37 -2.1214183e-37 5.1694716e-37 1.8683721e-37 2.0064453e-37 -1.4622266e-37 -1.8545871e-37

in_proj_bias f4 [192]
00000000: 0000 0000 0000 0000 0000 0000 0000 0000
00000010: 0000 0000 0000 0000 0000 0000 0000 0000
00000020: 0000 0000 0000 0000 0000 0000 0000 0000
00000030: 0000 0000 0000 0000 0000 0000 0000 0000
00000040: 0000 0000 0000 0000 0000 0000 0000 0000
00000050: 0000 0000 0000 0000 0000 0000 0000 0000
00000060: 0000 0000 0000 0000 0000 0000 0000 0000
00000070: 0000 0000 0000 0000 0000 0000 0000 0000
00000080: 0000 0000 0000 0000 0000 0000 0000 0000
00000090: 0000 0000 0000 0000 0000 0000 0000 0000
000000a0: 0000 0000 0000 0000 0000 0000 0000 0000
000000b0: 0000 0000 0000 0000 0000 0000 0000 0000
000000c0: 0000 0000 0000 0000 0000 0000 0000 0000
000000d0: 0000 0000 0000 0000 0000 0000 0000 0000
000000e0: 0000 0000 0000 0000 0000 0000 0000 0000
000000f0: 0000 0000 0000 0000 0000 0000 0000 0000
00000100: 0000 0000 0000 0000 0000 0000 0000 0000
00000110: 0000 0000 0000 0000 0000 0000 0000 0000
00000120: 0000 0000 0000 0000 0000 0000 0000 0000
00000130: 0000 0000 0000 0000 0000 0000 0000 0000
00000140: 0000 0000 0000 0000 0000 0000 0000 0000
00000150: 0000 0000 0000 0000 0000 0000 0000 0000
00000160: 0000 0000 0000 0000 0000 0000 0000 0000
00000170: 0000 0000 0000 0000 0000 0000 0000 0000
00000180: 0000 0000 0000 0000 0000 0000 0000 0000
00000190: 0000 0000 0000 0000 0000 0000 0000 0000
000001a0: 0000 0000 0000 0000 0000 0000 0000 0000
000001b0: 0000 0000 0000 0000 0000 0000 0000 0000
000001c0: 0000 0000 0000 0000 0000 0000 0000 0000
000001d0: 0000 0000 0000 0000 0000 0000 0000 0000
000001e0: 0000 0000 0000 0000 0000 0000 0000 0000
000001f0: 0000 0000 0000 0000 0000 0000 0000 0000
00000200: d594 71bd 6c0f cdbb ee9c 73b9 b946 05bd
00000210: ef43 8fbd 2718 6c3d de88 1ebd ef75 cdbd
00000220: 64e9 a7bd 4d45 8bbd d13a 8d3d 8bb8 d33c
00000230: 7962 9e3d 16f3 9c3c 9a4b 553c 28af ee3d
00000240: b58b 193d c236 03be e262 4ebd 1d76 b0bd
00000250: 774b 053e 3036 ecbd 6480 e3bd ead7 a53d
00000260: 730d 603d 7939 303b 8a41 1abd 6fa1 89bd
00000270: bd0c 1d3d 33c4 023e c2f2 803d d561 003d
00000280: 0a4b 13bd c675 a4bd 087c 74bc 3000 ea3c
00000290: 754c c03c d653 f63c c8f5 dcbd aed5 cf3d
000002a0: eb5f a8bc 1ae4 9abd 2ccb 173e 2b7a 85bd
000002b0: f627 9c3d 477c ebbd 10d0 85bd 38c3 d03c
000002c0: e225 afbc 80a3 c83d ade3 3e3d 41d5 e2bb
000002d0: b397 50bd af73 83bd 0620 4abc 7575 7e3b
000002e0: e323 083e 99e8 fc3c f7b1 a13d aba6 393d
000002f0: 2efe c0bc a62d cc3d 472b d3bc 7c7d f43c
0.0 0.0 0.0 0.0 0.0 0.0 0.0 0.0
0.0 0.0 0.0 0.0 0.0 0.0 0.0 0.0
0.0 0.0 0.0 0.0 0.0 0.0 0.0 0.0
0.0 0.0 0.0 0.0 0.0 0.0 0.0 0.0
0.0 0.0 0.0 0.0 0.0 0.0 0.0 0.0
0.0 0.0 0.0 0.0 0.0 0.0 0.0 0.0
0.0 0.0 0.0 0.0 0.0 0.0 0.0 0.0
0.0 0.0 0.0 0.0 0.0 0.0 0.0 0.0
0.0 0.0 0.0 0.0 0.0 0.0 0.0 0.0
0.0 0.0 0.0 0.0 0.0 0.0 0.0 0.0
0.0 0.0 0.0 0.0 0.0 0.0 0.0 0.0
0.0 0.0 0.0 0.0 0.0 0.0 0.0 0.0
0.0 0.0 0.0 0.0 0.0 0.0 0.0 0.0
0.0 0.0 0.0 0.0 0.0 0.0 0.0 0.0
0.0 0.0 0.0 0.0 0.0 0.0 0.0 0.0
0.0 0.0 0.0 0.0 0.0 0.0 0.0 0.0
-0.058979828 -0.006257942 -0.00023232747 -0.03253815 -0.06995379 0.05764022 -0.038704745 -0.1003226
-0.081988126 -0.068003275 0.06895984 0.025844833 0.07733626 0.019158881 0.013018513 0.11654502
0.03748675 -0.12813857 -0.05038727 -0.08616278 0.13017069 -0.11533773 -0.11108473 0.08097823
0.054700326 0.0026889725 -0.03766016 -0.06720244 0.038342226 0.12770157 0.062963024 0.0313433
-0.035960235 -0.08030276 -0.0149221495 0.028564543 0.023473958 0.030069273 -0.107890666 0.10148178
-0.02055355 -0.07563038 0.14823598 -0.06517442 0.076248094 -0.114983134 -0.065338254 0.025483713
-0.021380369 0.0979681 0.046603847 -0.0069223945 -0.05092592 -0.06418549 -0.012336737 0.0038827334
0.1329494 0.03087263 0.07895272 0.045324963 -0.023558702 0.09969644 -0.025777472 0.029844992

weight f4 [64, 64]
00000000: 0647 b5bd f13c edbd 4b54 08be c15b 0bbd
00000010: ebdc fe3c 24fe 8b3d afc7 093e d710 cbbc
00000020: ede0 083e 9e90 19bd 56f8 24bd 4541 f43d
00000030: c4e0 193d c3db 973c c972 f8bc 4a00 cabd
00000040: 9444 a03d ae2c bc3c 00eb ac3d 0ec1 cfbc
00000050: 92af e4bd eb2f 28be 7d8e 393e 9c92 a0bb
00000060: 8bf2 ce3c fb31 e1bc aeee 8f3d 16af d73d
00000070: b475 90bd a846 5b3c 04d4 20bc 0bdc 65be
00000080: 4e2c d03d 6093 df3d 032a ad3d dfb8 31bd
00000090: ccf6 12bd 4e3a 113d 7e13 da3d dbfe 23bc
000000a0: d569 ae3b 161b 06be d03e 96bc 7d56 28be
000000b0: b98b 4d3d 7d09 0d3e 8bab cabc a5f9 c2bd
000000c0: 53a9 23bd 4639 b93d 7ada 12be d44f e23d
000000d0: 2892 153b 1e62 a43d ad69 c9bc d322 21be
000000e0: 6e70 5d3d ac91 b7bc 6dd9 ee3d 911c 363d
000000f0: 6693 6f3d 9b80 60bb 5982 063e 3fa1 dd3c
00000100: 4165 2cbd 4994 1d3e f9b2 823d 99df 493d
00000110: 2a37 483a 067b 10bd 4aae a63d b78f 0cbc
00000120: d14e 10be e39b 053c 5346 eabc 38cb 813d
00000130: 36ee 1e3e a1e4 0c3e b6f8 0b3e 9fa8 5c3d
00000140: 396f 1b3c ff69 93bd 64c9 993d 6cd1 4f3d
00000150: faf6 193d 2cc7 5b3e 11df d33d f8b9 2bbe
00000160: 744c 893b e243 813d bdef 05be b64c 9cbd
00000170: ded1 f33c 635e 003d fdc5 81bd abcd bd3d
00000180: ecff 563e c7d3 30bd 1fcf 00bd 347a edbb
00000190: 9922 283e 3b6c 12bd ed6a b8bc 1d2a 0c3e
000001a0: 7025 d93b 925b 96bd 6d78 80bd 4c80 143e
000001b0: 3d3d 303d c38f a9bd 3c15 17bd 068a 7abd
000001c0: 6457 3d3d f3ec 00be 576c 143d 922b fb3c
000001d0: e753 1fbc b4b0 0d3d b4fd d13b 0a0f 4ebd
000001e0: 955d ff3d 75f9 c1bd 9871 74bc 7f18 db3d
000001f0: d4b7 e9bc 34d1 453d 4347 a43c 318e adbd
00000200: 5bbe 2e3d 1fbc b5bd bdb0 80bc 4b96 533d
00000210: 6f40 403d 9fa2 623d 9d18 9c3d 5e05 153e
00000220: adb8 0c3c f872 2fbe 481e 5b3b 24a2 d03c
00000230: fa08 c0bd 4e5d a1bd 887a e13d 8849 3abd
00000240: 39a2 efbb d83d 12bd a4c4 403e b7f8 f0bc
00000250: 9c55 92bd 6c12 34bd dde4 48bc 2ab2 533d
00000260: 60e6 30be 0dbe 0cbe d729 6f3e 6cd3 b33d
00000270: a75a 1c3e ebd4 16be 733e 0e3d 4cd9 d2bd
00000280: f9f6 9f3b db6a 403e e706 6e3d 5de0 1b3c
00000290: 8992 d83a 4a1d cd3d 18b1 143c 81e4 903c
000002a0: ffde cebc bb38 6bbd 78ad d03d 0f22 b63d
000002b0: 53ac e6bc 9794 ea3d 52a6 72bc da65 e3bd
000002c0: 627f f63d 8ed6 df3d 098c 993d 6e75 c8bd
000002d0: c15d c4bd 1662 7d3d 7666 edbd cbdd cc3c
000002e0: dbed 3bbd 897a a53d 42f9 df3d 6a8e a63d
000002f0: a4f2 e9bd 9915 3bbd b635 51bd b544 10be
00000300: d07d 013d 711d 4a3c 9caa 013e c89a 293e
00000310: 5a20 d73d 9402 4dbe fcc6 b73b 173d c7bd
00000320: 8870 973d c9dc bc3c 8a1f 773b 704d cc3d
00000330: 1b61 9d3d 8c51 ddbc 4730 11bb 1107 d9bd
00000340: 71f8 0bbd b35c f4bd 65c5 6b3d 8998 013d
00000350: d592 203d 724f 6ebe ef8d 8a3c 8840 403e
00000360: 3979 c0bd 4acb 84bc 81f3 183d 7145 bf3d
00000370: a073 1a3e 4db1 14be e67a 603d 12bb b83d
00000380: 8c1a 6abd 1a77 36be eda0 a53c 6320 613c
00000390: 389b 59bd cd7b d8bd 8569 32bd d0d5 9ebd
000003a0: ee78 9e3c b48c 843d ff84 f53d 33f6 153d
000003b0: 1393 ad3d b275 0b3d 048c 993c 8ba4 4c3d
000003c0: c01b b7bd 6e9f ab3d 61ee f13d 9413 d8bd
000003d0: fa7b 5b3d 8874 8ebd d7d7 dcbd cec9 28bd
000003e0: ecb8 dcbc 8aee 113e 7430 92bd 94da 5dbd
000003f0: fa11 463d 3000 293c eb6b 6e3d 7aee 20bc
-0.08851437 -0.11583889 -0.13313405 -0.03402305 0.031111201 0.06835583 0.1345508 -0.024788303
0.13367052 -0.037491433 -0.040275894 0.11926512 0.03756787 0.018537408 -0.030328171 -0.098633364
0.0782558 0.022970524 0.0844326 -0.02536061 -0.111663 -0.16424529 0.18120761 -0.0049002897
0.025262138 -0.027489653 0.070279464 0.10531442 -0.070537 0.013383545 -0.009816173 -0.22447221
0.101647004 0.109167814 0.08455279 -0.043389197 -0.035879895 0.035455994 0.10648249 -0.010009493
0.0053226748 -0.1309627 -0.018340498 -0.16439243 0.050182078 0.1377315 -0.024740001 -0.09520272
-0.039956402 0.09044127 -0.14341155 0.11050382 0.0022822712 0.08026527 -0.024586523 -0.1573594
0.0540623 -0.022408329 0.116625644 0.044460837 0.05849018 -0.0034256342 0.13135661 0.027054427
-0.04208875 0.15388598 0.063817926 0.049285505 0.00076376146 -0.035273574 0.08138712 -0.008579186
-0.14092566 0.008154842 -0.028597986 0.06337589 0.15520558 0.1375909 0.13669094 0.053871747
0.009486967 -0.071979515 0.07509115 0.05073683 0.03758905 0.21462697 0.10345281 -0.1677016
0.004190022 0.06311776 -0.13079734 -0.07631819 0.029763158 0.031340014 -0.063365914 0.09267744
0.20996064 -0.043170717 -0.031447526 -0.0072472338 0.16419448 -0.035747748 -0.022511924 0.1368794
0.0066267774 -0.073416844 -0.062729694 0.14502066 0.04302715 -0.082793735 -0.036885485 -0.061166786
0.04622592 -0.12590389 0.036236133 0.030660424 -0.009724594 0.034592345 0.0064084176 -0.05030731
0.12469021 -0.09471408 -0.014919661 0.10698032 -0.028530039 0.048295215 0.020053511 -0.084743865
0.042662006 -0.08873772 -0.015709275 0.051657002 0.04693645 0.05533087 0.07621882 0.14552829
0.008588952 -0.17133701 0.0033434797 0.02546794 -0.09376712 -0.078791246 0.11009699 -0.04548028
-0.0073130396 -0.03570351 0.18825012 -0.029415471 -0.07145235 -0.04396288 -0.0122615965 0.051683582
-0.17275381 -0.13744374 0.23355804 0.0878056 0.15268956 -0.1472966 0.034727525 -0.10295352
0.0048817364 0.18790762 0.05811205 0.009513942 0.0016523163 0.10015352 0.009075426 0.017687084
-0.025252817 -0.05742715 0.101893365 0.08893215 -0.028158342 0.114541225 -0.014810162 -0.11103411
0.12036015 0.10929595 0.07497413 -0.09788023 -0.09588195 0.06186112 -0.115918085 0.025008103
-0.045881134 0.08080012 0.10936214 0.08132632 -0.11423233 -0.045674894 -0.051076613 -0.1408871
0.031614125 0.012336121 0.12662739 0.1656295 0.105042174 -0.20020515 0.0056084376 -0.09728449
0.073945105 0.023054497 0.0037708008 0.099757075 0.07684537 -0.027016424 -0.002215402 -0.10597051
-0.03417248 -0.119317435 0.057561297 0.03163961 0.03920253 -0.23272493 0.016913382 0.18774617
-0.093981214 -0.016210217 0.0373416 0.09339417 0.1508317 -0.1452076 0.054804705 0.09020056
-0.057154223 -0.17818871 0.020218337 0.013740632 -0.053126544 -0.10570488 -0.043557663 -0.07755625
0.019344773 0.064721495 0.119882576 0.036611747 0.08475318 0.03404779 0.018743522 0.049961608
-0.0894084 0.08380018 0.11813045 -0.10550609 0.05358503 -0.0695582 -0.10783356 -0.04120808
-0.026943646 0.14251152 -0.07138148 -0.05416353 0.048356988 0.010314986 0.058208387 -0.009822482

bias f4 [64]
00000000: cc54 a8bd 33c8 6f3d a9b8 92bb 9282 4d3d
00000010: ef2b fc3c 0ce3 bdbd ac6c 293c 4c70 00be
00000020: eb29 68bd 197d 7fbd f383 2e3e 797f 6fbd
00000030: 2c49 7bbd c2ee 033d 1af3 c53b e394 1a3c
00000040: 9b6b 8bbd dadd cb3d c0c3 0bbe 58c9 f03a
00000050: 7c5e 9dbc da59 15bd 8e07 2dbd 2952 fabd
00000060: 4c0c 1c3d 6ec6 a43d 2a12 cc3d cad8 893d
00000070: 3606 acbd d740 b9bb 101f 28be 9c2c 1a3d
00000080: bb7a 803d 85be 9f3d 73b3 5bbd cfdd e83d
00000090: edcc 89bd fae0 6d3d bbf5 f83a 868c 5f3d
000000a0: f8b4 abbc 22e3 d63d 3d82 92bd 062a 38bd
000000b0: 7875 ad3d 3c5d 96bd a28a 35be 7519 b8bb
000000c0: 93a9 183e 72d0 333d be8c aebd 1c47 5bbd
000000d0: c231 8b3d 2f3c c23c 1e10 2dbc 7f20 9b3d
000000e0: c1e3 c3bd ae1c 393c e26e 513d d6e4 2d3e
000000f0: 6bb9 2ebd e528 83bc 55be 483d ec72 7c3d
-0.08219299 0.058540534 -0.0044775796 0.05017335 0.030782668 -0.092718214 0.010340851 -0.12542838
-0.0566806 -0.06237516 0.17042522 -0.058471177 -0.06134908 0.03221012 0.006040943 0.009434911
-0.068076335 0.09954424 -0.13648891 0.0018370552 -0.019210093 -0.036462642 -0.042243533 -0.12222702
0.038097665 0.0804566 0.09964402 0.06730802 -0.08399622 -0.0056534815 -0.164181 0.0376402
0.06273409 0.078000106 -0.053637933 0.11370432 -0.067285396 0.058075882 0.0018994132 0.054577373
-0.020960316 0.10492541 -0.07153747 -0.04496195 0.08469671 -0.07342002 -0.17728665 -0.005618269
0.14908437 0.04389996 -0.08522938 -0.053534612 0.067966 0.023710338 -0.010562925 0.075745575
-0.09564925 0.011298342 0.051131137 0.16981825 -0.042657297 -0.016010711 0.04900964 0.061633036

weight f4 [256, 64]
00000000: eaae e3bd 726c 173d aabd adbd cbbb 5dbb
00000010: a369 443e 3769 13be da3e 273d 6ba4 a3bd
00000020: 8eac ac3b 038e 10bc 8a1a 2e3c f0ce 823b
00000030: 32ef d9bd 6049 393e 0b20 853d 38d3 b1bd
00000040: 55e4 c2bd 963d 72bb ac52 103e 2ef3 1f3d
00000050: e85f 1ebe ab9f 1d3d 8074 af3d afb1 31be
00000060: 37c6 653d bfec 3c3c d8e6 b93d fba8 9c3d
00000070: 011d e33c 71fa e3bc 7381 d53d d69d 9cbd
00000080: 1c44 243e c73b 1dbe 918d 743c 4bb2 dbbb
00000090: 1539 efbc a43c eabd 2f27 213e df5e d8bc
000000a0: c413 003e 236f c83d ea20 c8bd 689c cbbd
000000b0: 5002 06bd 3ba5 75bd 3b64 8c3d 4c46 ee3d
000000c0: 501a d5bd 607f bf3d 28db 203c 6ea8 ca3c
000000d0: 3c4f 03be 6327 103d e2fc 803d 379a 23bd
000000e0: 258e c53d 1959 f7bd 4cd2 b5bd 6245 9e3d
000000f0: d87e 8d3d 4d5b 993c 22db 96bc 35f0 053e
00000100: 5814 c73d d827 833d 0d58 8cbd 68b6 a43c
00000110: 1216 773b 9f22 d9bd 4516 193e c2f2 b83c
00000120: 3f5f e43c a315 6e3e 9c6b c23c f075 043e
00000130: eda6 9cbc 8f73 443c 1f2a 7abc b3b5 053e
00000140: 0f12 623e 3d5d 9fbc 47a9 34bb 3356 bfbd
00000150: 13d5 b23d 2dfa 5abd 1ad8 e43c d8d0 793d
00000160: 98b7 033e e3ad 5c3d d26b 483d 4e9e 51bd
00000170: 6194 02bd 7bad ec3d e562 29bd ed70 97bc
00000180: be93 27bd a26f c0bd 6fe1 10bc 1811 f0bc
00000190: 2a94 f1bd 8ad6 80bd c46b 66bd 0222 02bd
000001a0: e2ee bb3d 2d5c e73d f13c 583d 1dbd a93d
000001b0: 3312 85bd c21c 0dbd 4c0a 9bbd e7d3 d13d
000001c0: aa2e 903d 31ac e83d f8a7 803d 9780 74bc
000001d0: 8f44 88bd 1389 b53c b87a dabd b9a3 53bd
000001e0: 61e1 2a3d a567 703d 63d6 a7bc 6c6f 1a3d
000001f0: 8b5c f43d 96d6 f43a 116f 69be bd89 c43d
00000200: df97 af3b 7e63 23bd a1ef b0ba a9c2 c73c
00000210: 30c6 dd3d b5fc ff3d 3275 3cbd 52a3 743c
00000220: 1b24 763d 663b 2fbd b228 0fbe 4750 a3bc
00000230: 1f06 11bd 0d31 ba39 0fe9 8f3d 9b6b d43d
00000240: 4fe6 97bb 6dfe efbd 7ee2 4ebb 9b71 063e
00000250: e296 1bbd cd71 c33d fb78 b53d db14 843c
00000260: 99dc 2a3d 6a1f 833d 8300 fc3c 0ab8 ebbd
00000270: 4b41 8d3d a027 e13d fb56 9abb ee71 a93d
00000280: 57d4 5a3d e751 adbd 680c da3b e240 88bd
00000290: 49fc 993d cbd5 0dbe eef0 313e 528e 71bc
000002a0: 4f4c 9d3c 7343 aa3d b8e1 8fbc ce0b 6f3c
000002b0: 5a77 813d c9b3 8fbd af88 a43c 7e23 923d
000002c0: 9790 013e 37be 173d ec37 ab3d db65 0d3d
000002d0: 59f4 943d f626 c6bd 1aa9 9ebd 3f20 e8bd
000002e0: 7248 8fbd cf18 c8bd 83b5 ea3d 7c70 ecbc
000002f0: 44ee e53b 6b29 a1bd 4728 883d 2591 d93d
00000300: a36c 57bd 884e 9bbd ff1b 4e3b 4b53 d23d
00000310: a506 cd3d d0ca 713b 8c25 b4bd 4479 7f3c
00000320: 9a97 ca3b e211 3abe d5fe 993d 72c3 bebc
00000330: 0edd 83bc c374 77bd 6914 e2bc 5d06 f43d
00000340: aede 96bc c514 fabd e41e f0bb f329 1bbd
00000350: 996a 1cbe 25f8 f13c 9e70 74bd d0d4 b23c
00000360: 376f 60bd 20e9 0b3e 677c a7bc 0568 663d
00000370: a5b7 1bbd d1e0 7bbd f738 b63b 4992 ba3d
00000380: 3879 623d 713a 943d 91dd 183d 5ca3 0d3e
00000390: f0b2 b7bb d8f4 a6bb 11f8 9ebb c930 8b3d
000003a0: d44b 5d3d e54a 983c c918 e6bc 67e4 bdbc
000003b0: cdda c43d 74ea 24bc 5b6b dcbc bdee 26bc
000003c0: 2786 e53d 04c6 4f3e 9d2b 96bd c2ae 5d3d
000003d0: 2e17 0d3e bfed d23d 43c2 86bb 617e 97bb
000003e0: 2d97 383d ff23 003d cd59 533d d2d0 4e3e
000003f0: 2648 903b e8f8 dc3a 7b79 853d 39d4 873e
-0.111173466 0.036968656 -0.08483441 -0.0033833857 0.19180922 -0.14395605 0.040831424 -0.079903446
0.0052695936 -0.008822921 0.010626445 0.003991954 -0.10641326 0.18094397 0.06500252 -0.08682865
-0.09516207 -0.0036962978 0.14094037 0.039050274 -0.15466273 0.03848235 0.085671425 -0.17352937
0.056097236 0.011531054 0.09077233 0.07649418 0.027723791 -0.02782938 0.10425081 -0.07647292
0.16041607 -0.15354834 0.01492633 -0.006704604 -0.029202024 -0.114373475 0.15737604 -0.026412426
0.1250754 0.09786823 -0.09771903 -0.099419415 -0.03271705 -0.05997203 0.06855055 0.11634502
-0.10405409 0.09350467 0.009817876 0.024738517 -0.12823194 0.035193812 0.062982336 -0.039941993
0.096462525 -0.12077541 -0.088780016 0.077280775 0.06908959 0.018720293 -0.018415038 0.13079913
0.09720677 0.06404084 -0.06852732 0.02010651 0.0037702364 -0.106023066 0.14949901 0.022576693
0.027877448 0.23250441 0.023732953 0.12935615 -0.019122565 0.011990442 -0.0152688315 0.13057594
0.22077201 -0.01945364 -0.0027566717 -0.09342613 0.08732047 -0.053461242 0.027935077 0.060990185
0.12863004 0.05387677 0.04893095 -0.05117636 -0.031879786 0.11556526 -0.04135408 -0.018486464
-0.040912382 -0.09396292 -0.00884281 -0.029305026 -0.11795838 -0.0629092 -0.056255117 -0.031770714
0.09176423 0.11296878 0.052792493 0.082880236 -0.06497612 -0.034451254 -0.07570323 0.10245495
0.070401505 0.11360968 0.062820375 -0.014923236 -0.066537015 0.022160089 -0.10667938 -0.05166981
0.041718844 0.058692593 -0.02048797 0.037703916 0.11931714 0.0018679674 -0.22796275 0.09596584
0.0053586806 -0.039889805 -0.0013499149 0.024384813 0.10828817 0.12499372 -0.046010204 0.014931517
0.060093027 -0.042781256 -0.13980368 -0.01993574 -0.03540623 0.0003551323 0.07026874 0.103720866
-0.004635609 -0.1171845 -0.0031568105 0.13129275 -0.03798569 0.0954319 0.08860966 0.016123226
0.041714285 0.06402476 0.030761963 -0.11509712 0.06897219 0.10993886 -0.004710076 0.082736835
0.05342516 -0.08462887 0.006654311 -0.066530004 0.07518823 -0.13851087 0.17377064 -0.014743404
0.019201426 0.08313646 -0.017563686 0.014590217 0.06321593 -0.07016713 0.020084707 0.07135676
0.12652813 0.037046637 0.083602756 0.034520965 0.07273168 -0.096754 -0.07747097 -0.113342755
-0.0699624 -0.09770357 0.11460402 -0.02886223 0.007016929 -0.07869228 0.06648307 0.10623387
-0.05259384 -0.07583338 0.0031449792 0.10269793 0.10011033 0.0036894567 -0.08796224 0.015592877
0.006182623 -0.18170884 0.075193085 -0.023286555 -0.016096618 -0.060414087 -0.027597623 0.11915276
-0.018416729 -0.12210993 -0.007327901 -0.037881803 -0.15275039 0.02953727 -0.059677713 0.021829993
-0.054793563 0.13663149 -0.020445062 0.056251545 -0.038016934 -0.0614937 0.00556099 0.09109933
0.055291384 0.07237709 0.037320677 0.13831848 -0.005606048 -0.0050951056 -0.004851349 0.067964144
0.054027393 0.0185904 -0.02808799 -0.0231802 0.096120454 -0.010065664 -0.02690666 -0.010188756
0.11207228 0.2029038 -0.07332537 0.05412174 0.13778374 0.10299253 -0.0041125133 -0.00462322
0.045066047 0.03128433 0.051599313 0.20196846 0.004403132 0.0016858848 0.06517311 0.265291

bias f4 [256]
00000000: 447d 5c3c 336b 17be 1dd8 edbd 8b18 983d
00000010: 1d39 c8bc 24b8 093e 46f1 4fbc 8d01 3b3c
00000020: 550b 2bbc dc15 7a3d fe99 11be fa9b 843c
00000030: a9c6 a7bd 191f 223d 9180 97bd 3481 dabd
00000040: 66a2 b2bc fd9d 95bc 01ae 9c3d 16e1 b83d
00000050: fea8 bcbd 33db 08bd 55b2 013d 4951 c0bd
00000060: 83e3 0abe 8f16 10bd 5417 f3bd 0ec6 b3bd
00000070: 587f b93d b7df eebd 3792 c23d 1e66 38bd
00000080: cd5e 0ebe 1528 e6bd c4aa 683d cbf0 3ebc
00000090: 5ef5 06be e4ba 323d 28f5 9fbd 7400 1bba
000000a0: b80d ddb9 8a0d 02be c216 983d a344 913d
000000b0: a0c5 733d 609b 0bbd 55fe dfbd b050 d93d
000000c0: fcc0 b93d 5e7b 18bd 317c 11bd ab79 3c3d
000000d0: c8fb 843d e351 173d dfda 893d 7f74 01bd
000000e0: c66f e6bd 08c6 77bd b997 b43d a08e 593d
000000f0: 11b3 773d dc3c 1f3d 6107 debd 5c72 a53d
00000100: 335b 84bc 65ca 1b3d ee68 483d f956 90bb
00000110: 6043 06bd f52c a73d 9cd0 953d 7352 20bd
00000120: c288 fbbd 5442 75bc faf1 b3bd 0d6a 47bc
00000130: 03e1 433c c392 ce3c c297 d6bd d672 1dbc
00000140: 3f7f 14bd 8fd3 d0bd 8245 bebd e7ed 54bd
00000150: 76fd 15be 3348 cfbd 5287 8c3d bf78 b23d
00000160: 4783 afbd 7e3d c7bd 15a8 d8bd 103b b2bc
00000170: d191 38bd 13ab cebd 6d11 1d3c 1f62 e03c
00000180: d1fe eebd cf26 433a 7539 323d 660f 8c3d
00000190: da0e 453c c80a 323d 4728 423d 0462 90bd
000001a0: 020b 2d3d 8638 59bb c9df 74bd c302 e6bc
000001b0: eea2 bdbc 7619 fa3d 08c7 ebbc 39dd 3b3d
000001c0: 2365 7fbc 6dfc 51bd 4e97 223c 73a1 e4bc
000001d0: f1cf 99bd fa14 58bc e972 51bd fe8e 243d
000001e0: ea19 3c3d b153 2d3d 0259 7d3d 5896 bd3d
000001f0: 10bc 1d3d 05c1 aebd 212e 11be 8250 ecbd
00000200: 62fe 03b9 8888 9fbd 79fb 2c3d 2fb8 c53d
00000210: 6846 50bb 6086 66bd b750 acbd 4014 a5bd
00000220: fe24 873d 665c a4bd 1227 0fbd f57d d7bd
00000230: 7898 f3bd eef5 1fbc 0e61 dfbd c72e b3bd
00000240: dda4 ffbd c6bf 44bd 8655 af3d 5f1c 4e3d
00000250: c3f9 873d 1559 64bd b374 6d3c df70 6d3d
00000260: 1c39 963d 5c50 803d 1123 0abe 7d90 5dbc
00000270: a1b5 303d 0d39 f7bc 49a0 9abd 8916 5d3b
00000280: eb0f 9a3d 2c40 a23d dcf8 313d b4a5 38bd
00000290: a80c 773d 7392 2b3d 1ee1 c43d 3b63 773c
000002a0: 991d 75bd cf19 9cbd 9bb9 c33d c89a 9d3b
000002b0: f6a1 933d 77a6 d0bd 6aa9 6ebd a949 9b3b
000002c0: 8824 d6bd 262a 9e3d 5f54 b4bd 0ee7 9cbd
000002d0: 8ea8 d83c 08e7 fdbd 1626 ecbd 0b01 45bd
000002e0: 7880 c0bd 7ada bc3d 5507 5ebd 5736 bbbd
000002f0: 7e67 953d 1e66 b4bd 98f9 b83d a95c e3bd
00000300: 5922 c6bc e84a d8bd 87e8 e0bd 4658 253d
00000310: 4e13 b73d 62fc f6bd b75a b5bd 2309 b53d
00000320: ba0d bb3d 6933 91bc 96c4 1e3d 611e 6e3d
00000330: ce42 c4bc a8d8 16bd d536 a53d 5daf a43c
00000340: a490 f23c 5d47 92bd c38f 9539 5f06 7abb
00000350: d28c 8e3d f7c5 8c3d cb78 23bd 7453 e23d
00000360: 510c 5b3c d69b 8dbd c746 adbd cd40 e23b
00000370: 537b 303d c290 40bc 0379 053d b98b a6bd
00000380: cc12 5e3d bd0e 243d 0346 41bd 2349 d0bd
00000390: 77e3 32bc c577 09be 8a3f d03b 2051 14bd
000003a0: 9ea5 9b3d 8887 01bc e0cb d0bc 7d0f fbbc
000003b0: da5a 83ba 16fd 85bc a613 1139 18d2 e7bc
000003c0: 27fc b53d 0eec 8c3d 2fdf 8a3d a5ac 16be
000003d0: 479a 9dbd d38c bbbd 81fb 3bbd f09d 413d
000003e0: f0ee e6bd dba6 253c 8f1e 9c3c 4f27 acbd
000003f0: ab28 afbd 61aa a738 6a22 3c3d 8ca9 0bbe
0.0134576 -0.14786987 -0.11613486 0.07426556 -0.024441296 0.1344915 -0.012691801 0.011413944
-0.0104397135 0.061056003 -0.142189 0.016187657 -0.08192188 0.03958044 -0.07397569 -0.10669175
-0.021805953 -0.018263811 0.07650376 0.09027307 -0.0921192 -0.03341217 0.03166421 -0.09390504
-0.13563351 -0.035177764 -0.11869684 -0.0877801 0.09057492 -0.11663764 0.095005445 -0.04501926
-0.13903351 -0.11238114 0.05680348 -0.011654089 -0.13179538 0.043635264 -0.07810432 -0.0005912848
-0.00042162626 -0.12700477 0.07426216 0.070931695 0.05951464 -0.034083724 -0.10937182 0.10611093
0.09070012 -0.037227027 -0.03551883 0.04601447 0.06493336 0.036943328 0.067311995 -0.03160524
-0.11251788 -0.06049159 0.08818001 0.053114533 0.060473505 0.0388764 -0.10841251 0.08078453
-0.016156768 0.038034815 0.048928194 -0.004404899 -0.032779098 0.08162872 0.0731518 -0.03914113
-0.12281944 -0.014969427 -0.08786388 -0.012171281 0.011955502 0.025216466 -0.10478164 -0.009609899
-0.036254164 -0.101966016 -0.09290601 -0.051984694 -0.14647469 -0.10121193 0.06861748 0.08714437
-0.08569961 -0.097285256 -0.10578934 -0.021756679 -0.045060936 -0.100912236 0.009586674 0.027390538
-0.11669696 0.00074444426 0.043511827 0.068388745 0.012027467 0.043467313 0.047401693 -0.07049945
0.042246826 -0.0033145263 -0.05978373 -0.028077489 -0.02314898 0.122118875 -0.028781429 0.04586527
-0.015588078 -0.051266123 0.009923769 -0.027909016 -0.07510365 -0.013188595 -0.051134977 0.04017543
0.04592315 0.042316142 0.061852463 0.092571914 0.03850943 -0.08532909 -0.14177753 -0.11538793
-0.00012587899 -0.07789713 0.04223201 0.09654271 -0.0031780247 -0.056280494 -0.08413833 -0.08060503
0.065988526 -0.08025436 -0.03494937 -0.10522071 -0.118943155 -0.009763224 -0.109071836 -0.087491564
-0.12482617 -0.048034452 0.08561234 0.050320026 0.06639435 -0.055749018 0.014493155 0.05796897
0.073351115 0.06265327 -0.1348994 -0.013523218 0.043141965 -0.030178571 -0.07550103 0.0033735356
0.07522567 0.07922396 0.04345022 -0.0450799 0.060314804 0.04188771 0.0961325 0.015099342
-0.05984268 -0.0762211 0.09556886 0.004809711 0.07208626 -0.10188001 -0.058267035 0.0047390056
-0.104561865 0.07722883 -0.08805155 -0.07661258 0.02644756 -0.12397581 -0.11530702 -0.048096698
-0.093995035 0.092213586 -0.05420621 -0.09141224 0.0729513 -0.0880854 0.09031981 -0.11101658
-0.0241863 -0.10561162 -0.10981851 0.040367387 0.08939229 -0.12059857 -0.08855193 0.08839633
0.091334775 -0.01772471 0.038761698 0.05813444 -0.023957636 -0.036827713 0.08067099 0.020103151
0.029609986 -0.07142518 0.00028526605 -0.003815077 0.06960453 0.06873696 -0.03991012 0.11051074
0.013369636 -0.06914489 -0.08460765 0.0069046975 0.04308636 -0.011753263 0.03258611 -0.08132119
0.054217145 0.040053118 -0.04718591 -0.101702 -0.01091849 -0.13424595 0.0063552307 -0.03621018
0.07599948 -0.007905848 -0.02548784 -0.030647034 -0.0010021583 -0.016356032 0.00013835597 -0.028298423
0.08885985 0.06880961 0.0678085 -0.14714296 -0.07695442 -0.091577195 -0.04589415 0.04726976
-0.112760425 0.010110582 0.01905754 -0.08405935 -0.08552679 7.994916e-05 0.045931257 -0.13638896
